MediaPipe_Operation/motion_model_transformer/gesture_classifier_final.pth (torch, 26648 bytes, 4 tensors)

fc1.weight f4 [64, 90]
00000000: 1be5 8f3d 87e8 5abc 8b9b 903e f218 1ebd
00000010: 8d14 573e f6d1 94bd 1b53 9c3d 6a2f f63a
00000020: f815 6f3e 5f57 98bc 1a73 2c3e d11f 01bd
00000030: 2dc2 9d3d c45d 35bc fa63 4c3e ce08 96bc
00000040: d900 133e db35 79bb 9c75 9d3d 9b09 02bb
00000050: 44ae 233e ad2a 88bc 7c8f f43d af68 4f3c
00000060: 2c56 7e3d 2039 913a 8b49 db3d f104 83bb
00000070: bafd ae3d 9ddb 1a3d aa11 533d 29d7 1b3b
00000080: 5431 953d 88f2 c6bb 5948 823d 98e5 573d
00000090: 5cba 023d 6d72 e83b 7d41 fc3c 62de adb7
000000a0: 9f86 4e3d b4e7 743d 35b4 083c 7fdf a3bb
000000b0: 4247 62bc 2c3d 63bb c020 6a3c c625 703d
000000c0: df3a 18bc 706d a7bb 422f 5ebd 6249 ebba
000000d0: 383b 24bc 5c2d 223d bc47 f1bc daf0 43bc
000000e0: 244c cbbd f893 0bbb 581a 35bd 221d e73c
000000f0: ef9c 1dbd aeb9 0d3b 3ab6 f9bd 0b6b 6b3b
00000100: 183f 83bd 201a eaba db7c 5fbd 0981 2e39
00000110: a6f0 17be 71fc 443c a741 d1bd b6f3 97bc
00000120: 0060 afbd 098f 5d3c 951c 3abe 353c 023d
00000130: 0b30 16be b41f 02bd 9e4c d6bd 2a2d 823c
00000140: f4d7 5cbe c767 153d 768c 57be db53 61bd
00000150: ca42 05be bb92 933b 0e93 7ebe 5f6c 973c
00000160: 081d 8fbe 4a81 bbbd 443b b73c 736c cebd
00000170: 2037 e13c fed6 11bd f548 293d 9dd9 b13d
00000180: a9fc c33c 234a bdbd b9ec 063c f2e7 d8bc
00000190: fee1 c73c 9dfc 993d 9f7c 863c 8784 91bd
000001a0: ff7c 4cbb 668d c6bc 5125 0ebb aa2e 673d
000001b0: 3b7c a23c bf10 68bd ac7b 82bb 2d6f 9fbc
000001c0: 6f77 96bc c3bc 163d 054e 9f3c dd83 57bd
000001d0: a805 ae3b 8844 bbbb 79ea ccbc 985d cd3c
000001e0: b1ae d13c 2ee9 3dbd 98ac 903b 1b02 34ba
000001f0: 314d f3bc 245c 733c 0d11 c43c de4d 33bd
00000200: 56ab 523c 99b1 2a3c d95c 7cbc 3b9b 96bb
00000210: 2f93 e93c f728 2abd 0658 7ebb 5be6 44bb
00000220: 570c 97bc b1ae 723b 8c84 d73c 5233 2ebd
00000230: 6808 b3bb e04d 86bb 240b 64bc cc1d 00b9
00000240: bbf3 853c de5f 1bbd 7f5f 3abc ca6b 513b
00000250: f7a2 09bb 5ebb f93c 2742 4a3c c721 30bd
00000260: c36f 4abc 68be a5ba e64a bdbb 44bf 193d
00000270: e365 3c3c 8b08 40bd 2c5e a2bc 1793 87bc
00000280: 42d0 343b 4955 663d ff0b 343c c858 75bd
00000290: a925 75bc d479 35bd 2a13 e93b 076e 813d
000002a0: 0cc6 b63c f350 b0bd 046d 5c3a 2071 72bd
000002b0: 4968 c03c 54a3 a93d d412 d23c 86ed d5bd
000002c0: 46fd fb3c 3135 89bd f3f2 193d f6e4 c53d
000002d0: 3f15 93bc 619d 823d 02ef 9c3c 5cf2 223d
000002e0: 1304 69bc 0cc5 e53c 7af9 77bc e83f 743d
000002f0: a58a ac3c ee86 0f3d ac7f 16bc 7536 cc3c
00000300: 77b5 5bbc c21c 703d 897d cb3c c59d 083d
00000310: 87ed bdbb 26bc ad3c 34b5 2ebc f3d1 613d
00000320: 78da de3c 40c9 f83c 9bd3 22bb 4603 a53c
00000330: 635c 14bc 09bc 5c3d 9ad9 f53c 6078 f83c
00000340: 794c 5cba 00f9 8e3c 7f04 02bc 96e7 583d
00000350: ef29 0a3d d297 f23c 65f6 f1b9 e53f 853c
00000360: 312c 01bc 3154 523d 846a 0d3d 8189 f33c
00000370: 5c3b e5ba 7772 833c 57b1 debb ae79 553d
00000380: 99c6 183d 5fb3 ec3c 1cb5 84b8 9721 6b3c
00000390: d970 a0bb 1d4e 573d 2f85 173d 9083 de3c
000003a0: 04e0 2dba a119 633c e278 96bb c928 633d
000003b0: 8d63 173d e14f e33c b653 74b9 1422 6e3c
000003c0: d124 e9bb 5f66 643d 1a23 023d aba3 f13c
000003d0: 984c 50bb 23f8 833c 35a1 01bc 3f7a 6e3d
000003e0: cb56 e43c 5dfd f93c f738 d8bb 37c6 963c
000003f0: 4fa2 14bc da0a 7d3d da81 ce3c 3148 fe3c
0.0702612 -0.013361103 0.2824367 -0.03859801 0.21003933 -0.07266609 0.076330386 0.0018782441
0.23348224 -0.01859635 0.16840783 -0.031524483 0.07703052 -0.011069719 0.19960013 -0.018314745
0.14355792 -0.0038026485 0.07688448 -0.001984215 0.15984446 -0.016621912 0.1194143 0.012659236
0.0620939 0.0011079647 0.107073866 -0.003998392 0.08544488 0.037807096 0.051530518 0.0023779368
0.07284799 -0.0060713924 0.063614555 0.052709192 0.031916007 0.0070937187 0.030792946 -2.0726762e-05
0.050421353 0.05979128 0.008343746 -0.005001008 -0.0138109345 -0.0034673912 0.014290035 0.058629774
-0.00929138 -0.0051094815 -0.054244287 -0.0017950947 -0.0100238845 0.03959404 -0.02945315 -0.011959279
-0.09926632 -0.0021297913 -0.044214576 0.028212134 -0.03847974 0.0021625566 -0.1219296 0.0035921957
-0.064085186 -0.0017860569 -0.05456243 0.00016642002 -0.14837894 0.012023077 -0.102176 -0.018548828
-0.085632324 0.013522872 -0.18174966 0.0317957 -0.14666764 -0.031768516 -0.10463832 0.015890677
-0.21566755 0.036475923 -0.21049675 -0.05501161 -0.1301376 0.0045035756 -0.24860784 0.018484293
-0.27951837 -0.09155519 0.022367127 -0.10079279 0.027492106 -0.035605423 0.041329343 0.086840846
0.023924189 -0.09242656 0.00823515 -0.026477788 0.024399754 0.07518885 0.016416846 -0.07105356
-0.0031202433 -0.024237346 -0.0021689723 0.056440987 0.019834628 -0.056656595 -0.003982028 -0.019462192
-0.018367497 0.03680111 0.019446382 -0.05261599 0.005310733 -0.0057149567 -0.025014149 0.025069043
0.025595995 -0.046364956 0.004415106 -0.0006866769 -0.029699894 0.014853511 0.023933912 -0.04377543
0.0128582325 0.010418319 -0.015402996 -0.0045961416 0.028512565 -0.041542973 -0.003880979 -0.003004453
-0.018438501 0.0037030394 0.02630832 -0.04252941 -0.0054636486 -0.004098639 -0.013918672 -0.00012218131
0.016351571 -0.037933223 -0.011375307 0.0031955116 -0.0021001676 0.030484851 0.0123448735 -0.043000963
-0.012355748 -0.0012645246 -0.005776751 0.03753592 0.011498901 -0.046883147 -0.019820295 -0.01654963
0.0027589952 0.056233678 0.010989188 -0.05989912 -0.014962592 -0.044305637 0.0071128802 0.06319814
0.022311233 -0.0860919 0.00084085786 -0.059189916 0.023487227 0.082831055 0.025643744 -0.104456946
0.030760419 -0.066995986 0.03758521 0.096628115 -0.017954467 0.06377674 0.019156937 0.039781913
-0.014222163 0.02804806 -0.015135163 0.05963126 0.021062205 0.03504079 -0.009185713 0.02492831
-0.013409964 0.058621176 0.024840133 0.033353586 -0.0057961377 0.02120788 -0.010663319 0.055131864
0.027203783 0.030369401 -0.0024845365 0.020143162 -0.00905523 0.05389026 0.030010987 0.030330837
-0.00084037293 0.017452717 -0.007935642 0.052955233 0.033731397 0.02961341 -0.0004615068 0.016265819
-0.007884071 0.051349822 0.03452541 0.029728653 -0.0017489004 0.016045792 -0.006796043 0.052117996
0.037298772 0.028894125 -6.327985e-05 0.01435127 -0.004896265 0.05256473 0.03699225 0.027162343
-0.0006632807 0.013861091 -0.004592047 0.055458818 0.036960173 0.02774805 -0.00023300838 0.014534492
-0.0071149846 0.05576169 0.031771757 0.029496988 -0.0031783935 0.016109532 -0.00791197 0.05822205
0.027873417 0.03051632 -0.0065985876 0.018405063 -0.0090719005 0.061777927 0.025208402 0.031040283

fc1.bias f4 [64]
00000000: 5cb9 d2bc 1bb3 83bd 04e8 173d e847 f1bc
00000010: 201a 093d 9ffd 23bd 7722 fe3c e73d c93b
00000020: b89d a4bd 60cd f33c 8202 be3c f1a0 063d
00000030: 4a69 8cbc 9fbf 143e 5f54 513d 3deb aa3c
00000040: 2064 acbc ef53 10bc b93e 94bd 354b d33d
00000050: fc16 17bd 10a9 24bd f00d be3d b3de 603d
00000060: 52c1 23bd c55f 1dbd d475 1e3d c7ae 973d
00000070: 3211 1e3d 2f64 89bc 15cf ea3d d185 343d
00000080: 0273 be3d 48c5 2fbd d784 afbd aacb e0bd
00000090: fab2 043d 3a8f 00bd 2d6f 42bc 5379 123d
000000a0: 89a2 2e3d 7103 853d e494 853d 82fb 7bbc
000000b0: bf79 cc3d eba4 ee3d 4646 8fbd dad1 01bd
000000c0: 2e2f c2bd dec6 60bd 63f0 4e3d 791e 883d
000000d0: 71cc 093d fd38 6e3d 0eb7 c0bb ce79 f4bb
000000e0: 1d16 a13d 7ba5 d03d b8e8 183d 2f98 f23d
000000f0: dc58 5c3d 87e4 013b cce0 c43c f021 973d
-0.025723152 -0.06430646 0.0370865 -0.029453233 0.03347218 -0.040036794 0.031022293 0.0061414125
-0.08037895 0.029761016 0.023194555 0.03286833 -0.01714005 0.14526223 0.051105853 0.020864123
-0.021043837 -0.008809074 -0.07238526 0.10317079 -0.036887154 -0.040200293 0.09280002 0.054899883
-0.039979286 -0.03842141 0.03868659 0.07406383 0.038590617 -0.016771404 0.11465279 0.04407293
0.0929928 -0.04291275 -0.08570259 -0.10976346 0.032397248 -0.03138659 -0.011867327 0.035760235
0.042635474 0.06494797 0.06522539 -0.015379788 0.09984159 0.11652549 -0.069958255 -0.03169427
-0.09481655 -0.054877155 0.05052222 0.06646437 0.033642236 0.058159817 -0.005881197 -0.0074608093
0.07865546 0.10187813 0.037331313 0.11845433 0.05379568 0.001982005 0.024032973 0.0737952

fc2.weight f4 [4, 64]
00000000: 5b44 b03e 9e42 013e c8d8 9fbd 7e84 b53e
00000010: 9edb 223e 3938 be3e b3cb bcbd dcb4 143e
00000020: 33af 123e f715 c1bc efba 6b3d 79a5 273e
00000030: c8a3 073e 5d38 15be d9c0 eb3c d332 0039
00000040: 0d0b b93e 567e e83d 5d6e 0a3e 92f2 2c3e
00000050: 7842 1e3e 5cd0 ba3e 99d0 163e 2b2c 243e
00000060: 7835 163e 0a2e 053e 6fb2 38bd f68b fc3d
00000070: ead6 183e 25cc ac3e cd7e 40be ef15 433d
00000080: c2eb 1c3e 307b c43d f2a6 333e 79a2 3a3e
00000090: 116c 40bd 8561 143e 30a0 af3e 0d59 37bd
000000a0: 5a14 89bd c56e 5ebe 0848 d93d d5a9 243e
000000b0: 26d2 263e 7735 3abe 6049 223e 9ad2 033e
000000c0: 6540 2d3e e63f 333e 5075 f93d 2d51 63be
000000d0: 59da 66bd b18b 85bd d346 183e a931 bc3e
000000e0: 8a2d 58be 07f0 3c3e 5b71 8dbb 6b0a 15be
000000f0: 1041 ecbd c070 be3d 35b3 d53d b5b2 59be
00000100: e04f a83e 1b5d 2dbe ac3e 9dbd 7ebf ae3e
00000110: 3a75 eb3d 1d3c a13e c613 123d f8f0 06be
00000120: 1f61 54be 665b efbd e843 993c d8a5 1d3e
00000130: 026e 59be 0baa 0b3e 102f 243e e214 3ebd
00000140: 1dfd a83e 24da a7bc c314 45be a17a 263e
00000150: 3057 75be 794d a63e 6bb0 0e3e 9b44 ef3d
00000160: b7ef 8dbd 518b d6bd 3020 b4bd fdb0 c23d
00000170: a153 0b3e 6031 aa3e 729c 003e 6bea 39be
00000180: 61ff 1a3e 4081 eabd 832e 54be 1298 6ebe
00000190: 85e2 c7bd b12f 0ebd 36ca ab3e eae0 aebd
000001a0: d887 a8bd 4b5f 233e 67ee c03d 0a9e e0bd
000001b0: 98ca 2a3e b2b6 133e 8f73 2fbe 4560 57be
000001c0: c26b 65be 04e6 27be 86ee c53d e8fb 123e
000001d0: f359 c6bd 5d3e af3d 195a f0bd d4cc b73e
000001e0: a71f 113e e385 383e d483 c3bd 3707 0f3e
000001f0: abb3 033e 22fe 73be 147f c4bd 1de0 193e
00000200: dbf0 b1bd d87d 76bc c110 3a3e c565 c7bd
00000210: f268 32be 3970 c7bd d8cc 463e 1662 003e
00000220: 5773 8b3b 7212 3f3e a130 863c ec8a e6bd
00000230: a2e0 b93d 657d 183e 3a00 7f3c 4463 033e
00000240: 0fe8 c9bd 70dd aebc a5fb 0fbc 4721 31be
00000250: 19a9 e53d 698c edbd a50c 29be 0211 32be
00000260: bd22 ffbc 3442 c9bc a042 4e3e 4660 1ebe
00000270: 413a e4bd 6284 c8bd 0352 2d3e adb9 0f3e
00000280: f43a 23be 1a30 3abb 6434 aabc cb64 d0bc
00000290: 20c7 423e fa26 28bd 5679 45bd a5c6 383e
000002a0: 8753 463e d927 053e 6cb8 debd 84c1 f73d
000002b0: 879c 36be a02b 3d3e 8590 fdbc 7ef8 7c3d
000002c0: 213e 64ba 59b4 553d 2058 30be a6f8 c23d
000002d0: 0cff 4e3e 1e7f 813d 10f0 ed3d 294a c2bd
000002e0: 77dd 053e 2e60 2cbe 5cb5 673e af8c 463e
000002f0: 2cfd d43d ace2 f03d 3813 003e 491c e23d
00000300: af96 08bf 43fe de3d 17b8 1f3e b428 06bf
00000310: 3aed 173e b375 09bf 3c1f 343e d0eb b83d
00000320: 8521 003e 99de 2a3e 62c5 f13d 3a2b 103e
00000330: f62e 8e3d 5518 133e a1a1 233e 929c bf3d
00000340: 4ae7 02bf bf38 f93d 3c39 cf3d d64b 4f3e
00000350: bb7f 893d 15d4 ffbe 9cda 3f3e be72 343e
00000360: f1f3 0d3e d7aa ff3d e21d 293e ae5b 273e
00000370: e152 003e 15a7 02bf 1866 f83d 5614 ea3d
00000380: 5608 373e bbd5 ee3d cee7 053e 40c2 033e
00000390: 45e1 263e 54d3 083e e2ea 07bf 93e0 0d3e
000003a0: 2ad3 273e 10e4 2c3e 96cb 143e eab1 683d
000003b0: aeba 5a3e 8efa 123e fe1d 1b3e c2c5 483d
000003c0: 0ec1 033e 9f5a 3c3d 11a2 053e 12c1 0e3e
000003d0: f30e 333e e472 9b3d dc71 b23d 613c 10bf
000003e0: 5810 0f3e 01e7 633e efac 3e3e df94 093e
000003f0: 3f19 003e 4bb6 d23d 55c9 a53d c033 1a3e
0.3442715 0.12623069 -0.078050196 0.35452646 0.1590409 0.3715227 -0.0921854 0.14522117
0.14324646 -0.023570044 0.05755132 0.16371717 0.13246071 -0.14572282 0.02877848 0.00012225965
0.36141244 0.11352222 0.13518663 0.16889408 0.15455043 0.3648709 0.14728011 0.16032474
0.14668834 0.13005844 -0.045092043 0.12331383 0.14925733 0.337495 -0.1879837 0.04762834
0.1532431 0.09593809 0.17544153 0.18226041 -0.04697806 0.14490326 0.343019 -0.04476266
-0.06693335 -0.21721943 0.10609442 0.16080411 0.16291103 -0.18184458 0.15848303 0.12873307
0.16919096 0.17504844 0.12180579 -0.22198935 -0.056360576 -0.06520785 0.14870767 0.36756638
-0.21111122 0.18450938 -0.0043164915 -0.14554755 -0.11535847 0.09298849 0.10434572 -0.21259578
0.3287344 -0.16930048 -0.07677969 0.34130472 0.114969686 0.31491175 0.03566339 -0.1317786
-0.20740174 -0.11687355 0.018709138 0.15395296 -0.21233371 0.13639085 0.16033578 -0.046406634
0.3300561 -0.02048976 -0.19246201 0.16257717 -0.2395904 0.32480982 0.13934486 0.11683007
-0.069304876 -0.10475791 -0.08795202 0.09506414 0.1360612 0.33240795 0.12559679 -0.1815583
0.15136482 -0.11450434 -0.20720868 -0.23300198 -0.09760002 -0.03471345 0.33552712 -0.08538993
-0.08229035 0.1595432 0.09420472 -0.109676436 0.16678846 0.14425161 -0.17133926 -0.21032818
-0.22404388 -0.16396338 0.09664635 0.14353907 -0.09685125 0.08556817 -0.11735935 0.3589846
0.1417223 0.18019824 -0.095466286 0.13967596 0.12861507 -0.23827413 -0.09594551 0.15026899
-0.08688518 -0.015044652 0.18170454 -0.09736208 -0.17422846 -0.09738202 0.19414079 0.12537417
0.004255693 0.1865938 0.01638061 -0.11256966 0.090760484 0.14891584 0.015564019 0.12830836
-0.09858715 -0.021345824 -0.008788024 -0.1729785 0.112138934 -0.11599047 -0.1650873 -0.173893
-0.031144494 -0.0245677 0.20142603 -0.15466413 -0.111439236 -0.09790875 0.16925816 0.14035673
-0.15940458 -0.0028410018 -0.020776935 -0.025438687 0.19021273 -0.041052796 -0.048211418 0.18044527
0.193678 0.13003482 -0.108750194 0.12097457 -0.17833148 0.18473673 -0.030952701 0.061760418
-0.00087067677 0.052173946 -0.17221117 0.09520082 0.2021448 0.06323074 0.11618054 -0.09486801
0.13072763 -0.16833565 0.22627777 0.19389604 0.10399851 0.11761984 0.12507331 0.11040551
-0.53354925 0.1088834 0.15597568 -0.5240586 0.14836589 -0.5369522 0.1759004 0.09029353
0.12512787 0.16686477 0.11805226 0.1407899 0.06942551 0.1436475 0.15979625 0.09356035
-0.5113417 0.121690266 0.101183385 0.20243773 0.06713816 -0.49966493 0.18735737 0.17621896
0.13862588 0.12483757 0.16515306 0.16343567 0.12531616 -0.51036197 0.12128848 0.1142966
0.17874274 0.116618596 0.13076708 0.12867069 0.16296871 0.13361865 -0.5309278 0.138552
0.16389146 0.16883874 0.14530787 0.056810297 0.21360275 0.14353392 0.1514816 0.04901672
0.12866613 0.04598486 0.13050105 0.13940838 0.17486171 0.07590273 0.08713123 -0.5634213
0.13971078 0.2225609 0.18620656 0.13435696 0.1250963 0.10288676 0.08095042 0.15058804

fc2.bias f4 [4]
00000000: 6331 cfbe d251 043f 73c9 8e3e 9f60 723e
-0.40467367 0.5168735 0.2788807 0.2366967
