MediaPipe_Operation/motion_model_transformer/gesture_classifier_new.pth (torch, 26568 bytes, 4 tensors)

fc1.weight f4 [64, 90]
0.07053334 -0.0131284315 0.2829758 -0.038304295 0.2105156 -0.073286824 0.076514855 0.0021675283
0.23391078 -0.018125216 0.16870841 -0.031984426 0.07721211 -0.010800397 0.20003365 -0.01781974
0.14382413 -0.0042833183 0.07713032 -0.0016942752 0.16031197 -0.016148202 0.11962593 0.012202671
0.06235961 0.0013565859 0.107444756 -0.0036160962 0.08564027 0.03727291 0.051728457 0.0026208253
0.07312431 -0.0057868375 0.0637596 0.05231107 0.032094784 0.0073142867 0.031034557 0.00015309184
0.050499637 0.059481896 0.008453701 -0.00486867 -0.013637036 -0.0034710383 0.014266482 0.05828867
-0.009206979 -0.0050407625 -0.0541122 -0.002043943 -0.010166536 0.039133206 -0.029458625 -0.011985373
-0.09928843 -0.0024351329 -0.0444717 0.02774254 -0.038543474 0.0020590634 -0.122046396 0.003323488
-0.06447976 -0.0023003623 -0.054740686 4.1006308e-05 -0.14859214 0.0117879165 -0.10264622 -0.01911348
-0.08601214 0.013475402 -0.18212284 0.031701114 -0.14735658 -0.03222441 -0.10517386 0.015832243
-0.21623872 0.03640179 -0.21132748 -0.055402253 -0.13082543 0.0043638893 -0.24933015 0.018305711
-0.28049782 -0.09210276 0.021541154 -0.1008001 0.026150225 -0.034848545 0.03985976 0.08833619
0.022925463 -0.09222381 0.006972678 -0.025944185 0.023042336 0.07693124 0.01539658 -0.07076921
-0.0044752783 -0.023743557 -0.0033388215 0.058226585 0.01878176 -0.05640688 -0.0056015216 -0.018968903
-0.019640317 0.03854311 0.018378586 -0.052281335 0.0037584864 -0.005257014 -0.026331628 0.026855957
0.024403214 -0.04608337 0.0029846039 -8.31502e-05 -0.031123912 0.016366398 0.02257751 -0.04325606
0.011488166 0.0113845365 -0.01690896 -0.0031599868 0.027205132 -0.04104149 -0.005154224 -0.0021062214
-0.019926287 0.005295442 0.025065586 -0.04210666 -0.0068324627 -0.0035969622 -0.015369625 0.0016916225
0.015279393 -0.037608996 -0.012797236 0.0034211357 -0.0037047039 0.03220589 0.011355697 -0.042561017
-0.013897205 -0.001241162 -0.0073229857 0.039042637 0.010574427 -0.046528585 -0.021248229 -0.016789785
0.0014363921 0.057748947 0.010221559 -0.0596191 -0.016260797 -0.0447857 0.0062247193 0.06476195
0.0215465 -0.085659504 -0.00029632734 -0.059204414 0.02279571 0.08436179 0.025073513 -0.10440492
0.029924415 -0.0669618 0.037127916 0.098060384 -0.018530644 0.062606975 0.019270131 0.039206438
-0.014000137 0.028563341 -0.015577702 0.058362108 0.021195654 0.03427229 -0.0088435225 0.025317542
-0.013729774 0.057376403 0.025068639 0.032531407 -0.0052701905 0.021472687 -0.010890472 0.053869978
0.027515424 0.029529106 -0.0018096457 0.020318178 -0.009207969 0.052769534 0.03042065 0.029551614
-6.408409e-05 0.017509615 -0.008047892 0.051823273 0.034224153 0.02881705 0.0005036023 0.016230674
-0.007968069 0.050341215 0.035099827 0.028970229 -0.000695183 0.015946673 -0.0068263467 0.05114634
0.03795736 0.028117454 0.0011330199 0.014203103 -0.004951902 0.051646832 0.037739642 0.026522888
0.000685374 0.013807491 -0.004630254 0.05469258 0.037729625 0.02716269 0.0011474512 0.014482401
-0.007221615 0.055019468 0.032470535 0.028923187 -0.0018385147 0.016133158 -0.008019367 0.057699025
0.028600873 0.030028796 -0.0052621877 0.01846094 -0.009181036 0.061323456 0.025904162 0.030559454
00000000: c973 903d a218 57bc 34e2 903e f7e4 1cbd
00000010: 6791 573e 6717 96bd d2b3 9c3d 170d 0e3b
00000020: 4f86 6f3e 557b 94bc e6c1 2c3e 1a02 03bd
00000030: 6221 9e3d 26f4 30bc 9fd5 4c3e b4fa 91bc
00000040: a246 133e 145b 8cbb 80f6 9d3d 7112 deba
00000050: d228 243e 3c49 84bc 71fe f43d b6ed 473c
00000060: ca6c 7f3d 78cf b13a ff0b dc3d 07fc 6cbb
00000070: 2a64 af3d 7bab 183d 38e1 533d 27c2 2b3b
00000080: 33c2 953d 839f bdbb 6594 823d 2244 563d
00000090: d275 033d afac ef3b 2f3c fe3c 4787 2039
000000a0: b5d8 4e3d 4aa3 733d 6481 0a3c 5d89 9fbb
000000b0: e06d 5fbc 5c7a 63bb f6bd 693c 1ac0 6e3d
000000c0: ded8 16bc fb2c a5bb c1a4 5dbd acf3 05bb
000000d0: 8b91 26bc 244a 203d 3753 f1bc 4c5e 44bc
000000e0: bb57 cbbd c096 1fbb f527 36bd 5344 e33c
000000f0: c3df 1dbd 5af1 063b 76f3 f9bd e0ce 593b
00000100: f70d 84bd adc1 16bb c537 60bd 30fe 2b38
00000110: 8a28 18be 1b22 413c 2e38 d2bd df93 9cbc
00000120: 2227 b0bd efc7 5c3c 697e 3abe 07d9 013d
00000130: a5e4 16be befd 03bd 6565 d7bd 9fb2 813c
00000140: af6d 5dbe 0b1a 153d 3b66 58be 79ed 62bd
00000150: 1af7 05be f5fe 8e3b 6750 7fbe dcf5 953c
00000160: 699d 8fbe 5fa0 bcbd 1377 b03c 4870 cebd
00000170: ff38 d63c 59bd 0ebd fd43 233d 9be9 b43d
00000180: 2ece bb3c d6df bcbd 107b e43b e688 d4bc
00000190: 48c3 bc3c 208e 9d3d f041 7c3c 73ef 90bd
000001a0: 5ba5 92bb d981 c2bc 21d0 5abb 007f 6e3d
000001b0: 35dc 993c e70a 67bd f88c b7bb ac64 9bbc
000001c0: bbe4 a0bc 61df 1d3d b08e 963c f424 56bd
000001d0: f050 763b 0843 acbb 6db5 d7bc 0601 dc3c
000001e0: 40e9 c73c eac1 3cbd 5899 433b ec60 aeb8
000001f0: 93f7 febc d312 863c 78f4 b83c 442d 31bd
00000200: dc38 3c3c 3586 3a3c a984 8abc c817 4fbb
00000210: 4cdd de3c 1f1b 28bd c4e4 a8bb 8808 0abb
00000220: 743c a3bc 6385 ad3b 5856 cd3c 0878 2cbd
00000230: dae2 dfbb 03bb 6bbb e1d0 7bbc 6fb9 dd3a
00000240: 6b56 7a3c e40b 1abd 80ab 51bc 2235 603b
00000250: 9eca 72bb 53ea 033d 3f0d 3a3c 7654 2ebd
00000260: 1ab1 63bc 7cae a2ba a8f5 efbb 2ceb 1f3d
00000270: 5d40 2d3c c294 3ebd c410 aebc bb8a 89bc
00000280: 5245 bc3a 298a 6c3d 5378 273c 2833 74bd
00000290: 5d35 85bc 3671 37bd bbf8 cb3b eaa1 843d
000002a0: 4982 b03c 406e afbd 625c 9bb9 5480 72bd
000002b0: 12be ba3c e0c5 ac3d f866 cd3c 3fd2 d5bd
000002c0: 0c24 f53c 4523 89bd 7113 183d e2d3 c83d
000002d0: 94cd 97bc 1638 803d 65dc 9d3c ee96 203d
000002e0: d560 65bc abfd e93c 9e39 7fbc 1b0d 6f3d
000002f0: 82a2 ad3c 1a61 0c3d 6ce4 10bc bc66 cf3c
00000300: d9f2 60bc 8503 6b3d bf5c cd3c a73f 053d
00000310: 90b1 acbb 7de7 af3c f36d 32bc c4a6 5c3d
00000320: 0768 e13c 06e7 f13c a231 edba 4f72 a63c
00000330: 05dd 16bc de24 583d ba34 f93c 3a16 f23c
00000340: e264 86b8 5370 8f3c 4edb 03bc a444 543d
00000350: a02e 0c3d bc11 ec3c 2e04 043a 31f6 843c
00000360: 818c 02bc 9732 4e3d d6c4 0f3d f952 ed3c
00000370: f13c 36ba 99a2 823c 8caf dfbb d37e 513d
00000380: 2d79 1b3d 9356 e63c d781 943a 22b4 683c
00000390: 9143 a2bb a18b 533d e294 1a3d 8746 d93c
000003a0: acaa 333a d138 623c 63b9 97bb 5405 603d
000003b0: 618a 1a3d 4a84 de3c 1366 963a 9847 6d3c
000003c0: 4ca3 ecbb 185c 613d d3ff 043d 52f0 ec3c
000003d0: 51fa f0ba af29 843c aa63 03bc d055 6c3d
000003e0: 614c ea3c f3fe f53c 6e6e acbb 663b 973c
000003f0: 0e6c 16bc 4e2e 7b3d f734 d43c d257 fa3c

fc1.bias f4 [64]
-0.03027627 -0.065632604 0.035543665 -0.03460673 0.033423465 -0.045061618 0.030434003 0.0052063307
-0.0810946 0.026845686 0.020589596 0.031443905 -0.017438903 0.14898343 0.05380452 0.021332681
-0.026114333 -0.008305369 -0.071156226 0.10369225 -0.037925687 -0.04684776 0.09295828 0.056450233
-0.041613724 -0.038529243 0.03830904 0.074573964 0.03852995 -0.021480482 0.11509159 0.044058613
0.09314148 -0.041767653 -0.08414195 -0.11014092 0.03131629 -0.032293174 -0.016653974 0.034821432
0.04157817 0.066967666 0.064972974 -0.01595322 0.099928 0.11616314 -0.07110814 -0.03217048
-0.09339488 -0.056754768 0.049371284 0.068901464 0.029918108 0.05774032 -0.0064911214 -0.010425542
0.079171844 0.10229312 0.035730083 0.119511195 0.056323707 0.001353516 0.020587595 0.07364474
00000000: f105 f8bc 636a 86bd 3c96 113d c9bf 0dbd
00000010: 0be7 083d 8892 38bd bb50 f93c de99 aa3b
00000020: ed14 a6bd 7ceb db3c 83ab a83c 53cb 003d
00000030: 08dc 8ebc 1d8f 183e 2162 5c3d e0c1 ae3c
00000040: baed d5bc 3e13 08bc 5bba 91bd 9a5c d43d
00000050: f757 1bbd 70e3 3fbd e960 be3d 5c38 673d
00000060: 2773 2abd d7d0 1dbd f1e9 1c3d 3cba 983d
00000070: 95d1 1d3d d6f7 afbc 24b5 eb3d ce76 343d
00000080: f6c0 be3d 8f14 2bbd 9d52 acbd 9091 e1bd
00000090: 8345 003d d945 04bd ea6d 88bc eba0 0e3d
000000a0: df4d 2a3d 5826 893d 8d10 853d 54b0 82bc
000000b0: 0da7 cc3d f1e6 ed3d 25a1 91bd 31c5 03bd
000000c0: d145 bfbd b077 68bd 8b39 4a3d 361c 8d3d
000000d0: d216 f53c 1d81 6c3d 79b3 d4bb e4cf 2abc
000000e0: d924 a23d 0e7f d13d b559 123d 49c2 f43d
000000f0: b0b3 663d 7668 b13a 51a7 a83c 0ed3 963d

fc2.weight f4 [4, 64]
0.3439627 0.12579377 -0.078437336 0.35259438 0.1600805 0.36927933 -0.09158586 0.1449107
0.14314729 -0.022639908 0.0556022 0.16362704 0.13101205 -0.14427808 0.028707884 0.0010068149
0.36174446 0.1130993 0.1335578 0.16750829 0.1546985 0.3634652 0.14570221 0.1616995
0.14595732 0.12912513 -0.044815563 0.12393912 0.15026438 0.3384072 -0.18800971 0.047496963
0.15387134 0.09529121 0.17575645 0.1813941 -0.04658009 0.14373145 0.34164974 -0.04450094
-0.06716032 -0.21674517 0.10504862 0.16010031 0.16172051 -0.18147847 0.15833293 0.12922513
0.1691041 0.17536622 0.121882096 -0.22126655 -0.056425482 -0.06154197 0.14885792 0.36852813
-0.21118726 0.18492249 -0.003933747 -0.14399181 -0.11368083 0.09219358 0.10327551 -0.2101052
0.32850492 -0.16705172 -0.07646927 0.3423544 0.113656245 0.3163492 0.033293426 -0.13116623
-0.20617345 -0.1173589 0.021612762 0.15412477 -0.21070772 0.1350421 0.16207309 -0.04766209
0.3290689 -0.019110303 -0.19106083 0.16247822 -0.23906265 0.3249915 0.13975927 0.11533495
-0.06707359 -0.10362584 -0.0877881 0.09255137 0.13450019 0.3303834 0.12562379 -0.1805653
0.15092583 -0.11246508 -0.20676622 -0.2303232 -0.09802722 -0.032262754 0.3356279 -0.08390243
-0.08207824 0.1600046 0.093407735 -0.10739012 0.16840947 0.14442982 -0.17023295 -0.2100078
-0.22351173 -0.16275534 0.09774169 0.14305705 -0.09611212 0.08374917 -0.115883715 0.3569871
0.14183491 0.17989865 -0.095407985 0.13896273 0.12855838 -0.23669606 -0.0935501 0.14998215
-0.08782816 -0.015021793 0.18179546 -0.09811554 -0.17425293 -0.097890876 0.19433112 0.12352289
0.0044386126 0.18571898 0.01712598 -0.11323642 0.0891593 0.14942344 0.016270483 0.12894537
-0.099932455 -0.021297134 -0.008697542 -0.17385678 0.11146036 -0.11693853 -0.16494916 -0.17382433
-0.03115641 -0.02431704 0.20163277 -0.15457278 -0.111608386 -0.09888003 0.16772506 0.14001048
-0.16006868 -0.0027072271 -0.020834533 -0.025569221 0.190167 -0.04128675 -0.048156865 0.17978157
0.19356546 0.13055083 -0.1083305 0.12177601 -0.179946 0.18296316 -0.031487387 0.060721233
-0.0007709184 0.05051823 -0.1719943 0.09566587 0.20004119 0.062782235 0.1153942 -0.09574367
0.13132061 -0.16935498 0.22564851 0.19422257 0.10521787 0.11700089 0.12240918 0.11023123
-0.5314959 0.10749919 0.15546449 -0.5213359 0.14809446 -0.53490806 0.17577527 0.09163367
0.124154024 0.16735677 0.11676712 0.1408022 0.0705477 0.14388609 0.15894763 0.0923894
-0.5086516 0.121247776 0.10146559 0.20370705 0.06676886 -0.49655622 0.18803743 0.1757842
0.13856548 0.124847665 0.16465968 0.16383238 0.12518488 -0.50770885 0.122216985 0.11384879
0.17801525 0.115595676 0.12984516 0.12812309 0.16255212 0.13296415 -0.52816623 0.13868539
0.16372754 0.1678564 0.14602542 0.05615091 0.2133787 0.14454573 0.15107547 0.048898187
0.12802939 0.046448 0.12891078 0.13852227 0.17681186 0.07488631 0.08670079 -0.5613459
0.13894221 0.22233452 0.18665345 0.13378496 0.12321118 0.10327893 0.08341604 0.14981975
00000000: e11b b03e 15d0 003e c1a3 a0bd 4087 b43e
00000010: 25ec 233e 2e12 bd3e 5e91 bbbd 7863 143e
00000020: 3495 123e 5477 b9bc 22bf 633d d98d 273e
00000030: 0628 063e a2bd 13be cc2c eb3c 1af7 833a
00000040: 9236 b93e 9ba0 e73d 60c3 083e 4b87 2b3e
00000050: 4969 1e3e 1c18 ba3e f632 153e 8e94 253e
00000060: d675 153e 6139 043e 8690 37bd cbd3 fd3d
00000070: e8de 193e b543 ad3e 9e85 40be 2d8c 423d
00000080: 7390 1d3e 0a28 c33d 80f9 333e 60bf 393e
00000090: c4ca 3ebd 562e 133e b7ec ae3e 9e46 36bd
000000a0: 5a8b 89bd 72f2 5dbe bb23 d73d 56f1 233e
000000b0: 109a 253e 7ed5 39be 0722 223e 9853 043e
000000c0: a029 2d3e 3493 333e 529d f93d b393 62be
000000d0: 681e 67bd 6f13 7cbd 366e 183e b8af bc3e
000000e0: 7941 58be 525c 3d3e a9e6 80bb 9772 13be
000000f0: 7fd1 e8bd fdcf bc3d 1c82 d33d d125 57be
00000100: cc31 a83e 9b0f 2bbe ec9b 9cbd 1349 af3e
00000110: 9bc4 e83d 86f8 a13e b05e 083d 7150 06be
00000120: 221f 53be dd59 f0bd 3f0d b13c e2d2 1d3e
00000130: c4c3 57be 7a48 0a3e 7df6 253e 5339 43bd
00000140: b87b a83e 368d 9cbc 73a5 43be b160 263e
00000150: d7cc 74be 4965 a63e 0e1d 0f3e bb34 ec3d
00000160: e15d 89bd c939 d4bd 3fca b3bd 938b bd3d
00000170: 6bba 093e 0328 a93e 86a3 003e 1ce6 38be
00000180: 4d8c 1a3e 1854 e6bd 86ba 53be d8d9 6bbe
00000190: 7fc2 c8bd f325 04bd 6cd7 ab3e 0ad5 abbd
000001a0: a318 a8bd 3fd8 233e 8e4c bf3d 5aef dbbd
000001b0: 8873 2c3e 69e5 133e 8c51 2ebe 490c 57be
000001c0: 42e0 64be 56a9 26be cc2c c83d 8c7d 123e
000001d0: 6ed6 c4bd af84 ab3d 7154 edbd 03c7 b63e
000001e0: 2c3d 113e 5a37 383e 4365 c3bd 3f4c 0e3e
000001f0: cfa4 033e 7460 72be 3297 bfbd ec94 193e
00000200: 40df b3bd f71d 76bc 9728 3a3e cdf0 c8bd
00000210: 5c6f 32be 037b c8bd bdfe 463e 92f9 fc3d
00000220: c871 913b 1e2d 3e3e c94b 8c3c 7fe8 e7bd
00000230: 2799 b63d 7502 193e ad49 853c 410a 043e
00000240: 63a9 ccbd 5477 aebc 2380 0ebc 8307 32be
00000250: 5445 e43d 787d efbd 6fe8 28be 01ff 31be
00000260: ba3b ffbc 8734 c7bc d278 4e3e 5448 1ebe
00000270: f092 e4bd 9d81 cabd 1ec0 2b3e e85e 0f3e
00000280: 0be9 23be bc6b 31bb 2fad aabc 8b76 d1bc
00000290: 23bb 423e 4c1c 29bd 2240 45bd a918 383e
000002a0: 0636 463e 1eaf 053e 62dc ddbd b365 f93d
000002b0: c443 38be b25a 3b3e ebf8 00bd d4b6 783d
000002c0: 7517 4aba 34ec 4e3d 461f 30be 78ec c33d
000002d0: 99d7 4c3e f993 803d cb53 ec3d 4215 c4bd
000002e0: e978 063e 646b 2dbe 6710 673e 48e2 463e
000002f0: 777c d73d 2a9e ef3d aab1 fa3d e9c0 e13d
00000300: 1e10 08bf 8928 dc3d 1532 1f3e 4576 05bf
00000310: 13a6 173e bcef 08bf 6ffe 333e 6faa bb3d
00000320: 7744 fe3d 935f 2b3e 9a23 ef3d 742e 103e
00000330: 507b 903d e056 133e 2bc3 223e a736 bd3d
00000340: fe36 02bf c150 f83d 31cd cf3d 9598 503e
00000350: 1dbe 883d 9e3c febe e28c 403e c600 343e
00000360: 1ce4 0d3e 22b0 ff3d 8c9c 283e adc3 273e
00000370: 7730 003e 35f9 01bf e64c fa3d 8e29 e93d
00000380: a149 363e 6dbd ec3d 21f6 043e b332 033e
00000390: 1074 263e c127 083e e735 07bf 8b03 0e3e
000003a0: 31a8 273e 8ce2 2b3e b087 153e 7ffe 653d
000003b0: f27f 5a3e cc03 143e 87b3 1a3e 7749 483d
000003c0: 231a 033e 4240 3e3d 3001 043e c8d8 0d3e
000003d0: 2b0e 353e fe5d 993d 2f90 b13d 5db4 0fbf
000003e0: de46 0e3e a9ab 633e 1522 3f3e edfe 083e
000003f0: 2556 fc3d e783 d33d 07d6 aa3d 596a 193e

fc2.bias f4 [4]
-0.4059336 0.518036 0.2777035 0.23741314
00000000: 87d6 cfbe 029e 043f 272f 8e3e 6e1c 733e
