MediaPipe_Operation/model_4class/gesture_classifier3.pth (torch, 51584 bytes, 6 tensors)

fc1.weight f4 [85, 90]
-0.014415194 -0.036397915 -0.038220942 -0.013267872 -0.02171331 0.030639376 -0.023439981 -0.03858581
-0.04246109 -0.013693176 -0.013489973 0.026914537 -0.018050848 -0.019599741 -0.03374744 -0.019609861
-0.013204324 0.011077305 -0.014040955 -0.019769656 -0.030998638 -0.025237795 -0.0015157652 0.020771727
-0.016247222 -0.011746434 -0.024156105 -0.020002108 -0.0059489775 0.010961352 -0.017148415 -0.008751331
-0.01622159 -0.027086517 -0.0005337298 0.011276891 -0.022821156 -0.009042982 -0.010427044 -0.03719306
0.0028982998 0.0044483156 -0.024074798 -0.003954169 -0.01071543 -0.045501374 0.0038921603 0.0066259466
-0.022472022 0.0035742512 -0.018253505 -0.030857937 -0.0010891455 0.0095187845 -0.025530556 -0.01459971
-0.027036177 -0.03499098 -0.0005500916 0.019599201 -0.016212968 -0.007287581 -0.023586325 -0.02118565
0.0029072019 0.0077035977 -0.01542697 -0.006195261 -0.03152899 -0.017353306 -0.0045645162 0.012113366
-0.007050509 -0.013629909 -0.032896318 -0.010338014 -0.011203175 0.014485767 -0.010927072 -0.024194717
-0.03546383 -0.0014047878 -0.0073882937 0.026196184 -0.015465189 -0.041578393 -0.036845285 0.025951928
-0.016485201 0.030886602 0.04853564 0.07065629 -0.013745873 -0.03633961 0.040287588 -0.010601678
0.039624635 0.048350766 -0.015179198 -0.038567055 0.028527528 -0.005852716 0.032916047 0.04410087
-0.02422378 -0.05715874 0.027987001 0.0058861137 0.03058937 0.026948597 -0.028974714 -0.05466782
0.026873793 0.0008874303 0.03384626 0.019701077 -0.029890148 -0.052717835 0.026862666 0.0024084793
0.031073125 0.0072620595 -0.03715481 -0.04291387 0.021070577 -0.0033302747 0.031440668 0.012886556
-0.025892377 -0.042340063 0.016739668 -0.019457247 0.036366284 0.026310224 -0.036605686 -0.036020547
0.013564575 4.351299e-06 0.032258693 0.01734523 -0.031625096 -0.05093397 0.02494259 0.00069109007
0.050906412 0.037174087 -0.028961588 -0.05982376 0.03123918 -0.0034996008 0.04386709 0.021638824
-0.048450716 -0.04689162 0.03253269 0.0051581752 0.049732786 0.030620113 -0.043849736 -0.049990874
0.021334926 0.017664492 0.03975271 0.05152797 -0.02085 -0.039902415 0.021347316 0.008745736
0.028060457 0.05998712 -0.011816791 -0.02081795 0.013703375 -0.0033311388 0.04835531 0.0829536
7.026065e-05 -0.023373855 0.024075096 -0.020794954 0.014549826 0.051110663 -0.0046323985 -0.09478526
-0.0033733572 0.046778206 0.013035851 0.045122284 -0.005901494 -0.08621232 -0.008859074 0.041725144
0.008169671 0.043894365 -0.006818675 -0.0746529 -0.02430045 0.026234657 0.015762424 0.025282199
0.0030216682 -0.06583442 -0.014902133 0.031732194 0.021258581 0.028389007 -0.002810948 -0.04519382
-0.027155103 0.033324122 0.019465696 0.018725041 -0.0041775443 -0.03510964 -0.022527218 0.021747012
0.026205795 0.022925634 0.0019227298 -0.0461495 -0.031217106 0.008694666 0.027347518 0.026144167
-0.01224595 -0.045584273 -0.046314795 0.01751669 0.01694353 0.025920121 -0.010853854 -0.01944154
-0.047627438 0.022846688 0.024725916 0.040654432 -0.0002244896 -0.025345476 -0.035807114 0.024315562
0.019465752 0.01724356 -0.008274963 -0.035748225 -0.03571834 0.022083603 0.031459626 0.036347907
-0.003922411 -0.03188197 -0.04203546 0.035812955 0.025988812 0.047042668 0.0062179537 -0.05508568
00000000: b52d 6cbc fb15 15bd 908d 1cbd 7d61 59bc
00000010: 1de0 b1bc 6eff fa3c 3405 c0bc 280c 1ebd
00000020: aeeb 2dbd 5859 60bc 0c05 5dbc e07b dc3c
00000030: 5fdf 93bc a38f a0bc c13a 0abd dca4 a0bc
00000040: f356 58bc 967d 353c 090c 66bc f9f3 a1bc
00000050: dbf0 fdbc 7ebf cebc a4ac c6ba 7829 aa3c
00000060: e518 85bc 1d74 40bc 06e3 c5bc 76db a3bc
00000070: a4ef c2bb 3e97 333c d57a 8cbc be61 0fbc
00000080: 24e3 84bc 8be4 ddbc 00ea 0bba b6c2 383c
00000090: 6ff3 babc 0429 14bc 31d6 2abc c057 18bd
000000a0: 67f1 3d3b 2dc3 913b 8338 c5bc f991 81bb
000000b0: c58f 2fbc a65f 3abd 9d13 7f3b 781e d93b
000000c0: 3f17 b8bc fc3d 6a3b 6088 95bc c9c9 fcbc
000000d0: a9c1 8eba adf4 1b3c 7525 d1bc 9f33 6fbc
000000e0: f97a ddbc b452 0fbd 0634 10ba 818e a03c
000000f0: 0fd1 84bc a9cc eebb 1c38 c1bc 878d adbc
00000100: c186 3e3b 766e fc3b 67c1 7cbc 9e01 cbbb
00000110: 8b24 01bd 8528 8ebc f091 95bb 2477 463c
00000120: f507 e7bb fb4f 5fbc 4abe 06bd c660 29bc
00000130: 868d 37bc b655 6d3c 7607 33bc 0034 c6bc
00000140: 8542 11bd db20 b8ba 8019 f2bb 6199 d63c
00000150: b461 7dbc 1b4e 2abd 15eb 16bd 2399 d43c
00000160: f90b 87bc e605 fd3c 4fcd 463d 3fb4 903d
00000170: 5f36 61bc d8d8 14bd 9904 253d a9b2 2dbc
00000180: 714d 223d 740b 463d 2cb2 78bc 7df8 1dbd
00000190: 90b2 e93c 24c8 bfbb fad2 063d 1da3 343d
000001a0: f370 c6bc 481f 6abd ff44 e53c 4de0 c03b
000001b0: 8f96 fa3c 4ec3 dc3c 615c edbc 5deb 5fbd
000001c0: 6e26 dc3c 70a2 683a 60a2 0a3d 2764 a13c
000001d0: 2fdc f4bc a8ee 57bd 180f dc3c 94d7 1d3b
000001e0: 118d fe3c 92f6 ed3b a42f 18bd 74c6 2fbd
000001f0: 349c ac3c bd40 5abb eec7 003d 2222 533c
00000200: 401c d4bc c66c 2dbd a121 893c ce64 9fbc
00000210: d0f4 143d 8a88 d73c d8ef 15bd 488a 13bd
00000220: f43d 5e3c 6001 9236 b121 043d 9517 8e3c
00000230: 5189 01bd 23a0 50bd 6754 cc3c 452a 353a
00000240: 3e83 503d db43 183d da40 edbc c209 75bd
00000250: 4fe9 ff3c 8f59 65bb faad 333d e743 b13c
00000260: 4274 46bd 6d11 40bd ff40 053d e905 a93b
00000270: 9bb4 4b3d 08d7 fa3c c89b 33bd 3bc3 4cbd
00000280: 95c6 ae3c 20b5 903c bdd3 223d fe0e 533d
00000290: 9fcd aabc b770 23bd 91e0 ae3c 474a 0f3c
000002a0: 0bdf e53c 0eb5 753d 379b 41bc 688a aabc
000002b0: 1f84 603c 3c4f 5abb 3810 463d 94e3 a93d
000002c0: e658 9338 877a bfbc 2339 c53c 2e5a aabc
000002d0: 6562 6e3c 6a59 513d 60cb 97bb c61e c2bd
000002e0: 8b13 5dbb 819a 3f3d 5294 553c 25d2 383d
000002f0: 5261 c1bb 1690 b0bd a625 11bc fce7 2a3d
00000300: 15da 053c 94ca 333d 316f dfbb 9fe3 98bd
00000310: bd11 c7bc 10ea d63c 3320 813c 9d1c cf3c
00000320: 2e07 463b 32d4 86bd 1328 74bc 9ef9 013d
00000330: 7a26 ae3c 1090 e83c e237 38bb 281d 39bd
00000340: 6174 debc e07e 083d 8676 9f3c 4265 993c
00000350: c8e3 88bb 20cf 0fbd 008b b8bc ca26 b23c
00000360: 89ad d63c 8ace bb3c 1b04 fc3a 4207 3dbd
00000370: 04bb ffbc 1374 0e3c e707 e03c 4b2c d63c
00000380: 3da3 48bc 93b6 3abd 95b4 3dbd 297f 8f3c
00000390: 28cd 8a3c 6f56 d43c 5dd4 31bc dd43 9fbc
000003a0: fd14 43bd fa28 bb3c 018e ca3c 4385 263d
000003b0: f864 6bb9 51a1 cfbc 7baa 12bd 6e31 c73c
000003c0: a476 9f3c 5e42 8d3c b693 07bc bb6c 12bd
000003d0: 654d 12bd ace8 b43c cfdb 003d 8be1 143d
000003e0: 9187 80bb ab96 02bd 602d 2cbd 9bb0 123d
000003f0: 7de6 d43c d0af 403d fabf cb3b 86a1 61bd

fc1.bias f4 [85]
-0.06890165 -0.042885747 0.031398628 0.007383173 -0.0010970596 -0.1652591 -0.054527752 -0.07917117
0.007373733 -0.010270805 0.029018534 -0.08758152 -0.05037613 0.010660872 0.006657452 0.0026498842
-0.049692992 -0.04197594 -0.105040416 0.0053756493 -0.066430695 0.0031666774 -0.030008467 0.00023655576
0.013163666 -0.21553737 0.058066852 -0.06685547 -0.081190266 -0.029705562 -0.086725645 -0.063592136
-0.098124556 0.004817165 -0.27504295 -0.046573028 -0.02775895 -0.10117347 -0.061630774 -0.013260534
-0.08276777 -0.114373185 -0.06988846 -0.16333164 -0.092433795 -0.09920353 0.017585862 -0.12922773
-0.07554516 -0.1052338 -0.064183526 -0.086195685 -0.102089204 -0.0008446982 -0.015499347 -0.01389432
0.014656987 -0.08821247 -0.046442028 -0.07437211 -0.07052798 -0.09581628 -0.04874646 -0.15290096
-0.056458797 -0.05033195 -0.017850565 -0.045952704 -0.07387475 0.02921719 -0.002186056 -0.054151215
-0.044504482 -0.06426434 -0.03107334 -0.012569578 -0.09131862 -0.0071755084 -0.10254731 -0.106337115
-0.037579034 0.012393786 -0.07387103 -0.09604044 0.0035414542
00000000: 4f1c 8dbd f7a8 2fbd d99b 003d 8bee f13b
00000010: 36cb 8fba ae39 29be 7e58 5fbd 7f24 a2bd
00000020: 5b9f f13b e146 28bc 47b8 ed3c f15d b3bd
00000030: 3357 4ebd f0aa 2e3c c126 da3b aea9 2d3b
00000040: e18a 4bbd f7ee 2bbd 6e1f d7bd 3726 b03b
00000050: d10c 88bd 0888 4f3b 51d4 f5bc f40b 7839
00000060: 6bac 573c d4b5 5cbe 82d7 6d3d 85eb 88bd
00000070: 1547 a6bd 1459 f3bc 379d b1bd 983c 82bd
00000080: 87f5 c8bd 4fd9 9d3b 6ed2 8cbe 5cc3 3ebd
00000090: bd66 e3bc 0934 cfbd 8d70 7cbd b642 59bc
000000a0: 2682 a9bd 7d3c eabd ae21 8fbd 6940 27be
000000b0: ee4d bdbd 382b cbbd 3a10 903c 4654 04be
000000c0: 6cb7 9abd d284 d7bd a772 83bd 5d87 b0bd
000000d0: 2514 d1bd bd6e 5dba f9f0 7dbc 01a5 63bc
000000e0: dc23 703c bda8 b4bd ff39 3ebd 6850 98bd
000000f0: f970 90bd 533b c4bd 5eaa 47bd 1292 1cbe
00000100: 5741 67bd e028 4ebd 593b 92bc e738 3cbd
00000110: a54b 97bd e358 ef3c ef43 0fbb aacd 5dbd
00000120: 554a 36bd 069d 83bd 848d febc a2f0 4dbc
00000130: 4205 bbbd 8720 ebbb 5304 d2bd 46c7 d9bd
00000140: 79ec 19bd 4e0f 4b3c b249 97bd dab0 c4bd
00000150: be17 683b

fc2.weight f4 [50, 85]
-0.023471579 -0.028876882 -0.023261122 0.1871004 -0.03830484 -0.021008026 -0.030264968 -0.03555908
-0.019017596 -0.028697353 -0.014745682 0.042503983 -0.03441476 -0.035943225 -0.021609113 0.18983264
-0.027859632 0.006088147 -0.009706669 0.18411607 -0.0414079 0.18648274 -0.036975678 0.14989768
0.18639985 -0.030348029 -0.00922465 -0.03141312 -0.029610911 -0.019284923 0.021370986 -0.017532077
0.042512562 0.18430895 -0.03323203 -0.017645756 -0.032259207 -0.050630122 -0.021603104 -0.025516933
-0.010867402 -0.017300945 0.05106906 -0.031224012 0.03578275 -0.028611928 -0.028710024 -0.015686061
-0.027443927 -0.019155324 0.012956527 -0.024337823 -0.02557139 -0.033301458 -0.02123547 -0.021655276
0.19214451 -0.028354293 -0.028774299 -0.035594758 -0.023289122 -0.015726434 -0.02867066 -0.0015192906
-0.026011806 -0.016988434 0.19123657 -0.033136737 -0.013835763 -0.032136615 -0.017873913 -0.02069553
-0.040225387 -0.017578121 0.17126052 0.17471789 -0.016993385 -0.05012863 -0.028356457 -0.007340905
-0.022414126 0.18656865 -0.03897989 -0.03192801 0.19066735 -0.009128876 0.001955458 -0.010709595
-0.010113348 0.01950558 0.035141904 -0.029351192 -0.0048564863 0.010752114 -0.005675108 -0.005924041
0.20562255 0.075053126 -0.003563334 0.011585819 -0.015117476 -0.008946244 -0.042109117 0.08888181
-0.013623358 0.05064916 -0.0068374686 0.0111400215 -0.09535783 -0.013453232 0.117373966 0.01340197
-0.023764158 -0.0065713823 -0.03486283 0.1776931 -0.002474485 0.19848152 0.0076863873 0.1361296
-0.019819014 0.12186236 0.06519198 -0.009160646 0.010086879 0.0008489194 0.048882782 0.21373303
0.10823928 0.16486908 0.03784589 -0.0074874354 0.071009964 0.006213847 -0.011852064 0.16550894
-0.031553566 -0.0006287198 0.004343396 0.0016222 0.008931535 -0.048697356 0.027368214 -0.006998125
-0.012461431 -0.029719442 0.07945738 0.0030681724 0.05218343 -0.017571786 -0.014665052 -0.001791508
0.039254505 0.13798817 0.019191837 0.098055944 -0.007882733 0.05321162 -0.0015695294 0.056389205
-0.06272343 -0.0546265 0.0032854981 -0.011595654 0.080128655 0.10175308 -0.02726247 -0.00084890367
-0.0070830532 -0.004897972 -0.022258928 -0.03137919 -0.023520764 0.18631823 -0.040813193 -0.014772319
-0.028609091 -0.03350269 -0.018068586 -0.02770678 -0.014714145 0.03811034 -0.03410398 -0.03460337
-0.025571238 0.19971517 -0.026256125 0.010893515 -0.0049277046 0.19032484 -0.04340861 0.19407175
-0.038045015 0.1546875 0.18737641 -0.031367622 -0.013138267 -0.0307784 -0.031177768 -0.016550759
0.023758657 -0.014199824 0.04606432 0.18857713 -0.029721051 -0.01715903 -0.029227214 -0.05062358
-0.020316165 -0.028039899 -0.008068963 -0.0130990865 0.05370229 -0.031657707 0.048968058 -0.023687612
-0.029723153 -0.006293804 -0.02915171 -0.01639139 0.023165245 -0.028496882 -0.024504665 -0.036159907
-0.021921052 -0.027064255 0.18616366 -0.027510809 -0.029566513 -0.035342522 -0.023669079 -0.007054634
-0.031854723 0.0027847916 -0.02453529 -0.01719518 0.1899217 -0.029174875 -0.010919805 -0.03295018
-0.015324437 -0.02086428 -0.045371946 -0.01359838 0.17460267 0.17075543 -0.015577366 -0.052653916
-0.032370113 0.00033332725 -0.02039905 0.18137302 -0.043422807 -0.029879514 0.18947537 -0.02390795
00000000: 7847 c0bc 368f ecbc 1c8e bebc 3f97 3f3e
00000010: 89e5 1cbd 0619 acbc 3dee f7bc 66a6 11bd
00000020: caca 9bbc b616 ebbc df97 71bc a818 2e3d
00000030: 7ef6 0cbd 3439 13bd 9805 b1bc 7d63 423e
00000040: e239 e4bc 147f c73b b808 1fbc ec88 3c3e
00000050: 559b 29bd 55f5 3e3e cf73 17bd c77e 193e
00000060: 9adf 3e3e 6e9c f8bc fd22 17bc 0bab 00bd
00000070: 9592 f2bc 6afb 9dbc 3512 af3c 6e9f 8fbc
00000080: a721 2e3d 7cbb 3c3e 4f1e 08bd d58d 90bc
00000090: 3b22 04bd 8861 4fbd fef8 b0bc e308 d1bc
000000a0: 300d 32bc b6ba 8dbc ca2d 513d 80c9 ffbc
000000b0: ef90 123d 9063 eabc 4931 ebbc 0e80 80bc
000000c0: 16d2 e0bc a0eb 9cbc 9d47 543c 1d60 c7bc
000000d0: 177b d1bc 1c67 08bd 02f6 adbc 6866 b1bc
000000e0: 88c1 443e 4347 e8bc 14b8 ebbc cfcb 11bd
000000f0: d4c8 bebc b9d4 80bc bbde eabc ef22 c7ba
00000100: b616 d5bc 542b 8bbc 85d3 433e 63ba 07bd
00000110: 65af 62bc afa1 03bd 506c 92bc ac89 a9bc
00000120: 60c3 24bd feff 8fbc eb5e 2f3e 3fe9 323e
00000130: b635 8bbc ae53 4dbd cd4b e8bc f98b f0bb
00000140: d49d b7bc da0b 3f3e 61a9 1fbd f2c6 02bd
00000150: 4d3e 433e 4891 15bc 2427 003b 4c77 2fbc
00000160: 75b2 25bc 2bca 9f3c f5f0 0f3d e971 f0bc
00000170: 2923 9fbb a229 303c 42f6 b9bb 751e c2bb
00000180: b88e 523e 74b5 993d d386 69bb 72d2 3d3c
00000190: 4aaf 77bc 4493 12bc 9c7a 2cbd ab07 b63d
000001a0: 8134 5fbc 7e75 4f3d d80c e0bb a384 363c
000001b0: f74a c3bd f26a 5cbc c361 f03d f093 5b3c
000001c0: 0dad c2bc c054 d7bb 54cc 0ebd 2ef5 353e
000001d0: f82a 22bb bd3e 4b3e 17de fb3b 8f65 0b3e
000001e0: 7c5b a2bc f992 f93d 5f83 853d 8916 16bc
000001f0: 7043 253c 048a 5e3a 5039 483d d5dc 5a3e
00000200: 8eac dd3d 71d3 283e 4b04 1b3d 2959 f5bb
00000210: ac6d 913d 879d cb3b 292f 42bc 2d7b 293e
00000220: 503e 01bd acd0 24ba 0c53 8e3b 00a0 d43a
00000230: 9355 123c e176 47bd 4e33 e03c 8750 e5bb
00000240: 082b 4cbc 3076 f3bc 8dba a23d 6413 493b
00000250: 4bbe 553d b5f2 8fbc b045 70bc 09d1 eaba
00000260: 55c9 203d c54c 0d3e 3338 9d3c 8ed1 c83d
00000270: 9426 01bc 6df4 593d abb8 cdba 5ef8 663d
00000280: 2475 80bd 09c0 5fbd 8351 573b b3fb 3dbc
00000290: 7e1a a43d eb63 d03d 8b55 dfbc f688 5eba
000002a0: f518 e8bb 2b7f a0bb 5b58 b6bc 7787 00bd
000002b0: 9eae c0bc 35ca 3e3e bc2b 27bd 9907 72bc
000002c0: 9d5d eabc 1e3a 09bd 9204 94bc 54f9 e2bc
000002d0: 9913 71bc 9619 1c3d 9db0 0bbd 43bc 0dbd
000002e0: c67a d1bc 2282 4c3e 1617 d7bc b77a 323c
000002f0: 9578 a1bb 84e4 423e 3acd 31bd bfba 463e
00000300: 17d5 1bbd 6666 1e3e 9adf 3f3e 567b 00bd
00000310: e341 57bc fc22 fcbc 8568 ffbc 7595 87bc
00000320: 84a1 c23c 61a6 68bc f1ad 3c3d 5d1a 413e
00000330: 9079 f3bc 1891 8cbc e96d efbc ac5a 4fbd
00000340: 166e a6bc eeb3 e5bc af33 04bc 8d9d 56bc
00000350: eff6 5b3d 83ab 01bd bb92 483d 860c c2bc
00000360: f87d f3bc 413c cebb 91cf eebc 3c47 86bc
00000370: 0ac5 bd3c 4b72 e9bc 02be c8bc 691c 14bd
00000380: c793 b3bc dbb5 ddbc b0a1 3e3e 595e e1bc
00000390: 7935 f2bc 52c3 10bd a8e5 c1bc 8f2a e7bb
000003a0: 197a 02bd 0d81 363b 3cfe c8bc e8dc 8cbc
000003b0: d67a 423e 2600 efbc fbe8 32bc c5f6 06bd
000003c0: 5913 7bbc 91eb aabc efd7 39bd bdcb 5ebc
000003d0: 0bcb 323e 83da 2e3e 3538 7fbc a2ab 57bd
000003e0: 8696 04bd 6dc2 ae39 e91b a7bc d9b9 393e
000003f0: 1ddc 31bd e2c5 f4bc d505 423e 9bda c3bc

fc2.bias f4 [50]
0.25845432 0.020748964 0.25764176 0.27277842 -0.026576772 -0.012302951 0.047758203 -0.001784615
-0.0030114183 -0.14116882 5.6066815e-06 0.19623561 -0.03797923 -0.13528427 0.03955381 -0.14376332
-0.15355851 -0.016307019 -3.5511446e-05 -0.047999676 -0.07116223 -0.02349173 0.0012350699 -0.0042875893
0.24069066 0.2003544 0.033861257 -0.06442394 3.8163234e-05 0.05081417 0.26371545 0.13868292
0.00023425413 -0.15063411 0.026838582 0.19429784 -0.04975889 -0.0030792083 -0.14034502 -0.00010667857
-0.013240265 -0.0707159 -0.026484242 0.20280619 0.054165445 0.0002485822 0.19454911 0.0007865421
0.2608292 -0.06594023
00000000: 2054 843e bbf9 a93c 9fe9 833e 9da9 8b3e
00000010: 88b7 d9bc 5192 49bc 1b9e 433d bee9 e9ba
00000020: 375b 45bb 8f8e 10be 0721 bc36 fdf1 483e
00000030: 1c90 1bbd f687 0abe 2d03 223d b136 13be
00000040: 713e 1dbe 4c96 85bc 20f2 14b8 4f9b 44bd
00000050: 81bd 91bd bb71 c0bc 12e2 a13a e87e 8cbb
00000060: 9d77 763e b429 4d3e 1ab2 0a3d b3f0 83bd
00000070: 7611 2038 8522 503d b605 873e e502 0e3e
00000080: 1da2 7539 d43f 1abe 96dc db3c 03f6 463e
00000090: facf 4bbd 8bcc 49bb 9bb6 0fbe 9fb8 dfb8
000000a0: b2ed 58bc 7fd3 90bd 7bf5 d8bc 6dac 4f3e
000000b0: 96dc 5d3d 2354 8239 e237 473e f22f 4e3a
000000c0: 688b 853e ac0b 87bd

fc3.weight f4 [4, 50]
-0.1295433 0.23174037 -0.10414402 -0.13850579 0.25107098 0.086781405 -0.08540574 0.02709414
0.0693317 0.35293642 -4.5435345e-06 -0.37500548 0.12571315 0.32413068 -0.056924973 0.3675547
0.36892852 0.067038685 0.00013755167 0.1495219 0.2813154 0.08890707 -0.0017502314 0.013626686
-0.06788055 -0.3905903 0.1858751 0.27305475 3.6364445e-06 -0.079765625 -0.12502053 -0.090343416
0.0062221363 0.3860239 -0.02242077 -0.39267278 0.22573823 0.013497414 0.35567242 0.0012719012
0.05158708 0.2775632 0.20447184 -0.3944608 -0.083500296 -0.00030788555 -0.39401245 -0.00095590844
-0.10203426 0.26678497 -0.30412406 0.25494045 -0.32305536 -0.30908006 0.26099086 -0.026885066
-0.33989036 0.011253222 -0.30179822 -0.2248304 1.7103139e-05 0.29197538 -0.06273447 -0.25311047
-0.32737485 -0.24391389 -0.22282849 0.0033272116 -3.475977e-06 -0.08256562 0.21646298 -0.027305294
0.0019148046 -0.008025253 -0.34105703 0.27928352 0.28689036 0.21226265 0.00011849017 -0.3527662
-0.31204045 0.38139477 0.0037236009 -0.24189039 -0.3273194 0.29183728 -0.052107707 -0.00461887
-0.20559315 0.00024180654 -0.025659133 0.21565977 0.059501853 0.3066537 -0.33497453 0.0005154416
0.2699335 0.0021620495 -0.32724097 0.20631266 -0.20717385 -0.49828637 -0.20749688 -0.21218583
-0.43874744 0.053570922 0.50060314 0.020456024 0.37339675 -0.043437153 -6.0013326e-06 0.23824221
-0.023720913 -0.004950778 0.45972928 -0.039233472 -0.058923375 -0.022436468 -4.964873e-05 -0.03036965
-0.35662028 -0.019160874 0.0014411958 -0.0021703835 -0.21971038 0.26248342 -0.46357504 -0.27439502
0.00011082605 0.49689153 -0.20784801 -0.35585505 0.005781823 -0.059501424 0.44094473 0.22009031
0.13248047 0.00413826 -0.066590615 0.0009942132 -0.0016086267 -0.30480865 0.16157363 0.23161216
0.49566066 0.00010710424 0.26655194 -0.0006578951 -0.21435665 -0.38033086 0.6387806 -0.005273493
0.63644207 0.6589238 -0.1467067 -0.16380344 -0.08955798 -0.08117612 -0.13466093 -0.08986991
-4.8023585e-06 -0.24289168 -0.0651819 -0.09672908 -0.08750293 -0.09555555 -0.10077406 -0.067971595
-9.7449265e-05 -0.06352293 -0.20583466 -0.06640065 -0.002226462 -0.005954012 0.6289134 -0.22505142
-0.050747775 -0.23237169 -0.00029662048 -0.07798179 0.6473982 0.054477274 -0.021145012 -0.09103334
-0.0980233 -0.2371139 -0.2992282 -0.016929733 -0.10142623 -0.0037295967 -0.031926215 -0.22378056
-0.40180364 -0.23446023 -0.09102322 -0.00045558106 -0.22090998 -0.0010793081 0.64604074 -0.17477615
00000000: 00a7 04be 594d 6d3e 7649 d5bd 76d4 0dbe
00000010: 608c 803e 73ba b13d 34e9 aebd 88f4 dd3c
00000020: c7fd 8d3d 15b4 b43e aa74 98b6 b800 c0be
00000030: f3ba 003e 75f4 a53e 292a 69bd 2130 bc3e
00000040: 33e4 bc3e 944b 893d bf3b 1039 451c 193e
00000050: 9208 903e e914 b63d 0568 e5ba 7742 5f3c
00000060: f504 8bbd 74fb c7be 0b56 3e3e d5cd 8b3e
00000070: a409 7436 295c a3bd 6205 00be f805 b9bd
00000080: 10e3 cb3b eda4 c53e c3ab b7bc 680c c9be
00000090: ec27 673e 4224 5d3c b21a b63e ecb5 a63a
000000a0: f94c 533d c41c 8e3e 1161 513e c4f6 c9be
000000b0: 3402 abbd b36b a1b9 00bc c9be ee95 7aba
000000c0: 57f7 d0bd 0a98 883e 26b6 9bbe 8e87 823e
000000d0: 8367 a5be be3f 9ebe 98a0 853e 123e dcbc
000000e0: 1c06 aebe 6f5f 383c 4c85 9abe f139 66be
000000f0: b678 8f37 cc7d 953e ee7a 80bd b297 81be
00000100: ad9d a7be 90c4 79be 272d 64be 590d 5a3b
00000110: d544 69b6 2a18 a9bd 79a8 5d3e 5aaf dfbc
00000120: 2efa fa3a 5a7c 03bc 079f aebe 40fe 8e3e
00000130: 4be3 923e 615b 593e ed7d f838 c59d b4be
00000140: c4c3 9fbe 2d46 c33e a807 743b 1db2 77be
00000150: 6996 a7be b26b 953e e46e 55bd e459 97bb
00000160: 0387 52be 738d 7d39 1a33 d2bc ead5 5c3e
00000170: 37b8 733d b701 9d3e c881 abbe b31e 073a
00000180: b934 8a3e 2cb1 0d3b 218c a7be a043 533e
00000190: 6225 54be 641f ffbe 107a 54be 3e47 59be
000001a0: 81a3 e0be 2f6d 5b3d 8727 003f 6493 a73c
000001b0: dc2d bf3e 28eb 31bd 0e5f c9b6 c4f5 733e
000001c0: 5c52 c2bc 233a a2bb a361 eb3e 47b3 20bd
000001d0: a359 71bd afcc b7bc eb3d 50b8 c6c9 f8bc
000001e0: ef96 b6be 44f7 9cbc 82e6 bc3a fe3c 0ebb
000001f0: c2fb 60be 3a64 863e b559 edbe 817d 8cbe
00000200: 486b e838 9168 fe3e 1cd6 54be a232 b6be
00000210: 7275 bd3b c4b7 73bd 82c3 e13e 5b5f 613e
00000220: f6a8 073e 3e9a 873b a960 88bd 4250 823a
00000230: 8ed8 d2ba e10f 9cbe 8f73 253e bd2b 6d3e
00000240: 3cc7 fd3e 279d e038 7f79 883e 9876 2cba
00000250: 4f80 5bbe baba c2be 2087 233f 44cd acbb
00000260: deed 223f 3baf 283f 483a 16be 17bc 27be
00000270: 2d6a b7bd aa3f a6bd 8ee4 09be b70d b8bd
00000280: f223 a1b6 99b8 78be 177e 85bd e519 c6bd
00000290: bc34 b3bd a1b2 c3bd a162 cebd b134 8bbd
000002a0: ad5d ccb8 4f18 82bd 52c6 52be 10fd 87bd
000002b0: d5e9 11bb df19 c3bb 7800 213f e173 66be
000002c0: e6dc 4fbd d8f2 6dbe ba83 9bb9 ebb4 9fbd
000002d0: e3bb 253f 9023 5f3d 4e38 adbc b06f babd
000002e0: 71c0 c8bd fccd 72be 7034 99be 39b0 8abc
000002f0: 8eb8 cfbd 406c 74bb 10c5 02bd bb26 65be
00000300: 35b9 cdbe 5816 70be 626a babd 0edb eeb9
00000310: 3a36 62be 9277 8dba ed62 253f 85f8 32be

fc3.bias f4 [4]
-0.5280525 0.19213419 0.06325189 0.28172874
00000000: 732e 07bf d3be 443e 358a 813d c03e 903e
