MediaPipe_Operation/model_4class/gesture_classifier11.pth (torch, 193610 bytes, 6 tensors)

fc1.weight f4 [126, 300]
-0.0016691351 0.0029425446 0.0006234901 -0.02520207 -0.028876819 0.017632205 0.0037289707 -0.0014513623
0.0061789583 -0.018952021 -0.015780948 0.0119130965 0.00988005 -0.00059250294 0.0111165745 -0.011461458
-0.01766031 0.0112840505 0.017250525 0.0018904859 0.014914434 -0.02336151 -0.003975324 0.004421892
0.019024858 0.002650331 0.019119859 -0.0135662025 0.0031275766 0.0016933394 0.02358153 -0.0060133305
0.023775812 -0.029189076 0.012003546 -0.0063423663 0.028651478 -0.00727411 0.03044501 -0.039162323
0.029240556 -0.006456908 0.030095205 -0.0075066225 0.03813523 -0.020510733 0.0515754 -0.02265918
0.032472327 -0.0060999296 0.039963704 -0.016400566 0.062213633 -0.029107545 0.035337713 -0.007776308
0.046617925 -0.0160925 0.07941342 -0.034737926 0.039081875 -0.011075273 0.052056246 -0.023015015
0.09652278 -0.04502385 0.041908108 -0.016639471 0.055749416 -0.03233612 0.109492294 -0.045385633
0.047406636 -0.020582305 0.058673963 -0.03719141 0.124919005 -0.042714678 0.04939343 -0.022586996
0.058716103 -0.029215336 0.13416177 -0.04625153 0.048422355 -0.021257047 0.05898302 -0.04339269
0.13832875 -0.041979622 0.045408215 -0.020169618 0.0564221 -0.034546517 0.14038673 -0.04231396
0.03901558 -0.02121557 0.055534646 -0.035385758 0.13804273 -0.034054168 0.035427 -0.020530602
0.050886374 -0.027194608 0.13219142 -0.020747747 0.028849402 -0.013549456 0.04674448 -0.020479975
0.123630114 -0.016765058 0.020623432 -0.010174753 0.038411953 -0.0128866695 0.11271307 -0.0053795674
0.016577624 -0.01063908 0.030449549 -0.010184273 0.09816047 0.0028033867 0.0070535685 -0.0066374913
0.023512196 0.014101114 0.082340814 0.015017011 0.0014206469 -0.0013805317 0.014977055 0.02208964
0.06179507 0.019794803 -0.00710561 0.0044600638 0.006031269 0.029481517 0.035561994 0.024018055
-0.019919934 0.013333086 -0.0061999764 0.035469875 0.012450542 0.029036952 -0.02466401 0.011268362
-0.011604397 0.030425003 -0.017668568 0.03862135 -0.02916046 0.016618973 -0.018859714 0.0371107
-0.040287737 0.047001913 -0.03438753 0.018124424 -0.02736676 0.04751066 -0.06444362 0.052678544
-0.02640589 0.011524489 -0.03232522 0.048005562 -0.07960455 0.054471865 -0.033499487 0.014673691
-0.041076653 0.043024845 -0.09659196 0.056315105 -0.038280956 0.019824518 -0.044670008 0.045162443
-0.1072109 0.050475195 -0.03717798 0.024263717 -0.05087894 0.045339994 -0.1173302 0.04788219
-0.040780153 0.01877372 -0.05150797 0.055444904 -0.12154371 0.04421041 -0.037915107 0.01285133
-0.05579503 0.03923491 -0.122200124 0.03676922 -0.034154665 0.005100896 -0.058164448 0.02811813
-0.12075411 0.036054622 -0.035699453 0.003811323 -0.0612206 0.02857348 -0.116503224 0.03036735
-0.035667248 0.01053197 -0.056241505 0.035653368 -0.10508616 0.020767692 -0.036696386 0.0052559744
-0.051350717 0.028528713 -0.100243784 0.0112272585 -0.03176731 0.0028491423 -0.04771918 0.012689849
-0.08828831 0.0054515842 -0.029620614 -0.0003601384 -0.041543018 0.003702374 -0.07896251 -0.00171362
-0.024160596 0.0020178936 -0.037969284 -0.0043484373 -0.06666919 -0.011534139 -0.020765182 0.00044496352
-0.03402259 -0.01373803 -0.058185913 -0.020206414 -0.02160083 0.0013675869 -0.028928433 -0.0021150599
00000000: e1c6 daba b5d7 403b b671 233a 9274 cebc
00000010: 148f ecbc 6a71 903c bf61 743b a33b beba
00000020: dc78 ca3b 4541 9bbc 0c47 81bc 262f 433c
00000030: efdf 213c 3352 1bba 4b22 363c d7c8 3bbc
00000040: 5bac 90bc bde0 383c f950 8d3c 2eca f73a
00000050: ac5b 743c a360 bfbc 6f43 82bb 85e5 903b
00000060: 05da 9b3c 2db1 2d3b 40a1 9c3c c744 5ebc
00000070: 07f8 4c3b 0bf3 dd3a 0e2e c13c 790b c5bb
00000080: 7ec5 c23c ee1d efbc 85aa 443c a0d3 cfbb
00000090: 81b6 ea3c a85b eebb d067 f93c ac68 20bd
000000a0: e489 ef3c 7894 d3bb 388a f63c 1dfa f5bb
000000b0: b033 1c3d 2006 a8bc ba40 533d bf9f b9bc
000000c0: b401 053d ebe1 c7bb fbb0 233d 7b5a 86bc
000000d0: b9d3 7e3d f272 eebc 47be 103d 66d0 febb
000000e0: 70f2 3e3d 6bd4 83bc 81a3 a23d 5b49 0ebd
000000f0: 5114 203d 1075 35bc ee38 553d fc89 bcbc
00000100: bcad c53d ee6a 38bd d6a7 2b3d 804f 88bc
00000110: 8059 643d e172 04bd 7f3d e03d 49e6 39bd
00000120: 762d 423d 399c a8bc 1c54 703d 0556 18bd
00000130: 89d5 ff3d 96f5 2ebd c450 4a3d 5d08 b9bc
00000140: 4c80 703d 0055 efbc b461 093e 3f72 3dbd
00000150: 8556 463d 4223 aebc 2e98 713d 89bc 31bd
00000160: 0da6 0d3e d3f2 2bbd f7fd 393d c13a a5bc
00000170: dc1a 673d a680 0dbd 8ac1 0f3e 6751 2dbd
00000180: cdce 1f3d 46cc adbc 4c78 633d a8f0 10bd
00000190: 135b 0d3e 627c 0bbd e71b 113d cb2f a8bc
000001a0: 3b6e 503d 3ac7 debc 305d 073e 2ef7 a9bc
000001b0: 9555 ec3c 8afe 5dbc 2477 3f3d 9fc5 a7bc
000001c0: c931 fd3d e056 89bc 79f2 a83c 02b4 26bc
000001d0: da55 1d3d 9c22 53bc 1cd6 e63d 1547 b0bb
000001e0: cccd 873c 894f 2ebc 5571 f93c f0db 26bc
000001f0: 5b08 c93d 06b9 373b 9f21 e73b 507f d9bb
00000200: a69c c03c 5c08 673c 4da2 a83d e909 763c
00000210: 0035 ba3a f5f2 b4ba 5262 753c 55f5 b43c
00000220: d41c 7d3d b628 a23c 2dd6 e8bb ba25 923b
00000230: f4a1 c53b 3983 f13c 74a9 113d 83c1 c43c
00000240: 212f a3bc 0473 5a3c 2c29 cbbb dc48 113d
00000250: 5cfd 4b3c e7de ed3c 2e0c cabc f09e 383c
00000260: 5e20 3ebc db3d f93c acbd 90bc 6c31 1e3d
00000270: ebe1 eebc 8324 883c b07f 9abc 6401 183d
00000280: c104 25bd 1485 403d f0d9 0cbd ac79 943c
00000290: 4130 e0bc 8a9a 423d 04fb 83bd 75c5 573d
000002a0: 2a51 d8bc 36d1 3c3c 7367 04bd 7ba1 443d
000002b0: b607 a3bd e41d 5f3d c236 09bd ec69 703c
000002c0: fe3f 28bd d23a 303d 01d2 c5bd abaa 663d
000002d0: 7ecc 1cbd 0767 a23c e6f7 36bd 41fc 383d
000002e0: 6391 dbbd 14bf 4e3d f047 18bd b4c4 c63c
000002f0: 6f66 50bd 6eb6 393d d14a f0bd 1e20 443d
00000300: 1709 27bd 58cb 993c 05fa 52bd 321a 633d
00000310: e9eb f8bd fa15 353d df4c 1bbd 638e 523c
00000320: 5489 64bd c9b4 203d 0f44 fabd 529b 163d
00000330: c3e5 0bbd 6b25 a73b d83d 6ebd fe57 e63c
00000340: ee4d f7bd 03ae 133d 9739 12bd 64c7 793b
00000350: 74c2 7abd ee12 ea3c 3e99 eebd f3c4 f83c
00000360: d217 12bd 498e 2c3c 7e5d 66bd 4409 123d
00000370: 6a37 d7bd 0221 aa3c f34e 16bd 4f3a ac3b
00000380: 2155 52bd 0cb5 e93c 9d4c cdbd 89f2 373c
00000390: 701e 02bd adb8 3a3b 3075 43bd 16e9 4f3c
000003a0: 80d0 b4bd 34a3 b23b eea6 f2bc f5d0 bcb9
000003b0: 0329 2abd 87a3 723b 19b7 a1bd 8c9b e0ba
000003c0: 71ec c5bc a33e 043b ae85 1bbd 567d 8ebb
000003d0: db89 88bd aff9 3cbc be1b aabc fe49 e939
000003e0: 455b 0bbd 7915 61bc 5a54 6ebd ec87 a5bc
000003f0: 39f4 b0bc 9a40 b33a 52fb ecbc d19c 0abb

fc1.bias f4 [126]
-0.004754484 0.0020032953 -0.02350428 0.00020591237 -0.00049000676 -0.04905206 -0.042033356 0.075544946
-1.697018e-05 -0.039471976 -0.0016539581 0.013656296 -0.009894903 0.012519493 -0.004869552 0.0016493928
0.079599015 1.2606432e-05 4.908587e-05 -0.054038394 0.010522019 0.00032451068 -0.10972054 -0.082257144
0.0011171973 -0.0066621895 6.607838e-06 -0.05504403 0.06250468 -8.312389e-05 0.060347296 -0.053373512
-0.0058635166 0.010506161 6.76286e-05 0.0123451315 0.0068315165 0.08151583 -0.0612093 0.023235433
-0.0031024364 0.00087531033 -0.034752928 -0.05239156 -0.04970416 -0.054036926 -0.0048745354 0.062337853
0.00033400144 0.00756374 0.0039430815 0.0016785692 -0.07905102 -0.013027917 -0.047539726 -0.04306576
0.0001585004 0.0151572395 0.01762166 5.8364676e-05 0.0034256952 -0.014681256 -0.06758117 0.0004067038
0.044666458 -0.01797529 0.00064780604 -0.0013598677 0.01611742 0.0007942118 0.015056818 -0.03952113
0.00966566 0.00035132194 0.086139254 0.0013223327 -0.026392426 -0.0755191 0.009512891 0.06849157
-0.088486195 -0.07139351 -0.00019155697 0.0007117055 0.01067968 0.0046602725 -0.034971662 -0.08089416
-0.051812652 0.00034547466 0.084655635 0.019019034 0.020913675 0.0001481308 0.053407334 0.00024050474
-0.04506603 -0.076201275 0.01077474 0.08576049 0.02854845 0.00079629465 0.06293569 -9.09844e-05
0.011190085 -0.05825726 0.02909495 0.00917521 0.01358701 -0.00027478274 -0.0016247045 0.064241014
-0.114518516 0.00031441872 0.0002083274 0.014409537 -0.06435736 0.032552976 0.012859082 0.00044724625
0.03677192 0.0001962616 -0.056410637 0.00876487 -0.058974367 -0.026205726
00000000: 81cb 9bbb b849 033b 0c8c c0bc 2eea 5739
00000010: cc73 00ba d0ea 48bd 2b2b 2cbd 4fb7 9a3d
00000020: 2f5b 8eb7 5ead 21bd a0c9 d8ba a8be 5f3c
00000030: 3b1e 22bc 8f1e 4d3c c390 9fbb 7030 d83a
00000040: cf04 a33d 3780 5337 8de1 4d38 5d57 5dbd
00000050: 8c64 2c3c 1623 aa39 2ab5 e0bd 6f76 a8bd
00000060: ec6e 923a 7f4e dabb e5b8 dd36 d975 61bd
00000070: 7402 803d cc52 aeb8 ba2e 773d 2f9e 5abd
00000080: be22 c0bb 0822 2c3c d4d3 8d38 3c43 4a3c
00000090: eada df3b c5f1 a63d 9ab6 7abd 3c58 be3c
000000a0: 3f52 4bbb 1575 653a 1659 0ebd 8898 56bd
000000b0: 9796 4bbd d355 5dbd 91ba 9fbb fa55 7f3d
000000c0: ea1c af39 40d9 f73b f734 813b 7003 dc3a
000000d0: 80e5 a1bd 0b73 55bc 04b9 42bd b965 30bd
000000e0: 2133 2639 1256 783c 4d5b 903c 98cc 7438
000000f0: a181 603b a789 70bc ff67 8abd dc3a d539
00000100: 2df4 363d ea40 93bc 87d1 293a 973d b2ba
00000110: ae08 843c a732 503a dfb0 763c e9e0 21bd
00000120: b75c 1e3c a231 b839 c769 b03d 1f52 ad3a
00000130: ee34 d8bc c2a9 9abd f5db 1b3c 4f45 8c3d
00000140: 4038 b5bd c336 92bd afdc 48b9 bf91 3a3a
00000150: d3f9 2e3c 33b5 983b 723e 0fbd d6ab a5bd
00000160: 8139 54bd d320 b539 ef5f ad3d cecd 9b3c
00000170: 2853 ab3c 8f53 1b39 a6c1 5a3d 0030 7c39
00000180: 2897 38bd 6a0f 9cbd 8988 303c 32a3 af3d
00000190: 70de e93c 6ebe 503a 6de4 803d e1ce beb8
000001a0: 9e56 373c 2a9f 6ebd 8858 ee3c 9f53 163c
000001b0: 0d9c 5e3c b710 90b9 09f4 d4ba cb90 833d
000001c0: af88 eabd 91d8 a439 7672 5a39 fb15 6c3c
000001d0: cbcd 83bd 4556 053d e6ae 523c 607c ea39
000001e0: 279e 163d 92cb 4d39 d70e 67bd 889a 0f3c
000001f0: 1b8f 71bd 64ad d6bc

fc2.weight f4 [75, 126]
-6.681071e-15 -5.867017e-14 -4.9746194e-14 -4.43282e-12 -3.1771732e-12 -2.8553394e-13 -6.665364e-13 -1.7867169e-12
-1.1257762e-14 -2.6930124e-19 -2.6081309e-18 -2.81217e-12 -2.5877838e-13 -3.9034508e-11 -1.420629e-17 -2.1264666e-22
-4.784848e-16 -1.7255219e-13 -7.5591306e-16 -1.3995076e-11 -2.5469056e-13 -8.381805e-12 -7.862332e-14 -2.6707556e-10
-6.672945e-22 -3.45808e-14 -6.095726e-12 -8.6042465e-11 -2.4080756e-11 -2.4340133e-15 -7.8381485e-13 -5.7451526e-13
-1.4397943e-13 -1.4430899e-13 -1.6029587e-10 7.642634e-14 -7.3871586e-16 -2.1539949e-10 -4.618444e-11 -2.629388e-11
-5.189246e-15 -8.065149e-16 -2.8044543e-13 -9.941237e-12 -1.3731867e-12 -1.2991032e-15 -2.0835794e-12 -1.2908031e-19
-3.4060823e-16 -2.2492666e-11 -2.2571447e-13 -3.1451293e-13 -2.2000693e-13 -3.88806e-12 -1.8566993e-12 -1.1221865e-08
-7.2396386e-18 -8.595059e-25 -3.6789856e-13 -4.6455353e-12 -1.4498302e-14 -4.6401884e-12 -3.625297e-11 -4.7577268e-23
-5.465467e-17 -2.030997e-16 -5.6468203e-19 -3.2579714e-13 -2.5030991e-11 -7.5664666e-12 -6.1940137e-16 -5.344091e-11
-3.7954678e-11 -5.755313e-13 -1.8779673e-15 -4.9768314e-18 -3.4351133e-11 -3.1986214e-13 -3.4039802e-15 -4.34906e-16
-7.6624335e-10 -9.295644e-16 -2.3540276e-11 -4.206931e-12 -9.447637e-15 -2.941914e-13 -1.5484857e-12 -1.2017391e-11
-4.885458e-12 -2.7145983e-15 -1.4854141e-12 -8.5271976e-15 -1.0699107e-13 -1.6420425e-12 -3.1946684e-16 -5.342222e-16
-2.0795679e-10 -5.438803e-16 2.7648756e-14 -1.787897e-14 1.7324676e-20 -1.0081043e-16 -2.714919e-19 -3.844061e-13
-9.532927e-14 -4.656681e-09 -5.2436685e-13 -2.1349549e-16 1.02257465e-17 9.3502154e-15 -2.4254528e-15 -2.9822481e-18
-3.0672925e-12 -1.1235455e-13 -2.3652176e-12 -5.767101e-14 -5.8444774e-15 -4.0637605e-14 -3.1970928e-15 -4.0896413e-16
-4.6778485e-14 -3.7949657e-18 -5.0822073e-17 -8.844184e-16 -3.2920756e-11 -1.4988031e-13 0.011263943 9.219879e-05
0.0009888136 -0.00030435156 -0.00044455982 -0.03348991 -0.011906977 0.09634856 8.769277e-05 -0.009923921
-0.00072907674 0.037820842 -0.0049476926 0.0019175735 0.0077655055 0.0035278187 0.12242121 3.9996507e-06
7.719767e-05 -0.051625393 0.004578293 0.00017230876 0.0066250316 -0.037315257 0.0007525229 -0.0060655195
7.6066117e-06 -0.01134127 0.047603145 -0.00017819535 0.11461542 -0.051325064 -0.0046238704 0.006359449
-2.4411396e-05 0.035674255 0.0031337943 0.10419703 -0.018556852 0.04111056 -0.018892668 0.0012255457
-0.013490213 -0.05706279 -0.011601827 -0.034285214 -0.006286625 0.0126469815 6.845311e-05 -0.0011999375
0.000733419 0.007650724 0.014901361 -0.006232754 -0.02654549 -0.011514523 0.00022637789 0.050542515
0.033948965 2.6183416e-05 0.0008188917 -0.03592484 -0.04022378 0.0059779687 0.011212856 -0.03139283
0.00095686683 -0.0054446273 0.03351333 0.0027087075 0.024682203 -0.05106045 0.02076473 0.00018927448
0.12530227 -0.006678431 -0.05199957 -0.057826914 0.0030311963 0.09673122 -0.056866966 -0.048345484
-5.9392536e-05 0.0050375196 -0.013230896 0.0026145498 -0.015363542 -0.051863886 -0.016106086 0.00096754316
0.11069083 0.025476674 -0.00737944 7.729233e-05 0.06656866 0.00019646628 -0.0061995336 0.023430895
0.029851876 0.030179683 0.060707886 0.001333144 0.016441794 -1.4750972e-05 0.006653088 -0.020098608
0.0228587 0.046241153 0.01028448 0.00011125275 -0.011984054 0.010566944 0.011401149 0.001779936
3.943806e-05 0.032826144 -0.04341453 0.039340537 0.04261164 -0.00011628588 0.04564338 0.0003240753
-0.044909462 0.036179025 -0.03304724 0.0098541705 -0.05338823 0.003673348 -0.00052603125 0.00049396884
00000000: 01b6 f0a7 0d1d 84a9 7509 60a9 4bf7 9bac
00000010: dd92 5fac c7bd a0aa 029d 3bab 4375 fbab
00000020: 43cd 4aa8 a7f7 9ea0 3372 40a2 8de3 45ac
00000030: e5ad 91aa f3ac 2bae a707 83a3 7a89 809b
00000040: f2e9 09a6 c846 42aa 8ae0 59a6 3834 76ad
00000050: c760 8faa 4b74 13ad 420b b1a9 8bd3 92af
00000060: 69ad 499c f3bc 1ba9 6b79 d6ac 9a35 bdae
00000070: 0bd1 d3ad 9f63 2fa7 d09f 5cab 30b6 21ab
00000080: 3f1b 22aa 3c7a 22aa 473f 30af c918 ac29
00000090: 9ceb 54a6 91d5 6caf 0f1f 4bae 8e48 e7ad
000000a0: 59f6 baa7 4c76 68a6 72e0 9daa 5ae3 2ead
000000b0: 4442 c1ab 7338 bba6 6e9e 12ac 2164 18a0
000000c0: e758 c4a5 fbd8 c5ad c421 7eaa 170e b1aa
000000d0: aeb4 77aa 88cc 88ac 52a7 02ac 49ca 40b2
000000e0: 3a8c 05a3 8900 8597 c51b cfaa 4373 a3ac
000000f0: cf96 82a8 1a43 a3ac 3771 1fae ce11 669a
00000100: d80c 7ca4 7328 6aa5 2baa 26a1 5168 b7aa
00000110: c82c dcad 561c 05ad c187 32a6 1e09 6bae
00000120: 2bed 26ae 67ff 21ab 6252 07a7 d89c b7a2
00000130: f013 17ae fe10 b4aa 5a48 75a7 ccb4 faa5
00000140: 959f 52b0 e0f6 85a6 fd0f cfad aa04 94ac
00000150: 8931 2aa8 739d a5aa 14ee d9ab 8569 53ad
00000160: 4be4 abac 809b 43a7 af0d d1ab c29c 19a8
00000170: 27ec f0a9 d118 e7ab fc28 b8a5 a4fa 19a6
00000180: a2a6 64af 48c3 1ca6 b109 f928 190a a1a8
00000190: 7fa0 a31e f973 e8a4 b242 a0a0 c266 d8aa
000001a0: 95a9 d6a9 9900 a0b1 9d98 13ab bf24 76a5
000001b0: b9a1 3c23 4270 2828 b5c5 2ea7 130d 5ca2
000001c0: 6ed7 57ac fdff fca9 f96f 26ac 13dd 81a9
000001d0: ca91 d2a7 f803 37a9 f45f 66a7 74c0 eba5
000001e0: ecab 52a9 7002 8ca2 1d60 6aa4 8fea 7ea6
000001f0: 7ac9 10ae 0fc0 28aa 678c 383c d95a c138
00000200: 149b 813a 6091 9fb9 cf13 e9b9 b72c 09bd
00000210: 7b15 43bc 6552 c53d b3e7 b738 f197 22bc
00000220: 831f 3fba 07ea 1a3d 4120 a2bb 1757 fb3a
00000230: c875 fe3b fa32 673b f9b7 fa3d bd34 8636
00000240: 2fe5 a138 2675 53bd 8105 963b c8ad 3439
00000250: cb16 d93b e2d7 18bd f544 453a 44c1 c6bb
00000260: 4c3c ff36 bcd0 39bc 84fb 423d f3d9 3ab9
00000270: 7dbb ea3d 3b3a 52bd d683 97bb ed62 d03b
00000280: 13c7 ccb7 2b1f 123d 5860 4d3b 4165 d53d
00000290: 8a04 98bc 8c63 283d ccc4 9abc 7da2 a03a
000002a0: 0e06 5dbc acba 69bd 9715 3ebc a76e 0cbd
000002b0: 0800 cebb 4935 4f3c 7c8e 8f38 3947 9dba
000002c0: ea42 403a edb2 fa3b d724 743c 213c ccbb
000002d0: ed75 d9bc 69a7 3cbc da5f 6d39 ab05 4f3d
000002e0: 120e 0b3d 75a4 db37 e4aa 563a ed25 13bd
000002f0: b1c1 24bd d6e2 c33b 20b6 373c c595 00bd
00000300: 3fd6 7a3a d868 b2bb 4645 093d 9284 313b
00000310: 5532 ca3c c324 51bd cc1a aa3c fb77 4639
00000320: 3d4f 003e bdd6 dabb 80fd 54bd eadb 6cbd
00000330: 09a7 463b 051b c63d 56ed 68bd ea05 46bd
00000340: 401c 79b8 c711 a53b 66c6 58bc de58 2b3b
00000350: 5eb7 7bbc 3a6f 54bd e9f0 83bc b9a2 7d3a
00000360: e0b1 e23d 75b4 d03c 3bcf f1bb 0118 a238
00000370: 2655 883d 8402 4e39 7525 cbbb 26f2 bf3c
00000380: ec8b f43c 623b f73c d5a8 783d e4bc ae3a
00000390: f1b0 863c f17a 77b7 2602 da3b d6a5 a4bc
000003a0: 2b42 bb3c 5d67 3d3d 3c80 283c 5e50 e938
000003b0: c458 44bc fa20 2d3c e3cb 3a3c be4c e93a
000003c0: 4b6a 2538 b574 063d 6fd3 31bd 8b23 213d
000003d0: 8b89 2e3d 82de f3b8 8ef4 3a3d a7e8 a939
000003e0: fcf2 37bd 7530 143d 8b5c 07bd 6373 213c
000003f0: 9ead 5abd 8ebc 703b 5ce5 09ba b07d 013a

fc2.bias f4 [75]
-2.1321866e-23 0.147739 0.058853976 0.13726056 -0.06740868 -1.3186e-40 0.010872633 0.1555734
-5.1732e-41 0.035877176 -0.077948235 0.089495726 -0.07452667 4.1724e-41 -0.045315333 -0.06428877
0.10051236 0.0077349376 0.060336363 -0.077317454 0.054506633 -0.032279346 -5.3345e-41 0.1269745
0.014418285 0.061359335 0.06076251 6.4125e-41 0.09696786 0.013886246 -0.07009043 -5.7725e-41
0.03631954 -0.07375334 -0.07168141 0.054225907 0.012468433 -1.2976647e-27 1.7541655e-31 -4.4444103e-28
0.032836664 0.09292408 -1.4061933e-22 0.09290708 0.060322978 0.06232249 0.072723754 0.033354804
0.10099819 -0.028274769 -0.06773489 0.09977869 0.05597171 0.15489182 0.08933211 0.02705275
0.008036445 -0.07194846 0.05716623 0.03573421 5.8007e-41 0.010573957 -0.07168835 1.735e-41
-0.05993165 0.057969857 1.4841e-41 -3.7221e-41 0.009687215 0.012530145 -0.07043552 0.1398408
0.06055683 0.089753665 0.053102963
00000000: 6236 ce99 e448 173e de10 713d 088e 0c3e
00000010: 900d 8abd 926f 0180 2123 323c a24e 1f3e
00000020: 3590 0080 f2f3 123d 53a3 9fbd 8949 b73d
00000030: 70a1 98bd 4f74 0000 929c 39bd d5a9 83bd
00000040: 6dd9 cd3d 5c75 fd3b 4323 773d 9d58 9ebd
00000050: 5942 5f3d 5937 04bd b494 0080 9a05 023e
00000060: ac3a 6c3c ed53 7b3d 1ce2 783d c1b2 0000
00000070: 1697 c63d 2383 633c 928b 8fbd eaa0 0080
00000080: ccc3 143d fe0b 97bd b4cd 92bd fc1b 5e3d
00000090: 6648 4c3c 899f cd92 26b4 630c 57d9 0c92
000000a0: bd7f 063d fb4e be3d 93ff 299b 1146 be3d
000000b0: 3a15 773d de45 7f3d 31f0 943d 0c9f 083d
000000c0: 24d8 ce3d 7da0 e7bc 97b8 8abd c558 cc3d
000000d0: 9742 653d f69b 1e3e c1f3 b63d bb9d dd3c
000000e0: 4bab 033c b759 93bd 2327 6a3d 095e 123d
000000f0: b3a1 0000 643e 2d3c 57d1 92bd 5d30 0000
00000100: e47a 75bd cd71 6d3d 5f29 0000 c267 0080
00000110: 20b7 1e3c 3d4b 4d3c 7f40 90bd 6d32 0f3e
00000120: 700a 783d c5d0 b73d 7e82 593d

fc3.weight f4 [4, 75]
-0.0010129738 -0.3676982 -0.12445929 -0.32638946 0.17014183 0.00025010225 0.1640112 -0.36519423
1.665997e-14 -0.16004857 0.20372461 -0.049854707 0.20435159 1.8104993e-05 0.14029442 0.16594802
-0.044810165 -0.055977482 -0.1280872 0.21229668 -0.118771106 0.11508585 0.00030146804 -0.16377929
0.17925064 -0.13010134 -0.12831005 4.281168e-11 -0.04696273 0.17400566 0.19071926 -1.0424762e-05
0.12288187 0.19586901 0.20441449 -0.16959654 0.17589854 0.0022085174 5.1458053e-05 -1.5004913e-06
0.10777925 -0.04788143 0.0049491413 -0.045958918 -0.12130431 -0.12632132 -0.18118978 -0.02563741
-0.040211212 0.07813679 0.19174005 -0.048057787 -0.11791759 -0.3693744 -0.046361107 -0.1347061
0.18801793 0.20295604 -0.121553496 0.12563838 -1.6487027e-06 0.17963299 0.2103281 -8.601657e-06
0.18122151 -0.12588888 -0.003046311 -1.7512124e-09 0.18370514 0.19472145 0.1982237 -0.35929954
-0.11837821 -0.12499722 -0.10786435 -0.00031356583 0.09982453 -0.23749904 0.11882993 -0.14357078
3.1631808e-09 0.16270477 0.12779032 1.375716e-23 0.20805956 -0.18298212 -0.047597703 -0.16355212
-3.4041474e-07 -0.22087538 -0.1472101 -0.058647733 0.020836039 -0.24635606 -0.18180455 -0.24506457
-0.24043629 -0.0014431169 0.2607195 0.1712689 -0.24128713 -0.24492888 4.5875692e-10 -0.06349836
0.16523887 -0.160831 -1.6124884e-06 0.11003568 -0.16245724 -0.16837601 0.24231566 0.16354758
0.00074223697 -2.4080648e-05 -0.0014651706 0.09893276 -0.05494754 -1.2370793e-06 -0.05596525 -0.2391621
-0.24871011 0.25222778 -0.03593619 -0.052776482 -0.2690568 -0.16437556 -0.060626063 -0.24926783
0.114417836 -0.05679701 0.20947911 0.19342768 -0.16298683 -0.24505074 0.10429356 -1.7088398e-05
0.18060543 -0.17832598 -6.075981e-08 -0.1159142 -0.2425635 3.6259415e-05 -3.4010248e-09 0.18434191
0.19563365 -0.17501356 0.10842175 -0.24381115 0.26546898 -0.24029881 0.019152498 0.12023659
0.16888808 0.12711793 -0.08316743 -4.147829e-09 0.105807856 0.12997279 1.3812286e-12 0.07546031
-0.057640646 -0.34705964 -0.0714104 -1.3065478e-05 0.09465067 -0.08146073 -0.36061987 0.10749121
0.16604112 -0.06514652 0.13407439 0.10873073 0.00046458343 -0.18793334 -0.2550363 0.18612674
0.17361267 6.895471e-06 -0.3511019 -0.25608215 -0.07638846 8.5929336e-05 -0.33230978 -0.078946784
-0.07462022 0.013421257 -0.262448 -3.7044083e-16 -1.2019515e-08 0.040035836 -0.33657727 -0.36543173
-3.9511713e-07 -0.35778576 0.16354528 0.17074816 -0.010422785 -0.15145132 -0.35322642 0.10867464
-0.07351864 -0.36475506 0.13778232 0.12179138 -0.35828963 0.09635556 0.1254424 -0.07742935
0.1634435 -0.33464128 2.0747118e-05 0.116012216 -0.05991523 -0.00062933966 -0.09048241 0.16519548
0.0010144514 2.7148415e-06 0.13792585 0.13012928 -0.067221485 0.10017197 0.16859491 -0.15479475
0.13674712 -0.004510553 0.08194433 0.16082624 0.091994144 0.037796367 -0.00011707073 -0.63770473
0.11245085 -4.3518977e-10 -0.11737821 0.0112949805 0.4161224 0.024879016 -5.3098975e-05 -0.03463172
0.042782933 0.4418673 -0.085127905 0.16276845 0.024289649 0.12852952 0.004944836 -0.00021823742
0.0880136 -0.10951341 0.17334361 0.17269768 -7.3137717e-06 0.4373336 -0.13354021 0.029132947
00000000: c3c5 84ba f042 bcbe 83e4 febd 851c a7be
00000010: a939 2e3e 2820 8339 8df2 273e bdfa babe
00000020: 460f 9628 c6e3 23be 2f9d 503e 7334 4cbd
00000030: 8b41 513e 2de0 9737 57a9 0f3e 47ee 293e
00000040: dd8a 37bd a548 65bd 4a29 03be 4d64 593e
00000050: 443e f3bd 21b2 eb3d 5b0e 9e39 c2b5 27be
00000060: 7b8d 373e 4939 05be b663 03be ab49 3c2e
00000070: fe5b 40bd 8a2e 323e e94b 433e 03e6 2eb7
00000080: 7da9 fb3d e391 483e 0852 513e b7aa 2dbe
00000090: bf1e 343e c6bc 103b aad4 5738 7d64 c9b5
000000a0: 5ebb dc3d 511f 44bd 682c a23b 6b3f 3cbd
000000b0: 656e f8bd 605a 01be d089 39be 8c05 d2bc
000000c0: 83b4 24bd 2e06 a03d 8157 443e 3ed8 44bd
000000d0: c77e f1bd a41e bdbe 25e5 3dbd 65f0 09be
000000e0: c687 403e b5d3 4f3e 0af1 f8bd 59a7 003e
000000f0: fe48 ddb5 b6f1 373e 4060 573e d64f 10b7
00000100: 2292 393e 04e9 00be 9ea4 47bb 4faf f0b0
00000110: 331d 3c3e 0f65 473e 27fb 4a3e 1cf6 b7be
00000120: 4670 f2bd 8bfe ffbd fce7 dcbd 1866 a4b9
00000130: ce70 cc3d f332 73be 1b5d f33d 3804 13be
00000140: 445f 5931 149c 263e 77db 023e 140d 8519
00000150: 910d 553e aa5f 3bbe cff5 42bd 357a 27be
00000160: 3fc2 b6b4 282d 62be 3fbe 16be 9b38 70bd
00000170: 57b0 aa3c c344 7cbe f92a 3abe 35f2 7abe
00000180: ee34 76be f826 bdba 077d 853e 1d61 2f3e
00000190: f913 77be a3ce 7abe 4c34 fc2f 6e0b 82bd
000001a0: 6134 293e e2b0 24be ae6c d8b5 635a e13d
000001b0: 315b 26be c36a 2cbe 9921 783e 0479 273e
000001c0: ae92 423a cc00 cab7 f80a c0ba 429d ca3d
000001d0: ac10 61bd b909 a6b5 d13b 65bd e9e6 74be
000001e0: ddad 7ebe 0024 813e d431 13bd 272c 58bd
000001f0: d0c1 89be 1152 28be 0953 78bd 1140 7fbe
00000200: e653 ea3d fba3 68bd b181 563e e811 463e
00000210: 05e6 26be 95ee 7abe dd97 d53d 0e59 8fb7
00000220: a1f0 383e 169b 36be 0f7b 82b3 6d64 edbd
00000230: 9162 78be 4015 1838 76b7 69b1 20c4 3c3e
00000240: 3054 483e c136 33be 390c de3d a1a9 79be
00000250: 8deb 873e e410 76be b3e5 9c3c 9a3e f63d
00000260: fff0 2c3e 342b 023e af53 aabd b184 8eb1
00000270: cab1 d83d 9617 053e 0164 c22b ef8a 9a3d
00000280: 9918 6cbd cdb1 b1be 9e3f 92bd cd33 5bb7
00000290: 36d8 c13d e2d4 a6bd 2ba3 b8be 5a24 dc3d
000002a0: af06 2a3e 8a6b 85bd cc4a 093e 38ae de3d
000002b0: 5593 f339 9971 40be 1e94 82be 0298 3e3e
000002c0: 85c7 313e a55f e736 a1c3 b3be 331d 83be
000002d0: 8e71 9cbd f634 b438 8224 aabe daae a1bd
000002e0: 7cd2 98bd d5e4 5b3c 965f 86be 6b8b d5a5
000002f0: 637e 4eb2 9efc 233d db53 acbe de19 bbbe
00000300: 7c20 d4b4 b22f b7be 6a78 273e 9bd8 2e3e
00000310: 54c4 2abc 0e16 1bbe 18da b4be cf90 de3d
00000320: f190 96bd 2dc1 babe cf16 0d3e c26d f93d
00000330: bd71 b7be 1056 c53d f973 003e 4793 9ebd
00000340: bc5d 273e 1a56 abbe 190a ae37 d097 ed3d
00000350: ac69 75bd 45fa 24ba d74e b9bd 0129 293e
00000360: 57f7 843a 9f30 3636 6f3c 0d3e 9c40 053e
00000370: 6bab 89bd f626 cd3d 25a4 2c3e 8482 1ebe
00000380: 7007 0c3e 43cd 93bb 6ed2 a73d a2af 243e
00000390: 6d67 bc3d 5dd0 1a3d df83 f5b8 9e40 23bf
000003a0: a24c e63d 843f efaf fd63 f0bd 950e 393c
000003b0: ff0d d53e 14cf cb3c 97b6 5eb8 fed9 0dbd
000003c0: 283d 2f3d 6e3c e23e 8a57 aebd c6ac 263e
000003d0: 16fb c63c 3e9d 033e 4a08 a23b a9d6 64b9
000003e0: 7940 b43d 9148 e0bd fd80 313e a9d7 303e
000003f0: d268 f5b6 31ea df3e c4be 08be 38a8 ee3c

fc3.bias f4 [4]
-0.40410668 0.20256175 0.18858199 0.056099262
00000000: 12e7 cebe 596c 4f3e a31b 413e 57c8 653d
