MediaPipe_Operation/model_4class/gesture_classifier2.pth (torch, 26480 bytes, 4 tensors)

fc1.weight f4 [64, 90]
0.006388688 -0.01103964 0.03812503 -0.0525656 0.041072335 0.011490798 0.012100755 0.0017738282
0.06624049 -0.060709372 0.056889605 0.006860195 -0.00040740398 -0.0008687456 0.058179818 -0.060700096
0.051168624 -0.004020527 -0.004692411 0.0033212248 0.0643356 -0.05668546 0.03642473 -0.0039729318
2.006288e-05 0.012182574 0.06174418 -0.06474735 0.04059997 -0.018714724 -0.013075591 0.0031245041
0.061122663 -0.056332763 0.047677122 -0.02272236 -0.01846316 0.011269979 0.060807873 -0.056909647
0.04403978 -0.025113286 -0.030099787 0.01125145 0.059329845 -0.049676023 0.048677094 -0.01788246
-0.01283432 0.020129401 0.069221996 -0.05921278 0.042962056 -0.029106252 -0.0078343535 0.004221251
0.06500132 -0.054803196 0.045704793 -0.016693717 -0.023226278 0.010065505 0.045393344 -0.044229016
0.029136805 -0.0132680135 -0.0137269655 -0.005190041 0.048434693 -0.050870143 0.02396518 -0.006811109
-0.019573027 -0.0122209005 0.05226717 -0.041025292 0.036271416 0.018847995 -0.0008104492 0.006528371
0.03842544 -0.04895528 0.026290251 0.009574044 -0.01865144 -0.0028339648 0.01471328 -0.042891286
0.0067755077 0.027371256 -0.048865363 0.014596964 0.011540357 0.084466085 -0.03602517 -0.14596823
-0.0489084 0.01612724 0.010017627 0.07955781 -0.025431298 -0.12094828 -0.011010123 -0.01719341
-0.008858365 0.05617317 -0.031113278 -0.11710618 -0.007404062 -0.016280765 0.0046959263 0.048534907
-0.02017213 -0.09203981 0.0007022172 -0.007105385 -0.0045198784 0.03232577 -0.02418581 -0.075931594
-0.016894076 -0.008365306 0.013969684 0.054846175 -0.016425451 -0.098894514 -0.0058694673 0.012306725
-0.010269102 0.04006493 -0.03618263 -0.11093555 -0.010716032 0.001734509 0.0032741108 0.036674794
-0.0143393995 -0.0860947 -0.005514052 0.012972516 0.007593659 0.074541666 -0.0252273 -0.09004227
-0.004336315 -0.0141432155 -0.004076115 0.050139405 -0.01906903 -0.095547825 -0.015271251 -0.0151138995
0.0016284712 0.05406278 -0.010769614 -0.10453631 -0.018103715 -0.025094302 -0.00152365 0.057545032
-0.017545836 -0.101736255 -0.019117974 -0.0023920818 0.004134101 0.06957538 -0.024753785 -0.139102
-0.042084612 -0.002351711 0.006921931 0.06992551 -0.017091405 -0.13413772 -0.022509418 0.022599263
0.021891423 0.09384321 -0.05284448 -0.1589123 0.006297666 -0.014176765 0.015283805 -0.050309923
0.030327685 0.01860455 -0.0049557486 0.008475058 0.044091664 -0.047943484 0.04478133 0.02199469
-0.012034093 0.008969153 0.03329147 -0.048713 0.03576016 0.0032712026 0.0035448845 0.0069126366
0.04633036 -0.05096119 0.035181418 0.006836618 -0.0042972113 -0.0046755667 0.044768088 -0.07001101
0.03750742 -0.014806534 -0.013403056 0.012193382 0.055108406 -0.050789345 0.043169796 -0.01783838
-0.012964439 0.01519202 0.058007907 -0.05220067 0.048775874 -0.00955288 -0.019065797 0.007463609
0.0589398 -0.06174552 0.058912158 -0.023839034 -0.0035554057 0.019093795 0.074748136 -0.05618882
0.056796703 -0.027609007 0.0017101559 0.009890744 0.071060225 -0.054035738 0.05760833 -0.017334254
-0.013486292 0.017460475 0.061441783 -0.04572161 0.046621755 -0.012859583 -0.008867851 -0.0055019795
0.067589104 -0.058514126 0.042292267 -0.014492925 -0.0074585364 0.004133121 0.07402961 -0.049146164
00000000: 3358 d13b 9bdf 34bc fe28 1c3d 074f 57bd
00000010: 773b 283d e643 3c3c 3f42 463c cc7f e83a
00000020: 18a9 873d 64aa 78bd 1305 693d 7dcb e03b
00000030: d698 d5b9 88bc 63ba f64d 6e3d aaa0 78bd
00000040: 3196 513d a0be 83bb ccc2 99bb e8a8 593b
00000050: 62c2 833d 032f 68bd 1932 153d 5e2f 82bb
00000060: b54c a837 6b99 473c 77e7 7c3d 429a 84bd
00000070: 274c 263d 9f4f 99bc 013b 56bc 7bc4 4c3b
00000080: c25b 7a3d 2fbd 66bd 1649 433d 3e24 babc
00000090: 0e40 97bc b8a5 383c ad11 793d 171a 69bd
000000a0: 0e63 343d 61ba cdbc d493 f6bc 0058 383c
000000b0: da03 733d 1679 4bbd a261 473d 3d7e 92bc
000000c0: 0a47 52bc 6ae6 a43c 43c4 8d3d 1a89 72bd
000000d0: fbf8 2f3d 3c70 eebc a95b 00bc 6b52 8a3b
000000e0: 691f 853d 5179 60bd f334 3b3d 43c1 88bc
000000f0: 0945 bebc cae9 243c 5fee 393d 7c29 35bd
00000100: 4fb0 ee3c 1562 59bc 11e7 60bc 3811 aabb
00000110: 7563 463d 365d 50bd a052 c43c b92f dfbb
00000120: 9d57 a0bc 2c3a 48bc 1a16 563d 230a 28bd
00000130: 5691 143d 1c67 9a3c 5374 54ba f2eb d53b
00000140: ff63 1d3d 5585 48bd a75e d73c 73dc 1c3c
00000150: e8ca 98bc 0aba 39bb f80f 713c c6ae 2fbd
00000160: 1405 de3b af39 e03c 0c27 48bd 1b28 6f3c
00000170: c413 3d3c 8efc ac3d 218f 13bd b278 15be
00000180: 2d54 48bd 461d 843c f920 243c 35ef a23d
00000190: 4c55 d0bc bbb3 f7bd ce63 34bc 32d9 8cbc
000001a0: ad22 11bc d715 663d 46e1 febc 5dd5 efbd
000001b0: c69d f2bb 3d5f 85bc 49e0 993b 8acc 463d
000001c0: 0640 a5bc 5e7f bcbd 0015 383a 4ad4 e8bb
000001d0: 7d1b 94bb 0768 043d 5221 c6bc 0682 9bbd
000001e0: 7265 8abc a30e 09bc 1ae1 643c 62a6 603d
000001f0: ab8e 86bc 3589 cabd a954 c0bb 25a2 493c
00000200: bc3f 28bc 201b 243d 3d34 14bd 2d32 e3bd
00000210: 4c92 2fbc 7758 e33a 7792 563b 4f38 163d
00000220: cdef 6abc 6b52 b0bd 39af b4bb ad8a 543c
00000230: 3bd4 f83b 4da9 983d 7ca9 cebc 1568 b8bd
00000240: a617 8ebb f2b8 67bc ee90 85bb fa5e 4d3d
00000250: a836 9cbc 94ae c3bd 4534 7abc 4aa0 77bc
00000260: 6d72 d53a ef70 5d3d 0973 30bc 2217 d6bd
00000270: 3e4e 94bc 9192 cdbc 36b5 c7ba 57b4 6b3d
00000280: 49bc 8fbc 195b d0bd 4c9d 9cbc 79c4 1cbb
00000290: 5a77 873b 897d 8e3d 73c8 cabc c170 0ebe
000002a0: ea60 2cbd 2a1f 1abb 5ed1 e23b 1b35 8f3d
000002b0: 4603 8cbc 665b 09be ac65 b8bc 1722 b93c
000002c0: a455 b33c de30 c03d 7473 58bd e8b9 22be
000002d0: a75c ce3b aa45 68bc ed68 7a3c c711 4ebd
000002e0: c471 f83c 9268 983c d563 a2bb f8da 0a3c
000002f0: 7699 343d 6360 44bd a16c 373d 352e b43c
00000300: a52a 45bc 5bf3 123c a35c 083d 4887 47bd
00000310: 3f79 123d ac61 563b 4b51 683b 6683 e23b
00000320: e7c4 3d3d aebc 50bd 641a 103d b505 e03b
00000330: 9fcf 8cbb 7f35 99bb be5e 373d ef61 8fbd
00000340: 61a1 193d 1b97 72bc 7e98 5bbc c0c6 473c
00000350: 5ab9 613d 7d08 50bd d0d2 303d cb21 92bc
00000360: cc68 54bc f3e7 783c b399 6d3d 5fd0 55bd
00000370: 36c9 473d af83 1cbc e02f 9cbc 4a91 f43b
00000380: dc6a 713d dfe8 7cbd e04d 713d 144a c3bc
00000390: cf01 69bb 976a 9c3c 8d15 993d 4026 66bd
000003a0: a9a3 683d 492c e2bc 4f27 e03a ca0c 223c
000003b0: 0688 913d 9454 5dbd b6f6 6b3d 9100 8ebc
000003c0: 9cf5 5cbc 4509 8f3c 61aa 7b3d 9546 3bbd
000003d0: 74f6 3e3d 00b1 52bc 774a 11bc f349 b4bb
000003e0: 286c 8a3d 82ac 6fbd a83a 2d3d bc73 6dbc
000003f0: bd66 f4bb 226f 873b d69c 973d 7d4d 49bd

fc1.bias f4 [64]
-0.12999369 -0.07867002 -0.12105326 -0.045220017 0.002886875 0.0028646325 -0.037874155 -0.016342709
0.026785081 -0.121103585 -0.008447739 -0.16209945 -0.007247056 -0.06505457 -0.13555707 -0.13582939
-0.0028241694 -0.070774734 -0.0516302 0.045434184 0.005711617 -0.07371885 -0.01939037 -0.007942856
0.0076161483 0.0066384063 -0.15089287 0.017772717 -0.047351476 -0.01385693 -0.109263174 0.0073226467
-0.04512804 0.0043683206 -0.015254578 -0.19383086 -0.07152059 0.02070317 -0.0063427063 -0.16878195
-0.124816015 0.01627115 -0.1340563 -0.12851682 0.0031308888 -0.19446246 -0.16076371 -0.0001445639
-0.010335659 -0.19286683 -0.06043794 -0.071091995 -0.1815184 -0.02478657 0.015763097 -0.053266734
-0.12213023 -0.04259096 -0.032471318 0.020885898 -0.13584493 -0.009677535 -0.010800317 0.012610686
00000000: 111d 05be bf1d a1bd c6ea f7bd a038 39bd
00000010: ba31 3d3b 8fbc 3b3b ee21 1bbd 25e1 85bc
00000020: 636c db3c 2805 f8bd 6368 0abc 66fd 25be
00000030: b678 edbb 553b 85bd 79cf 0abe dc16 0bbe
00000040: b315 39bb 58f2 90bd 307a 53bd 3219 3a3d
00000050: 8428 bb3b e9f9 96bd 8ed8 9ebc c122 02bc
00000060: e290 f93b fd86 d93b a983 1abe 1798 913c
00000070: 9ff3 41bd 2d08 63bc 5fc5 dfbd d0f2 ef3b
00000080: 2ed8 38bd 2124 8f3b 56ee 79bc 997b 46be
00000090: 6379 92bd b299 a93c 7ad6 cfbb 2dd5 2cbe
000000a0: 8a9f ffbd 134b 853c 0e46 09be ea99 03be
000000b0: 992f 4d3b 2b21 47be 3e9f 24be 1496 17b9
000000c0: e556 29bc e27e 45be c68d 77bd ae98 91bd
000000d0: f6df 39be 340d cbbc 9c21 813c 382e 5abd
000000e0: 6a1f fabd dc73 2ebd a500 05bd e718 ab3c
000000f0: ef1a 0bbe 868e 1ebc d0f3 30bc 0d9d 4e3c

fc2.weight f4 [4, 64]
0.23608346 -0.12627314 0.22791544 -0.1556335 -0.103426054 -0.0805519 0.11463676 0.25899586
0.26732525 0.23652352 0.18698871 0.25486347 -0.08260321 0.19255711 0.23095606 0.21606253
-0.12109172 0.1983811 0.08362493 0.013127588 0.27357092 0.07816279 -0.10220691 -0.11039212
-0.08390282 0.23581356 0.26931968 0.2860577 -0.039093 0.26569527 0.27195606 -0.08748869
-0.21019885 -0.1232695 -0.11162427 0.28546646 -0.087202646 -0.10790542 0.02966494 0.29242268
0.23339684 -0.009488743 0.2688983 0.23709871 0.27666584 0.28117177 0.259366 -0.10547841
-0.14322008 0.26952305 0.2578586 -0.11264678 0.26975197 -0.09697677 -0.12350023 0.25926575
0.23474862 -0.078654006 -0.09887564 -0.047562137 0.25895727 -0.11221157 -0.10087374 -0.204226
0.20373416 0.23460832 0.20444301 0.25006664 -0.19281584 -0.17480658 -0.16558489 0.17747706
0.18276723 0.1889124 -0.20719999 -0.020140713 -0.18302026 -0.057826947 0.22216664 -0.111513175
-0.1591745 -0.061844386 -0.18968228 -0.22021304 0.17270274 -0.15070999 0.26966244 0.25911257
-0.15860093 -0.23226401 -0.00417942 0.1850224 -0.111437544 0.17035392 0.19436693 -0.17734759
0.2232855 0.021329224 0.25615788 0.1800464 0.29764208 -0.16377157 -0.2439019 -0.020499991
0.25457776 -0.24685234 0.20324525 0.19755277 0.15395619 0.19409591 0.008723953 -0.1669086
0.27680117 0.1699996 0.18953197 0.2621874 0.17603147 -0.033548016 -0.09766055 0.19139576
0.1743822 0.24240191 0.2671654 -0.20430489 0.15235998 0.25676504 0.26336253 0.19886094
-0.17387688 0.3369363 -0.17316747 0.21247259 -0.10775914 -0.12309702 0.29457134 -0.3248945
-0.34581122 -0.15763111 0.30486682 0.089361034 -0.1094894 0.36241877 -0.17561737 0.21359447
-0.11592811 0.36141202 0.30664387 -0.111111164 -0.32336104 0.30372575 0.21955423 0.23752916
-0.11204587 0.29729897 0.0929628 -0.3457594 0.3020084 -0.30736253 -0.2729903 -0.11242549
0.26406774 0.24172565 0.24642462 -0.2156197 0.03398871 -0.1183338 -0.1333216 0.02610977
-0.2024147 -0.113371156 -0.25620854 -0.19020575 -0.32054776 -0.24570109 0.060274225 -0.111833714
0.07503835 -0.21579216 -0.27976316 0.32936913 -0.23344754 0.29974636 -0.15744737 -0.2991005
-0.16576988 0.28941396 0.2854433 -0.12330811 -0.16730197 0.25055215 0.2535389 0.2844198
-0.055867784 -0.17497738 -0.049105573 -0.083297044 0.6043022 0.5967158 0.002100043 0.12694587
0.15515104 -0.06065248 -0.037364714 -0.1535774 0.57517356 -0.16590133 -0.07837858 -0.12646687
0.61393076 -0.16528769 0.021269152 0.53815347 0.12866585 -0.002602169 -0.056788724 -0.06459972
0.55214715 -0.04380926 -0.13986176 0.16197632 0.047026444 0.108493015 0.020618469 0.5822444
-0.05809237 0.048566375 -0.06487156 -0.06341745 -0.09392177 0.5947234 0.56697965 -0.16105886
-0.12111138 0.57836133 -0.007023984 -0.045840967 0.13730805 -0.049806915 -0.14916797 0.59289354
-0.036136854 -0.06341172 0.048177414 -0.14460115 -0.054204766 0.068379074 0.5891276 0.06942208
-0.053489972 -0.14016059 -0.092967555 0.5713477 -0.055963635 -0.06616179 -0.07545946 -0.026453864
00000000: ddbf 713e bf4d 01be aa62 693e 635e 1fbe
00000010: 0ad1 d3bd 65f8 a4bd adc6 ea3d 1b9b 843e
00000020: dbde 883e 3933 723e f879 3f3e 777d 823e
00000030: df2b a9bd b12d 453e bf7f 6c3e 7f3f 5d3e
00000040: f0fe f7bd 6a24 4b3e 8c43 ab3d 1815 573c
00000050: 7d11 8c3e d013 a03d db51 d1bd 4415 e2bd
00000060: 3ed5 abbd 1c79 713e 45e4 893e 2876 923e
00000070: fb1f 20bd 3609 883e d33d 8b3e 452d b3bd
00000080: 5e3e 57be b874 fcbd 449b e4bd a928 923e
00000090: 4d97 b2bd 84fd dcbd e303 f33c 6db8 953e
000000a0: 95ff 6e3e ac76 1bbc 0aad 893e 01ca 723e
000000b0: 25a7 8d3e bff5 8f3e 9fcb 843e 1105 d8bd
000000c0: 49a8 12be edfe 893e 0b06 843e 5bb3 e6bd
000000d0: ee1c 8a3e c29b c6bd b0ed fcbd 7bbe 843e
000000e0: f161 703e 5a15 a1bd 507f cabd 84d0 42bd
000000f0: 0c96 843e 2ecf e5bd e496 cebd 9f20 51be
00000100: b09f 503e 2a3d 703e 8259 513e bc08 803e
00000110: 8471 45be 7f00 33be 168f 29be 8cbc 353e
00000120: 5527 3b3e 4172 413e 3c2c 54be 23fe a4bc
00000130: aa69 3bbe f3db 6cbd a77f 633e 0561 e4bd
00000140: a4fe 22be 8a50 7dbd 123c 42be 877f 61be
00000150: fdd8 303e b853 1abe 3211 8a3e 67aa 843e
00000160: 4868 22be 9ed6 6dbe 84f3 88bb 8376 3d3e
00000170: 5e39 e4bd 4271 2e3e 2008 473e 9b9a 35be
00000180: f4a4 643e a0ba ae3c 2027 833e 155e 383e
00000190: 8b64 983e bcb3 27be 6bc1 79be 99ef a7bc
000001a0: 0458 823e dcc6 7cbe 861f 503e 464b 4a3e
000001b0: b1a6 1d3e 14c1 463e e9ee 0e3c 17ea 2abe
000001c0: e2b8 8d3e 6014 2e3e ab14 423e 6d3d 863e
000001d0: 9841 343e a569 09bd 4102 c8bd 40fd 433e
000001e0: 3f91 323e 3538 783e e7c9 883e 4d35 51be
000001f0: 4104 1c3e b576 833e 74d7 863e 34a2 4b3e
00000200: c80c 32be ea82 ac3e d052 31be 6a92 593e
00000210: d3b0 dcbd 4a1a fcbd 0ed2 963e 9258 a6be
00000220: 2b0e b1be 0d6a 21be 8117 9c3e eb02 b73d
00000230: fb3b e0bd f48e b93e 0ad5 33be 82b8 5a3e
00000240: b86b edbd ff0a b93e 6d00 9d3e 408e e3bd
00000250: 948f a5be f181 9b3e d3d2 603e d83a 733e
00000260: 4e78 e5bd 9237 983e 4863 be3d 6007 b1be
00000270: d8a0 9a3e 9f5e 9dbe 62c5 8bbe 563f e6bd
00000280: e333 873e ee86 773e bc56 7c3e 69cb 5cbe
00000290: bf37 0b3d fe58 f2bd 7585 08be 28e4 d53c
000002a0: cd45 4fbe 232f e8bd c42d 83be 4cc5 42be
000002b0: d61e a4be 1199 7bbe 1be2 763d 1309 e5bd
000002c0: b5ad 993d 9ff8 5cbe 1e3d 8fbe 12a3 a83e
000002d0: df0c 6fbe 5b78 993e e239 21be b323 99be
000002e0: 94bf 29be 112e 943e a025 923e f688 fcbd
000002f0: 3551 2bbe 5f48 803e dacf 813e 799f 913e
00000300: 9ed5 64bd 452d 33be ed22 49bd a497 aabd
00000310: 8db3 1a3f 5ec2 183f e0a0 093b 19fe 013e
00000320: eadf 1e3e bc6e 78bd be0b 19bd 6543 1dbe
00000330: 933e 133f 0ae2 29be f384 a0bd 8880 01be
00000340: 912a 1d3f 2d41 29be a53c ae3c 6dc4 093f
00000350: fbc0 033e 2789 2abb 4b9b 68bd dc4c 84bd
00000360: 8459 0d3f 5771 33bd ec37 0fbe 1fdd 253e
00000370: cd9e 403d 9631 de3d 10e8 a83c f80d 153f
00000380: 44f2 6dbd 89ed 463d 61db 84bd 02e1 81bd
00000390: 0f5a c0bd cb3f 183f 9425 113f 9dec 24be
000003a0: 3e09 f8bd 7d0f 143f 7329 e6bb bdc3 3bbd
000003b0: 7b9a 0c3e 5602 4cbd 7dbf 18be dfc7 173f
000003c0: 3d04 14bd 01de 81bd ae55 453d 5312 14be
000003d0: d105 5ebd 540a 8c3d 11d1 163f 2a2d 8e3d
000003e0: 4d18 5bbd 4286 0fbe c665 bebd d843 123f
000003f0: 203a 65bd d57f 87bd 7d8a 9abd c6b5 d8bc

fc2.bias f4 [4]
-0.44564915 0.09409923 0.37730414 1.1407565
00000000: 202c e4be 19b7 c03d 022e c13e 4f04 923f
