MediaPipe_Operation/model_4class/gesture_classifier6.pth (torch, 62400 bytes, 6 tensors)

fc1.weight f4 [76, 150]
-0.05695228 -0.01313821 0.003452934 -0.03248507 -0.06360294 0.016010059 -0.04078861 0.00942756
0.006860893 -0.026209217 -0.056600366 0.016236616 -0.036841355 0.007525074 0.013350208 -0.024768861
-0.040648438 0.0072636954 -0.032836396 0.010958261 0.017979154 -0.0023547793 -0.033671223 0.009779946
-0.032612327 0.003492707 0.028725252 -0.019489145 -0.021708054 0.004192271 -0.0295503 0.012911006
0.028209385 -0.013753095 -0.014421783 -0.0023357363 -0.031033855 0.013282393 0.032573987 0.003168617
-0.010401712 -0.0048669637 -0.027688969 0.01689963 0.030406564 -0.0014959284 -0.008375833 0.011271851
-0.026075145 0.021238009 0.028474223 -0.005720203 -0.006349759 0.017101455 -0.024180267 0.01928176
0.026230793 -0.02204755 -0.0039763576 0.019843645 -0.02227649 0.016986413 0.02614001 -0.024715547
-0.0067007057 0.017413866 -0.020372838 0.019704655 0.02242351 -0.028007066 -0.005180124 0.016094645
-0.019351607 0.01914474 0.017911885 -0.057303675 -0.020062454 0.005219639 -0.019770917 0.02060885
0.022227978 -0.025826575 -0.016232535 0.018306976 -0.022169115 0.020165224 0.02362789 -0.013449698
-0.020171242 0.01884844 -0.02245725 0.023543488 0.02288228 -0.015726602 -0.017887617 0.02315081
-0.02171284 0.022457229 0.02524318 -0.0072863973 -0.016681138 0.017183201 -0.025665471 0.021123232
0.026601905 0.0034320103 -0.012372296 0.009416009 -0.029423544 0.018040737 0.027054774 0.0078065265
-0.011195753 -0.0056640636 -0.029731976 0.01667304 0.018918453 -0.020839784 -0.009631806 -0.0053690644
-0.031609114 0.009555904 0.017788282 -0.020290947 -0.009872554 -0.0006385081 -0.032858595 0.014098444
0.009552243 -0.0061300965 -0.021371435 0.0057093566 -0.03748943 0.016715627 0.004975861 -0.022947788
-0.032080766 -0.0013260545 -0.042444777 0.016605308 0.0005061002 -0.019580806 -0.05223502 0.008634594
-0.05606961 0.0016023668 -0.0033680866 -0.02179177 -0.06388456 0.0064032082 -0.0353018 0.021920592
-0.10852751 0.0031006327 -0.013159592 0.01190052 -0.031251196 0.003637792 -0.09288204 -0.001206913
0.003127182 0.006608123 -0.027232818 0.00063544995 -0.081704624 -0.00083844236 0.010360732 0.001419305
-0.019736912 0.0067001814 -0.065968946 -0.00288036 0.026160311 -0.008618941 -0.0081758285 0.007729002
-0.04796106 0.0008728702 0.038995557 -0.019010238 -0.00351067 0.0006242914 -0.0360627 -0.016137592
0.044158757 -0.021664606 0.0010145137 0.0036200185 -0.03771999 -0.024766846 0.03926081 -0.022308197
0.005829537 0.00076789333 -0.037314102 -0.03669353 0.0456608 -0.038391106 0.01650026 -0.007916298
-0.030436475 -0.037814908 0.047005717 -0.037865642 0.02182497 -0.009493356 -0.028943254 -0.02787497
0.042239856 -0.040199395 0.020734277 -0.011425689 -0.026182657 -0.013834682 0.04272286 -0.03737147
0.020579956 -0.013099566 -0.02546628 0.002868516 0.04195415 -0.035042513 0.019764395 -0.011578253
-0.018109081 0.01685084 0.04923932 -0.03550878 0.018334227 -0.009442355 -0.015570144 0.012261169
0.05089693 -0.04557135 0.020248367 -0.0062508243 -0.0124681005 -0.0068359603 0.052962806 -0.049305256
0.02183123 -0.0051600747 -0.015419145 -0.013074968 0.055130497 -0.048529703 0.016642746 -0.0029630722
-0.017824855 -0.01777752 0.056823213 -0.040459663 0.0067339814 0.0042232955 -0.025128745 -0.018431107
00000000: cb46 69bd a641 57bc 9f4a 623b 110f 05bd
00000010: 4242 82bd 8727 833c f511 27bd 0d76 1a3c
00000020: 58d1 e03b b6b4 d6bc c9d5 67bd a702 853c
00000030: f6e6 16bd e594 f63b d5ba 5a3c 11e8 cabc
00000040: fa7e 26bd 4b04 ee3b 757f 06bd 478a 333c
00000050: 0549 933c a452 1abb d6ea 09bd 113c 203c
00000060: 8194 05bd e6e5 643b 3851 eb3c b3a7 9fbc
00000070: 17d5 b1bc 515f 893b 7913 f2bc af88 533c
00000080: 5e17 e73c a954 61bc 5849 6cbc 2713 19bb
00000090: b63a febc 659e 593c 4d6c 053d 92a8 4f3b
000000a0: f16b 2abc 0d7b 9fbb fad3 e2bc 1871 8a3c
000000b0: 3017 f93c 0713 c4ba ca3a 09bc 92ad 383c
000000c0: 8b9b d5bc 55fb ad3c c642 e93c 8a70 bbbb
000000d0: a411 d0bb 5a18 8c3c b215 c6bc c8f4 9d3c
000000e0: f6e1 d63c 109d b4bc 1b4c 82bb 248f a23c
000000f0: 307d b6bc 1727 8b3c 9323 d63c 4278 cabc
00000100: 9891 dbbb 86a7 8e3c f0e4 a6bc a86b a13c
00000110: 82b1 b73c 136f e5bc 08be a9bb ebd8 833c
00000120: 4387 9ebc 6ed5 9c3c f2bb 923c 42b7 6abd
00000130: 045a a4bc 8109 ab3b 9ef6 a1bc e4d3 a83c
00000140: 7317 b63c 4192 d3bc 18fa 84bc 83f8 953c
00000150: 019c b5bc 8a31 a53c 478f c13c 1f5c 5cbc
00000160: 293e a5bc 0b68 9a3c 44f8 b7bc 46de c03c
00000170: 9f73 bb3c 13d5 80bc 0d89 92bc c4a6 bd3c
00000180: 20df b1bc 39f8 b73c c9ca ce3c bbc2 eebb
00000190: e2a6 88bc c9c3 8c3c 6540 d2bc a10a ad3c
000001a0: 3dec d93c 94eb 603b 2cb5 4abc 9b45 1a3c
000001b0: a509 f1bc 2bca 933c f9a1 dd3c e4cd ff3b
000001c0: 646e 37bc 9c99 b9bb 7990 f3bc e695 883c
000001d0: dffa 9a3c 32b8 aabc b9ce 1dbc faee afbb
000001e0: 8f78 01bd 5e90 1c3c bbb8 913c 3339 a6bc
000001f0: 7ec0 21bc 8e61 27ba bc96 06bd 29fd 663c
00000200: 0381 1c3c fade c8bb 2613 afbc 8e15 bb3b
00000210: 848e 19bd 36ef 883c 8c0c a33b 00fd bbbc
00000220: 1f67 03bd 01cf adba 93da 2dbd db07 883c
00000230: cfab 043a ed67 a0bc 63f4 55bd 1d78 0d3c
00000240: 3fa9 65bd 8206 d23a 1ebb 5cbb a784 b2bc
00000250: e8d5 82bd 01d2 d13b 9f98 10bd d092 b33c
00000260: ac43 debd fc33 4b3b 549b 57bc 66fa 423c
00000270: 4101 00bd 0668 6e3b f038 bebd 4831 9eba
00000280: 68f1 4c3b f488 d83b 5c17 dfbc 5394 263a
00000290: c154 a7bd eaca 5bba 0fc0 293c f907 ba3a
000002a0: 4eaf a1bc 328d db3b ba1a 87bd 6cc4 3cbb
000002b0: 264e d63c 7536 0dbc e9f3 05bc 9143 fd3b
000002c0: d172 44bd 54d1 643a ceb9 1f3d 5cbb 9bbc
000002d0: 4513 66bb 7da7 233a 7bb6 13bd fc32 84bc
000002e0: d0df 343d f979 b1bc 6ef9 843a d53d 6d3b
000002f0: 4780 1abd d7e3 cabc f1cf 203d aebf b6bc
00000300: b305 bf3b 734c 493a acd6 18bd f44b 16bd
00000310: d206 3b3d fe3f 1dbd 8e2b 873c 5cb3 01bc
00000320: ea55 f9bc cee3 1abd 1189 403d 0119 1bbd
00000330: 48ca b23c 058a 1bbc 671a edbc 0d5a e4bc
00000340: b303 2d3d 1fa8 24bd eeda a93c d032 3bbc
00000350: 037d d6bc ddaa 62bc 2afe 2e3d d412 19bd
00000360: 4c97 a83c 909f 56bc a99e d0bc b6fd 3b3b
00000370: 1dd8 2b3d bd88 0fbd f1e8 a13c b6b2 3dbc
00000380: 7f59 94bc c60a 8a3c 2baf 493d a871 11bd
00000390: a931 963c 1bb4 1abc eb19 7fbc 12e3 483c
000003a0: 4d79 503d 06a9 3abd e7df a53c b7d3 ccbb
000003b0: 0147 4cbc 3100 e0bb 87ef 583d 4ff4 49bd
000003c0: 68d7 b23c d815 a9bb 95a0 7cbc 6438 56bc
000003d0: 84d0 613d 15c7 46bd 5e56 883c 1a30 42bb
000003e0: 6e05 92bc 29a2 91bc 75bf 683d 08b9 25bd
000003f0: bba8 dc3b 9263 8a3b ccda cdbc d5fc 96bc

fc1.bias f4 [76]
-0.06866868 0.04521541 -0.032294203 -0.044074953 -0.073533304 -0.0026028974 0.0074293315 -0.06846167
-0.026870705 0.046242107 0.05412556 -0.12629595 -0.14754747 -0.09966559 -0.044527993 0.10333458
-0.15708525 -0.0032239894 -0.038658246 -0.027418746 0.08273409 0.02903821 -0.04423286 -0.10094582
-0.07473355 0.14462127 0.070911154 -0.033254143 0.0120264925 0.025740735 -0.14200436 -0.07376629
-0.048697006 0.0012499357 -0.0026893166 0.124890245 -0.0013330753 -0.013003356 0.00440638 -0.0209982
-0.0029194911 0.0883044 -0.13145909 -0.028514544 -0.048251268 -0.07028377 -0.00059978606 -0.08960714
-0.0014139905 0.0016874775 -0.023613831 -0.035900082 0.043665037 -0.0023076315 0.1409998 -0.0043127714
-0.16394973 -0.10255644 0.081023365 -0.005503516 -0.061217234 -0.017185627 -0.016586214 -0.0038435098
-0.0817253 -0.026641041 -0.03907314 -0.071071334 0.0017276071 -0.03096652 0.102820106 0.007517836
-0.041881137 -0.067612395 0.010459433 -0.06805936
00000000: 2aa2 8cbd cb33 393d ed46 04bd f087 34bd
00000010: a198 96bd 5f95 2abb c071 f33b a235 8cbd
00000020: f41f dcbc 5d68 3d3d c3b2 5d3d ba53 01be
00000030: af16 17be 791d ccbd fc62 36bd 15a1 d33d
00000040: f5da 20be 9149 53bb 1c58 1ebd 479d e0bc
00000050: 7e70 a93d 8ae1 ed3c 842d 35bd afbc cebd
00000060: e70d 99bd 9917 143e de39 913d 7f35 08bd
00000070: c40a 453c 3cde d23c 9769 11be c812 97bd
00000080: 8376 47bd e2d4 a33a 3f3f 30bb 75c6 ff3d
00000090: 96ba aeba 070c 55bc 6563 903b 6b04 acbc
000000a0: ef54 3fbb f0d8 b43d 369d 06be 5597 e9bc
000000b0: 1fa3 45bd f0f0 8fbd f63a 1dba f383 b7bd
000000c0: a655 b9ba 592e dd3a cb71 c1bc f70b 13bd
000000d0: 1cda 323d a23b 17bb 4062 103e 2652 8dbb
000000e0: 70e2 27be 1c09 d2bd 94ef a53d d756 b4bb
000000f0: ecbe 7abd dfc8 8cbc d0df 87bc 65e3 7bbb
00000100: 985f a7bd 503e dabc 280b 20bd d98d 91bd
00000110: e070 e23a 80ad fdbc 5993 d23d 2e58 f63b
00000120: 8e8b 2bbd 5e78 8abd 0b5e 2b3c b562 8bbd

fc2.weight f4 [43, 76]
-0.06449147 0.11256704 -0.077335276 0.015196277 -0.04255548 0.026965039 -0.07052595 -0.06825544
-0.048342597 0.12301105 -0.023501921 0.00596469 -0.060625244 -0.07417421 -0.045806438 0.0050714817
-0.065696046 0.081800215 -0.056254283 -0.052499916 0.07263804 0.015717592 -0.066157304 -0.01820082
0.109074004 0.0033304961 0.022130365 -0.041751996 -0.011038745 0.019243887 -0.06347557 -0.06596759
-0.07109618 -0.010340826 0.02252652 0.040613025 0.02085136 -0.059248153 -0.0066065453 -0.043576725
-0.04408525 0.043243535 -0.057794742 -0.050124303 0.014157288 -0.064643785 0.01676442 -0.073393576
0.030448243 0.057590287 -0.07256117 -0.05250123 0.028545348 -0.0043707155 0.019514924 0.0567705
-0.06820117 -0.007384726 -0.010692896 -0.01887709 -0.070122376 -0.04380681 -0.04174231 0.048044674
-0.068059795 -0.031219298 -0.048073392 -0.08225297 0.052279163 -0.04959172 0.00038110526 -0.0007275538
-0.061231855 -0.056709632 0.05163037 -0.058560234 0.018701363 -0.011813601 0.06101706 0.01954325
0.039641686 0.009612675 -0.013619343 0.013685936 0.040200617 -0.017172664 -0.038902525 0.065312214
0.09029785 0.04472585 0.038036793 -0.046451952 0.09137273 0.003026047 -0.022823941 -0.0014500028
-0.029179288 -0.068073854 -0.019198665 0.054145098 0.041695323 -0.07077026 -0.046785936 0.02612791
-0.0048119365 -0.0077663837 0.08820003 0.019004444 0.030076 0.017679216 0.061381057 -0.05975803
0.058114704 0.046171978 -0.005205749 0.03654456 0.08890446 -0.056059975 0.089592576 0.027754623
0.019075982 0.038180195 0.0011555406 0.022514123 0.00021982152 0.0061126747 0.045346722 -0.011327808
-0.00900643 0.016491575 -0.07203531 0.0036774587 0.09655507 0.069470435 -0.05329985 0.08178901
0.030694092 0.0026738592 -0.0027804016 0.00053088064 0.022110991 0.02648438 0.0438183 0.07227008
-0.0018504456 -0.017130552 -0.057032153 0.018098483 0.03638651 0.033495605 -0.031754043 0.040972464
0.019321728 -0.0049274294 0.06500573 0.036648944 0.04254655 0.005417641 -0.01798097 0.014330794
0.041500144 -0.014507699 -0.038206253 0.07135587 0.088108815 0.054501332 0.03854552 -0.04195749
0.095146425 0.0049935705 -0.023736686 0.0008851634 -0.023685945 -0.07114465 -0.02142299 0.055501815
0.040791918 -0.06806414 -0.040404048 0.02625148 0.00018397479 -0.0077926335 0.088670276 0.017638747
0.04949759 0.019514836 0.05575258 -0.056574963 0.049134318 0.049587183 -0.006589651 0.035449903
0.0759011 -0.056101467 0.08854816 0.03975476 0.036205597 0.052717846 -0.001883171 0.02066013
0.0013494698 -0.0056858975 0.050314885 -0.016268995 -0.0040773693 0.018427506 -0.067278184 -0.005912197
0.09620608 0.0674 -0.050693117 0.07302234 0.035726745 0.0021465772 -0.002670133 -0.000768235
0.022004358 0.032255188 0.046010133 0.08006256 -0.0062278295 -0.019523604 -0.056296524 0.021352036
0.04284373 0.049336784 -0.022253243 0.039863784 -0.07245214 0.152052 -0.06749389 0.04700546
-0.03430218 0.02029524 -0.09020398 -0.06803439 -0.033509858 0.15532376 -0.033627313 0.02113299
-0.04963179 -0.05901852 -0.03835069 0.0023946888 -0.04547883 0.0641408 -0.0586458 -0.048175007
0.08198727 0.016336158 -0.07399493 -0.007351085 0.10934568 -0.0071013737 0.029653084 -0.04500297
00000000: 1b14 84bd 8c89 e63d f561 9ebd cef9 783c
00000010: a84e 2ebd c9e5 dc3c e96f 90bd 82c9 8bbd
00000020: e302 46bd 38ed fb3d 1a87 c0bc 7273 c33b
00000030: 2d52 78bd a6e8 97bd 889f 3bbd ac2e a63b
00000040: a68b 86bd df86 a73d e46a 66bd 270a 57bd
00000050: 41c3 943d 2ec2 803c 7b7d 87bd e319 95bc
00000060: 3162 df3d 7444 5a3b bd4a b53c 2404 2bbd
00000070: dadb 34bc 5ba5 9d3c 7bff 81bd 041a 87bd
00000080: e09a 91bd 916c 29bc 8989 b83c d859 263d
00000090: 79d0 aa3c 31ae 72bd b87b d8bb 827d 32bd
000000a0: bc92 34bd 2220 313d 2eba 6cbd 244f 4dbd
000000b0: f8f3 673c f663 84bd 8955 893c 5f4f 96bd
000000c0: 986e f93c cbe3 6b3d f39a 94bd 880b 57bd
000000d0: efd7 e93c 3838 8fbb c3dd 9f3c 2f88 683d
000000e0: 0ead 8bbd 92fb f1bb 4231 2fbc 21a4 9abc
000000f0: 529c 8fbd c56e 33bd fcf9 2abd 7eca 443d
00000100: ef62 8bbd 9dbf ffbc 9be8 44bd 3f74 a8bd
00000110: ad22 563d b020 4bbd 15cf c739 4fb9 3eba
00000120: 41ce 7abd 5c48 68bd 5e7a 533d dbdc 6fbd
00000130: 9a33 993c d58d 41bc 06ed 793d 2a19 a03c
00000140: 525f 223d 7b7e 1d3c aa23 5fbc fa3a 603c
00000150: 67a9 243d b0ad 8cbc 4158 1fbd 69c2 853d
00000160: 14ee b83d 7432 373d 78cc 1b3d 6744 3ebd
00000170: a021 bb3d a550 463b 46f9 babc 050e beba
00000180: 6709 efbc 4e6a 8bbd 8546 9dbc 40c7 5d3d
00000190: b7c8 2a3d 00f0 90bd 9ca2 3fbd 330a d63c
000001a0: 73ad 9dbb 267d febb 38a2 b43d 35af 9b3c
000001b0: f261 f63c 01d4 903c b46a 7b3d d6c4 74bd
000001c0: af09 6e3d d41e 3d3d fd94 aabb c0af 153d
000001d0: 8b13 b63d 259f 65bd 507c b73d aa5d e33c
000001e0: 3c45 9c3c d662 1c3d 8275 973a 8a6f b83c
000001f0: e47f 6639 d54c c83b 7cbd 393d 4598 39bc
00000200: b58f 13bc 5719 873c 4087 93bd 8501 713b
00000210: aabe c53d 8446 8e3d f250 5abd ff80 a73d
00000220: 2d72 fb3c ea3b 2f3b 6637 36bb cc2a 0b3a
00000230: 1c22 b53c c5f5 d83c d17a 333d 5602 943d
00000240: a78a f2ba 5f55 8cbc 8c9a 69bd 4543 943c
00000250: 050a 153d b032 093d 8710 02bd bed2 273d
00000260: 9a48 9e3c 4676 a1bb b921 853d 341d 163d
00000270: 4b45 2e3d 7786 b13b d44c 93bc b5cb 6a3c
00000280: 0efc 293d b3b1 6dbc 297e 1cbd 0723 923d
00000290: 6572 b43d ca3c 5f3d e8e1 1d3d 9edb 2bbd
000002a0: 21dc c23d 1ba1 a33b 7073 c2bc 4f0a 683a
000002b0: 0709 c2bc 49b4 91bd 447f afbc df55 633d
000002c0: 6d15 273d 3665 8bbd b77e 25bd 580d d73c
000002d0: 5be9 4039 5959 ffbb c398 b53d 227f 903c
000002e0: fcbd 4a3d 94dd 9f3c d15c 643d 26bb 67bd
000002f0: 1141 493d ee1b 4b3d 00ee d7bb eb33 113d
00000300: 0972 9b3d a7ca 65bd bd58 b53d e3d5 223d
00000310: 524c 143d abee 573d bcd4 f6ba 6f3f a93c
00000320: b1e0 b03a c450 babb fb16 4e3d 8e46 85bc
00000330: 749b 85bb 48f5 963c 25c9 89bd 1abb c1bb
00000340: b107 c53d 0309 8a3d 96a3 4fbd bd8c 953d
00000350: 3556 123d 97ad 0c3b 66fd 2ebb 6163 49ba
00000360: 7c42 b43c 041e 043d 1f75 3c3d d7f7 a33d
00000370: d212 ccbb f7ef 9fbc 2f97 66bd 77ea ae3c
00000380: e87c 2f3d 5e15 4a3d 6f4c b6bc 3548 233d
00000390: ca61 94bd 85b3 1b3e 3d3a 8abd cc88 403d
000003a0: 7180 0cbd 3442 a63c ddbc b8bd 9d55 8bbd
000003b0: a241 09bd 310d 1f3e cbbc 09bd 181f ad3c
000003c0: b44a 4bbd 67bd 71bd 9d15 1dbd 36f0 1c3b
000003d0: 0248 3abd 405c 833d 9436 70bd 2853 45bd
000003e0: f1e8 a73d 68d3 853c a78a 97bd 5fe1 f0bb
000003f0: a1f0 df3d a4b2 e8bb 06eb f23c 0955 38bd

fc2.bias f4 [43]
0.12916948 -0.095725484 -0.08312785 0.1783752 -0.08383854 -0.09114228 0.111280054 -0.083871536
0.21431254 0.0066663036 -0.09593993 -0.09205967 0.0066375816 -0.08577296 0.2162202 -0.09316648
0.115535185 0.15477653 -0.08934254 0.118800044 0.13131703 0.2107654 0.11853435 0.005592039
0.1084174 0.006818472 0.0069676717 -0.09199807 0.13550211 -0.0930644 0.10966767 0.117999405
-0.09664854 0.11772333 0.11415197 0.0046967035 0.006319987 0.20967247 0.005549721 0.17383108
0.08135112 -0.09709097 0.11834775
00000000: 0145 043e b90b c4bd ef3e aabd fda7 363e
00000010: 8ab3 abbd cea8 babd cce6 e33d d7c4 abbd
00000020: bf74 5b3e 0271 da3b 277c c4bd c889 bcbd
00000030: 1280 d93b bca9 afbd d468 5d3e 11ce bebd
00000040: b69d ec3d bd7d 1e3e 39f9 b6bd 704d f33d
00000050: f977 063e e3d2 573e 23c2 f23d 6c3d b73b
00000060: f109 de3d 7d6d df3b 1151 e43b 7c69 bcbd
00000070: 11c1 0a3e 8c98 bebd 7299 e03d aca9 f13d
00000080: abef c5bd ee18 f13d 82c8 e93d cee6 993b
00000090: e517 cf3b 61b4 563e 6fda b53b c600 323e
000000a0: 6a9b a63d a1d7 c6bd 4e60 f23d

fc3.weight f4 [4, 43]
-0.13364333 0.25452784 0.2278794 -0.1077311 0.229354 0.24403736 -0.14549132 0.22789891
-0.4570032 0.23046131 0.24767305 0.24303834 0.22505207 0.24579047 -0.45481268 0.24053584
-0.14435776 -0.1053151 0.2343799 -0.14385585 -0.08277474 -0.45384482 -0.15118074 0.22688752
-0.15549742 0.2234853 0.22365452 0.24795693 -0.088224664 0.24818465 -0.1479069 -0.13697077
0.24627042 -0.1469384 -0.14294231 0.23263758 0.2355727 -0.4509699 0.2253879 -0.106381014
0.16610396 0.24618523 -0.14892766 0.3574994 -0.21474527 -0.22250712 0.30821216 -0.21252088
-0.21657899 -0.36221206 -0.21390708 0.11363841 0.23347689 -0.21942893 -0.22080293 0.23423323
-0.22112367 0.11743061 -0.22190498 -0.3656011 0.33092585 -0.21046744 -0.35993367 -0.06673767
0.13263172 -0.36085492 0.23693793 -0.35778955 0.23387712 0.23647243 -0.22086774 -0.06716003
-0.21691433 -0.3564246 -0.36310628 -0.22023413 -0.35801354 -0.36183232 0.2352881 0.24029867
0.124764405 0.23352206 0.3190178 0.17395897 -0.21603963 -0.35892358 -0.26669806 -0.16219805
-0.16573589 -0.3310016 -0.16897647 -0.1652504 0.21826994 -0.1635614 0.15337251 0.15643075
-0.16354617 -0.16419207 0.15631892 -0.16418503 0.15649842 -0.1609136 0.20584403 -0.31084186
-0.17192551 0.20907848 -0.4052249 0.14560033 0.21938911 0.15293671 0.20378405 0.15362675
0.15001729 -0.15651192 -0.4098198 -0.16043156 0.2100469 0.21384178 -0.16200574 0.21016456
0.21367054 0.15522839 0.15872273 0.15415907 0.14888664 -0.3311092 -0.48237574 -0.17070802
0.21518858 0.04562682 0.11121069 0.14240386 0.12694073 0.122523844 0.12383126 0.24213378
0.13018295 0.1483054 -0.7364473 0.11570224 0.12100461 -0.7342304 0.1205876 0.13962495
0.12492013 0.24766812 0.08397818 0.12199656 0.24973577 0.5530757 0.1377003 0.25354546
-0.7280114 0.22900864 -0.7244872 -0.7243535 0.11478617 0.5617032 0.11439852 0.24533413
0.24429975 0.110435985 0.24502166 0.2437456 -0.7306626 -0.72503024 0.14937891 -0.7310389
0.11411114 0.12507579 0.11220782 0.247874
00000000: ccd9 08be 7951 823e 3859 693e 1fa2 dcbd
00000010: c6db 6a3e eee4 793e adfb 14be 555e 693e
00000020: 53fc e9be 0dfe 6b3e 019e 7d3e 0bdf 783e
00000030: 0d74 663e 7fb0 7b3e 35dd e8be 074f 763e
00000040: 85d2 13be 71af d7bd 4901 703e f34e 13be
00000050: ce85 a9bd 595e e8be 20cf 1abe 3455 683e
00000060: b73a 1fbe 55d9 643e b105 653e 6ce8 7d3e
00000070: 22af b4bd 1e24 7e3e e874 17be 1142 0cbe
00000080: 502e 7c3e 0577 16be 785f 12be 8c38 6e3e
00000090: f839 713e 87e5 e6be 16cc 663e 4ade d9bd
000000a0: 2817 2a3e fb17 7c3e 7e80 18be 290a b73e
000000b0: 2fe6 5bbe e8d8 63be fccd 9d3e 139f 59be
000000c0: e2c6 5dbe dc73 b9be 750a 5bbe 41bb e83d
000000d0: 9114 6f3e fab1 60be 2a1a 62be d6da 6f3e
000000e0: 3e6e 62be 767f f03d 0f3b 63be 1130 bbbe
000000f0: 1d6f a93e c784 57be 3a49 b8be c2ad 88bd
00000100: 9cd0 073e fac1 b8be db9f 723e 3130 b7be
00000110: 7c7d 6f3e d425 723e 272b 62be 338b 89bd
00000120: ca1e 5ebe 497d b6be 11e9 b9be 0e85 61be
00000130: 8d4d b7be 1642 b9be 5def 703e db10 763e
00000140: 7b84 ff3d 6820 6f3e 4d56 a33e 4d22 323e
00000150: 7e39 5dbe d5c4 b7be a68c 88be 3f17 26be
00000160: abb6 29be 0b79 a9be 2b08 2dbe 6737 29be
00000170: 2882 5f3e a47c 27be af0d 1d3e 622f 203e
00000180: a678 27be f721 28be 1112 203e 1f20 28be
00000190: 1f41 203e 89c6 24be c7c8 523e aa26 9fbe
000001a0: 3e0d 30be ab18 563e a379 cfbe 4118 153e
000001b0: 8aa7 603e 719b 1c3e c4ac 503e 5550 1d3e
000001c0: 229e 193e a944 20be e7d3 d1be 2c48 24be
000001d0: 8916 573e 57f9 5a3e d5e4 25be 6135 573e
000001e0: 73cc 5a3e 31f4 1e3e 3688 223e e0db 1d3e
000001f0: bd75 183e 2587 a9be f4f9 f6be 15ce 2ebe
00000200: 655a 5c3e 30e3 3a3d 6ec2 e33d 51d2 113e
00000210: c0fc 013e c8ed fa3d 3e9b fd3d ebf1 773e
00000220: ae4e 053e 5fdd 173e cf87 3cbf 4cf5 ec3d
00000230: 44d1 f73d 86f6 3bbf a2f6 f63d d8f9 0e3e
00000240: 20d6 ff3d b69c 7d3e c1fc ab3d 55d9 f93d
00000250: bcba 7f3e 5e96 0d3f 4f01 0d3e b6d0 813e
00000260: f55e 3abf 3e81 6a3e fe77 39bf 3b6f 39bf
00000270: 0315 eb3d c8cb 0f3f c549 ea3d df38 7b3e
00000280: b729 7a3e 432c e23d f5e6 7a3e 7298 793e
00000290: b40c 3bbf 959b 39bf c9f6 183e 5e25 3bbf
000002a0: 1ab3 e93d de13 003e 37cd e53d afd2 7d3e

fc3.bias f4 [4]
-0.5768865 0.16707325 0.008623319 0.43220717
00000000: d5ae 13bf 4015 2b3e d248 0d3c 424a dd3e
