MediaPipe_Operation/model_4class/gesture_classifier_with_unclass_data.pth (torch, 194026 bytes, 6 tensors)

fc1.weight f4 [126, 300]
00000000: 61aa 7c3c ec09 28bc 01bc 113c b764 963c
00000010: e515 a7bc 4f3a e33b 0a53 a13c 74ec ea39
00000020: 7db7 0a3c 92f2 563c 7806 bfbc 27b2 bd3a
00000030: 2cf4 b83c 9e03 c83b e3ea 763c 28f7 a63c
00000040: e027 5fbc 51c0 6dbb d22d e13c 5266 b83b
00000050: 17ee 6b3c f03b d23c 7a5b 03bc 3370 983a
00000060: 1730 f43c d123 fe3b 550d 833c 2f3e 1a3c
00000070: 4317 fabb f4cc 0c3c c17e 123d 7603 e83b
00000080: 94b7 a13c ce3b 2e3c 04c4 01bb 2e68 323b
00000090: c5ea 153d ca8b ce3b 7771 b53c 14f5 153c
000000a0: 479c a9bb 2593 35bb 15a7 283d 09a8 943b
000000b0: 9a93 c73c 21e4 923b 4171 a5bb 65d3 a23b
000000c0: db4b 0d3d 4067 b73b 8d3a 973c 6148 fbbb
000000d0: e3d1 1ebc 6e5f bd3a 220b 003d 93a7 523b
000000e0: c8d3 ac3c 7cd1 f2bb 422e 83bb 8cb4 b23b
000000f0: f235 ca3c dd20 1e3c 0c2f 743c 0154 abbb
00000100: 6e4c 93bb 1b5f 6e3c a6b2 a13c 57a1 d93b
00000110: 069d 813c f30a 55bc 6a6f fcbb cef6 bd3b
00000120: d827 903c 965f 863b 47e8 5f3c dd9f a9bc
00000130: 9419 13bc 0fbe a6b9 59d5 2f3c 9571 053c
00000140: 31ba 783c 8bd4 90bc b0cd 41bc c2a0 70bb
00000150: c028 2c3c af40 ea3b 5b45 863c 9182 8dbb
00000160: ebb2 0abc 6640 35bb 4af3 273c 6c6a 533b
00000170: a1ed 953c d95a 9239 7f5c fabb 0f31 feba
00000180: df9f b53b 9cdf adb8 811f 853c 2b6e d0ba
00000190: 6d3d 15bc c705 bdbb ebde a63a 3e03 78bb
000001a0: d846 553c 2ea0 a3bc 348a 86bc 9d03 02bc
000001b0: c097 5ebb 069b 0dbc b205 213c 5bcc 25bc
000001c0: 9a1a c5bc 97f8 5dbc 21aa c5bb 8951 e0bb
000001d0: c985 803b 6d6d a439 bdfb e5bc 441e 65bb
000001e0: 01a8 09bc f9af 0abc bdab 083c 6756 e3bb
000001f0: 2739 94bc 5329 a13a 68d1 2cbc c155 62bb
00000200: 5cff cb3b 2728 97bb bfb2 23bb 7ada 843b
00000210: 1c55 1cbc 8f69 cbbb 03b8 053c 11a3 853b
00000220: de3c 8e3b a044 063c 1d41 36bc b662 07bc
00000230: 9457 dc3b 6c40 753a 6e56 e23b 7524 233c
00000240: 5040 32bc d4a5 36bc 540c b33b 8008 22bb
00000250: f366 4d3c 3244 7a3c dce6 51bc 06d6 43bc
00000260: 80fa e138 1670 7dbb 785e 413c 7cf6 973c
00000270: f1c4 87bc 3733 30bc 32b4 b739 ebd9 fcba
00000280: 0a34 7f3c 3774 b43c 2f0a a4bc a566 23bc
00000290: 4ee2 723a dc80 a03a 0741 7a3c fc00 683c
000002a0: 1337 c4bc 9df4 f9bb ea6b aebb b183 49bc
000002b0: 59f1 0f3c fa73 5a3c 56b9 c4bc d774 73bc
000002c0: 7226 cfba 2f32 e2ba 2ad3 8dba e530 093c
000002d0: e5a2 dcbc f019 76bc 7810 80bb 39b5 c33b
000002e0: 5c36 30bc 0bed 633c 5db1 d1bc 435d b2bc
000002f0: 187c c33b 64a0 a0b9 f2b4 e6bb 191c f2b9
00000300: 6c47 b8bc 1349 acbc fb35 563c 81b3 22bc
00000310: 1100 9ebb 5b44 ca3a cdd4 9fbc 9879 96bc
00000320: ca0f 5b3c c855 3ab8 669b a7bb 0d1c 3e3b
00000330: b798 93bc 131f 9dbc c802 513c 4df3 70bc
00000340: 58b1 92bb c375 f93b d0b4 6fbc aab9 b8bc
00000350: 33e8 103c 3bf2 dfbc 61ab 10bc 125d 323c
00000360: b9ac 7dbc abed dbbc 8268 d63b c5e1 0dbd
00000370: fbd9 2bbc 7697 813c 18d6 8dbc 7894 f2bc
00000380: 5026 b33b ad33 17bd 0c5f 94bb 643e a63c
00000390: 409b a7bc b854 e4bc e54c 483c 738b 71bc
000003a0: f982 173b eca5 9c3c 9c5c c9bc 8967 d5bc
000003b0: ca85 083c 6eba ae39 f541 de3b 8148 043d
000003c0: cf7e c8bc 9d26 d7bc b301 773c 3172 ab3b
000003d0: 6ce2 343c ea2d 943c ebb5 c9bc 6e6f c2bc
000003e0: 290a 0d3c ad17 503c 3dee 043c bfdc cc3b
000003f0: 9d66 a7bc 25bf d2bc f6fd 5e3c 31e7 ab3c
0.015421481 -0.010256272 0.008894921 0.018358571 -0.020396182 0.006934441 0.019692916 0.0004480813
0.008466599 0.013119357 -0.023318514 0.0014472649 0.022577368 0.006103947 0.01507065 0.020381525
-0.013620347 -0.003627796 0.02748767 0.005627432 0.014400027 0.025663346 -0.008017415 0.0011630118
0.029808087 0.0077557345 0.015997568 0.00941424 -0.0076321675 0.0085937865 0.035765413 0.0070804907
0.019740857 0.010634376 -0.0019800672 0.002722274 0.036600847 0.0063032852 0.02214883 0.009152669
-0.0051761004 -0.0027706113 0.041174967 0.004536633 0.024362374 0.0044827615 -0.0050489013 0.004969048
0.03449617 0.005597025 0.018460536 -0.0076685403 -0.009693596 0.0014447996 0.031260617 0.003214334
0.021097079 -0.0074102264 -0.004003317 0.005453652 0.024683926 0.00965139 0.014903795 -0.00522852
-0.004495195 0.014549042 0.019738507 0.0066415477 0.015821945 -0.013003099 -0.0077037113 0.0057972437
0.017597124 0.00410075 0.013666219 -0.020706112 -0.008978266 -0.00031803592 0.010732018 0.008144756
0.01518111 -0.017679473 -0.011828825 -0.0036716913 0.010507762 0.007148824 0.016390493 -0.0043185432
-0.008465509 -0.0027656793 0.010250876 0.0032259477 0.018301787 0.00027914977 -0.007640421 -0.0019393283
0.0055427398 -8.290933e-05 0.016250374 -0.0015901973 -0.009108883 -0.005768511 0.001273123 -0.003784373
0.013017379 -0.01997384 -0.016423322 -0.007935432 -0.0033964962 -0.0086429175 0.009828018 -0.010119523
-0.024060536 -0.013548038 -0.006032244 -0.0068456572 0.0039221984 0.00031362046 -0.02807414 -0.0034960667
-0.008401872 -0.008464807 0.008341727 -0.00693779 -0.018093659 0.0012295641 -0.010547973 -0.0034535977
0.0062255096 -0.004612941 -0.0024978367 0.0040543647 -0.009541776 -0.006207652 0.008161548 0.004078277
0.004340752 0.008195072 -0.011123923 -0.008263281 0.0067243073 0.0009355608 0.006907276 0.0099574225
-0.010879591 -0.011147935 0.005464116 -0.0024724305 0.012536752 0.015275048 -0.012811389 -0.011952883
0.00010775495 -0.0038671545 0.011802308 0.01855015 -0.016573401 -0.010754398 0.00035038736 -0.0019291019
0.015576372 0.022028072 -0.020024387 -0.009973203 0.00092652894 0.0012245434 0.015274293 0.014160391
-0.023952043 -0.007628037 -0.005322923 -0.012299464 0.008785569 0.013333315 -0.024014156 -0.0148594
-0.0015804304 -0.0017257388 -0.0010820378 0.008373474 -0.026933143 -0.015020832 -0.003908213 0.005972531
-0.010755148 0.013911496 -0.025597269 -0.021772986 0.005965721 -0.00030637078 -0.0070406133 -0.0004617877
-0.022494994 -0.021030938 0.013074393 -0.009930492 -0.0048217853 0.0015431748 -0.019510651 -0.018368527
0.013370464 -4.4425746e-05 -0.0051149605 0.0029008419 -0.018017156 -0.019179856 0.012757011 -0.014706445
-0.0044767074 0.0076129152 -0.014630511 -0.022549469 0.008844423 -0.027337184 -0.008829922 0.0108864475
-0.015483075 -0.026846727 0.00654322 -0.03463914 -0.010488982 0.015819293 -0.017314002 -0.029611811
0.0054672137 -0.036914516 -0.004527932 0.020293422 -0.020459771 -0.027872428 0.012225364 -0.01474272
0.0023118837 0.019122086 -0.024580292 -0.026050346 0.008332679 0.00033326767 0.006782765 0.032295708
-0.02447453 -0.02626353 0.015076089 0.0052321185 0.011040311 0.0180883 -0.024622878 -0.023734774
0.008608379 0.012700957 0.008113441 0.006251901 -0.020434672 -0.02572591 0.013610354 0.020984264

fc1.bias f4 [126]
00000000: 38c6 96bd b9cf cdbc c245 0dbd c2b0 823b
00000010: 107f d8bc e217 f43b 8b64 24bd 6789 a83c
00000020: 175f a13c fa1e a7bd 70c4 63bc 3c2a 4e3d
00000030: 9ce3 693d 9ab4 babd 32c7 f1b9 af08 8d3b
00000040: ef6e 33bd 400f 0f3b 43e2 eb3a 3c8d aebd
00000050: 70fd 2fbd 141a b4bc bbf7 5ebd d22c 9cba
00000060: 9d96 033a 5703 903a 0cf9 6abd 6634 a03a
00000070: 5a03 23bc 4113 c1bd 7701 dd38 0725 83b9
00000080: 28f5 f339 aaa0 4a3d 2a2e 213c f271 153d
00000090: 8121 613b 7f08 4a39 9460 a83a 7729 e7bd
000000a0: b91e 023c 06a1 c5ba 07e5 b3bc 5c9e 58bd
000000b0: dd5d 8abc 51a4 7abd a790 dd3b 59e1 aeba
000000c0: d8d6 62bd a2d5 05bd 939a 863d ecd2 26bc
000000d0: 0bb7 27bd 2d13 05b8 f001 ba3b 662c 76bb
000000e0: ebf8 18b9 92bb 7d39 3bd1 aab8 952d 25bd
000000f0: c533 81bc 8d48 183c d2b1 a93d 0ff5 c8bc
00000100: c756 5b3c 5348 10bc d309 c23d 7fce 55bd
00000110: 6a16 343c 9dfd 01bc cc1a a9bd d01b 9ebd
00000120: e868 793c 87fa b5bd 9881 9bb8 3f3b 2c3c
00000130: c741 6abc 0df8 59b8 77a2 423d 98cc 733d
00000140: 2ef8 93bd 1de8 1bbd 53ab b93b e4c9 713d
00000150: 7101 373b 50e4 9c3c eefa 973c b774 703a
00000160: d5bb 03bd 80e0 ae3b f1d9 eb3c ffee c137
00000170: 913d 293d 19b9 083c ac52 113c ce7a f5bd
00000180: d717 d0bd c02c 4ebd 4650 a83c a993 f9b9
00000190: c283 a7b9 f34f 4fbc 245b 76bd 5636 8a3c
000001a0: 9355 88bd a779 303c 3db3 1eba 81ab 8a3c
000001b0: 230b 98ba ff8c a13a 3cf0 5e3b a1b3 2b3b
000001c0: 38e7 d8b7 8753 74bb c317 eaba ea76 923a
000001d0: 59c8 f5bc f3d9 0fbc 8826 213c 458d 76bb
000001e0: 2ac0 c7bd d1ad 493d cfb7 a83d 598d 77bd
000001f0: f486 8abc c6fc 8139
-0.07362026 -0.025123464 -0.034490354 0.0039883563 -0.026427776 0.007449136 -0.040134948 0.020573331
0.019698663 -0.08160205 -0.013901815 0.050333247 0.05710183 -0.09116478 -0.00046115514 0.0043040137
-0.043806966 0.0021829158 0.0017996508 -0.08523032 -0.042966306 -0.021985091 -0.054435473 -0.0011915213
0.00050196965 0.0010987323 -0.057366416 0.0012222647 -0.00994953 -0.094275005 0.00010538374 -0.00025013855
0.00046531227 0.049469627 0.0098376665 0.03648562 0.0034352245 0.00019267386 0.0012846165 -0.11287206
0.007941895 -0.0015077896 -0.021959795 -0.0528854 -0.01689046 -0.06119186 0.0067616287 -0.0013342305
-0.055380672 -0.03267444 0.065724514 -0.010182124 -0.040946048 -3.172753e-05 0.0056765005 -0.0037563085
-0.00014588579 0.00024197836 -8.145204e-05 -0.040326674 -0.015771756 0.009294641 0.0828587 -0.024530916
0.013387389 -0.008806306 0.0947453 -0.052198883 0.010991672 -0.007934001 -0.08257064 -0.077201486
0.0152227655 -0.08885675 -7.415115e-05 0.010512172 -0.014297909 -5.1967847e-05 0.04751822 0.059521288
-0.07225071 -0.038063157 0.0056661754 0.05903043 0.0027924443 0.019151837 0.01855227 0.00091726653
-0.032161552 0.005336821 0.028790446 2.3118684e-05 0.04131848 0.008344912 0.008869808 -0.11986314
-0.10160797 -0.050335646 0.02054609 -0.00047602996 -0.0003195089 -0.012653339 -0.060145512 0.016871613
-0.06656947 0.010771192 -0.000605393 0.016927483 -0.0011599999 0.0012325345 0.0034017703 0.0026199596
-2.5856876e-05 -0.0037281231 -0.0017859865 0.0011174355 -0.03000276 -0.0087799905 0.009835847 -0.0037620824
-0.09753449 0.04923803 0.08238184 -0.060437534 -0.016910054 0.00024793128

fc2.weight f4 [75, 126]
00000000: bcb3 3b3c 4127 413c bc66 2bbc be04 0c3c
00000010: 0d87 be3b 19b8 1dba d2d9 043c b2de aeba
00000020: 3e97 5e3b 59db 313c 8e1f 023c 7642 f2bb
00000030: f2fe 1fbc c576 5e3c 4d92 6b3a 73aa 2a3c
00000040: 8016 453b 635c d6b9 fc5f 9e3a d302 6b3c
00000050: 6e4a a6ba a4fb 7f3c 19a8 843b 90f6 393c
00000060: 9c12 313b d8c4 d83a 0f5b 253c fc0c 7db9
00000070: 43d7 b13b d206 6e3c 5b92 f139 3fa4 183a
00000080: 2c97 a23a 99d3 54bc 36a6 143b dda4 48bc
00000090: dcdd b73c b067 463b 87a2 7bba e4a2 f43b
000000a0: e7b1 143c 0b72 02bb 1fb5 b63b 70a0 703c
000000b0: 5cce 233c d164 2e3c 080b e53a 2be4 b43a
000000c0: 1bc1 073c 57df 113b 2901 24bc b072 c53a
000000d0: 28ab 833c 58d4 0b3a 4dfc 8438 2f41 243c
000000e0: 93ae 9039 ff0c 443a da03 ef3a 4508 22bc
000000f0: 404a 6c3b c0d1 013c ba31 03bc a843 033c
00000100: e320 aa3a 31d5 633c f2c0 06bc d139 0b39
00000110: 7155 9e3b baad b63b a901 b13c 6efc 303c
00000120: c6a8 ad3b 3095 273c 961f ac39 ab4e ba3a
00000130: 0869 583b 5584 b839 b88e 00bc 9122 87bc
00000140: 3666 6a3c 01da c4bb d050 923b a9c8 c0bb
00000150: b57b 613b 88c1 50ba 64eb 9d3a 5138 733b
00000160: fbf2 353c 2c85 fe3b a7c9 173b f113 5739
00000170: 41dd 98bb 61b2 3b3b 5b5b bc3b e574 243c
00000180: 92c0 253c 8c40 29bb 88ce 2d3b 2351 0b3a
00000190: d1d2 ed3b 3056 b7ba 53b8 493c af34 afbb
000001a0: 8d33 9e3c 3ce6 5abb 80d1 003a 5116 aebb
000001b0: f193 a43a ee66 c83a 455e 933b 0a01 313b
000001c0: 86d0 143b 29a6 093c 6fb5 353b a9bf 013b
000001d0: 7f92 ad3a 0548 fc3b 6648 7d3a 1264 0a3c
000001e0: 0463 2f3c fb8c 2ebb 7544 a0bc 8e0a 813c
000001f0: 6e11 523c 77f4 933a a36d be3b d375 bb3b
00000200: 3428 11bc c90e daba 26b0 8b3d 8779 d0bc
00000210: af6c b23b b0f5 e7bc d30a 24bd 4750 d13c
00000220: 5ee0 fa3b 1781 703a 4b81 ca3b 2683 2c3d
00000230: 8845 d438 4286 7abb af92 c13d 90f5 c5ba
00000240: a9ac e0b9 740e f13c 3708 823d f32d 8f3b
00000250: 2842 aa3d f203 53bb 34f8 a2ba 2711 9bba
00000260: d419 1e3b 280e 12bb dd06 c03d 5072 df3b
00000270: ca88 9738 5f33 0eb7 ecce 70ba 7d1d 0dbc
00000280: 2993 6bbc 4557 22bc ab44 fcbb c674 beba
00000290: b72b ad3d 8bb4 c03d bcea b0bb c998 893d
000002a0: 0633 843d a88c a5ba 4903 ab3a a4db ef3b
000002b0: 0e6e 52bc f023 093a 8981 503d 906a 823d
000002c0: 2306 09bd 4b3c 10bd 22f7 65b8 14cd b7b9
000002d0: c712 d7bc 5cc7 dcb9 9164 fab7 ca34 92b9
000002e0: 2ddf 3cba 1f31 5abc d9d4 c93d caf5 3dbd
000002f0: 2384 003d d70c 703c c4ab c93d 24b9 4abc
00000300: 29a5 f63c eafa a53d d6aa c0bc 024c a93d
00000310: 4b8e f5ba 983c 003c e2e0 c8bc 1784 7c3d
00000320: 030d ae37 0c2b a9bc 3240 ba3d 0cb9 d738
00000330: 7f4a 0ebd d8e6 163b 56c4 0aba 2569 de3c
00000340: b898 41bb ba78 1dbd 25b4 51bc d4fa 20bd
00000350: a858 953d a613 d6ba b149 003b b049 3abd
00000360: 9ca3 b63d a998 9837 2df6 8cba 5f7c 19bc
00000370: 8684 9abc 366d 863d 9b7a 033c 8713 093d
00000380: a8bd 93bc 7256 8238 0082 1a39 d959 15bd
00000390: be7b a93b 15ef 0cbc 1508 bd3a 1004 96bc
000003a0: e330 d938 7bd7 13bd 1bf9 8e38 d56e 2fba
000003b0: 6f64 a33d def3 a3bc e97d a439 d23c b639
000003c0: a719 053a 9cd6 5139 bd1c bfbc 35b7 f43a
000003d0: d3fd a3bc ba65 753a ba88 fe3b f86f 11bd
000003e0: d19a 773c 9435 1c3d c37a 2bbc 59e6 a738
000003f0: fe5d 443d 56db 2b3c 8e73 dabc 6f36 e23b
0.011456426 0.011789144 -0.0104615055 0.0085460525 0.005814439 -0.00060165074 0.008108573 -0.0013341515
0.003396466 0.010855519 0.007942094 -0.0073931767 -0.009765374 0.013578122 0.0008986339 0.010416615
0.0030073225 -0.00040886094 0.0012083049 0.014343935 -0.0012686977 0.015623961 0.004048359 0.011350289
0.0027019149 0.0016538156 0.010092511 -0.00024132797 0.0054272725 0.014527993 0.00046076145 0.00058228144
0.0012404672 -0.012989902 0.0022682077 -0.012246338 0.022444658 0.0030274205 -0.00095991086 0.007465707
0.009075618 -0.00199044 0.0055757905 0.014686689 0.00999793 0.010644154 0.0017474601 0.001380091
0.008285786 0.0022258365 -0.010010042 0.0015064087 0.016072825 0.0005334071 6.341245e-05 0.010025307
0.00027595888 0.0007478743 0.0018235401 -0.009889667 0.0036054999 0.007923543 -0.008007461 0.008011736
0.0012979772 0.013905809 -0.008224713 0.00013277611 0.0048319628 0.005574909 0.021607237 0.010802371
0.0052996604 0.01022844 0.0003282993 0.0014214119 0.0033021588 0.0003519381 -0.007846527 -0.016495975
0.014306596 -0.0060074334 0.0044652 -0.0058832956 0.003440601 -0.0007963409 0.0012048301 0.0037112425
0.011105294 0.00776734 0.0023160966 0.00020511427 -0.0046650474 0.0028640258 0.005748195 0.010037635
0.010116713 -0.0025825826 0.0026520807 0.00053145195 0.0072577973 -0.0013987478 0.012312013 -0.0053468565
0.01931169 -0.003340139 0.00049140304 -0.005312719 0.0012556297 0.0015289464 0.004497322 0.0027008676
0.0022707297 0.008401432 0.002772655 0.0019798076 0.0013242512 0.007699015 0.0009661972 0.00844671
0.0107047595 -0.0026634324 -0.019563893 0.015752103 0.012821538 0.0011288066 0.0058114096 0.005720833
-0.008859683 -0.0016636486 0.06820707 -0.025448574 0.005445085 -0.028315395 -0.040049385 0.025550975
0.007656141 0.00091745093 0.0061799637 0.04211726 0.00010121899 -0.0038226997 0.09451806 -0.001510309
-0.0004285325 0.029425837 0.06349223 0.0043694912 0.083133996 -0.0032198397 -0.001243359 -0.0011830673
0.0024124281 -0.002228627 0.09376309 0.006819047 7.22572e-05 -8.47582e-06 -0.0009186107 -0.008612988
-0.014378347 -0.009908502 -0.0076986155 -0.0014530651 0.084556036 0.09409436 -0.0053990763 0.067185946
0.064550444 -0.001263042 0.0013047244 0.0073198844 -0.012843622 0.00052314904 0.050904784 0.063679814
-0.033453118 -0.03521375 -5.4828015e-05 -0.00035057275 -0.02625407 -0.00042110204 -2.9849152e-05 -0.0002788662
-0.00072048866 -0.013317375 0.098550506 -0.04637698 0.031376015 0.014651499 0.09847215 -0.0123732425
0.030108051 0.08104499 -0.02351896 0.082664505 -0.0018734423 0.007826947 -0.024521295 0.06164941
2.0748475e-05 -0.02065041 0.090942755 0.000102864666 -0.034739014 0.0023025777 -0.00052935386 0.027149746
-0.002954049 -0.038445212 -0.012799297 -0.03930171 0.072923005 -0.001633276 0.0019575174 -0.04548043
0.08917925 1.81909e-05 -0.0010754518 -0.009368031 -0.01886202 0.06563799 0.008024837 0.03346589
-0.018034771 6.214985e-05 0.00014735013 -0.03646264 0.005172222 -0.0086019235 0.0014421964 -0.018312484
0.00010356472 -0.03609417 6.817487e-05 -0.00066922355 0.079781406 -0.020013746 0.00031374328 0.0003475906
0.000507737 0.00020011741 -0.023329133 0.0018670323 -0.020018494 0.0009361167 0.007767764 -0.035507172
0.015112595 0.038137034 -0.01046628 8.006086e-05 0.0479412 0.0104893055 -0.026666429 0.0069034616

fc2.bias f4 [75]
00000000: 8c3f a3bb 6d1a 683c b1cf 9bbd 0d75 0000
00000010: 8c61 de3d cc03 0f3c be28 8fbd 14a5 a6bd
00000020: ea41 363b 5e2f c4bb a9b0 823d c6d6 8cbd
00000030: ef14 2300 32ca 8f81 4ee7 993d 7388 3836
00000040: 6fe5 823d 0c29 b63d b396 d03d 6808 9abd
00000050: 0719 813d 9e66 2881 c671 05bc 5da4 863d
00000060: 3bf7 a83d 2b20 283e 9597 0000 585e 153c
00000070: bb07 863d 16a0 0000 4378 853d a8e2 3f96
00000080: b8b5 b73d d46d f5bc bc92 0080 0062 9dbd
00000090: e455 91bd 3c3d 8fbd 83ca 843d e5cc 8c3d
000000a0: 3e96 2bbc 7f2c ca09 1602 263e a124 dd88
000000b0: 929c 94bb 3135 ae3d 8096 1b3e 4627 5c3b
000000c0: 5df7 91bc 678f d4bc f7cb 12a8 f8f5 883d
000000d0: 1b0d 8d3d 714a 94bd f90a 123c f888 0100
000000e0: d2d7 943d e2ef 5b81 52e3 a3bd 7ac9 2008
000000f0: c2a3 48ba 531d ef9a 57a1 a73d d8eb 0680
00000100: 9586 873d e31a 0100 8544 893d 4e29 8a3d
00000110: 0b50 8b3d c035 179f 2d87 c2bb aa80 af3d
00000120: 8c21 513d 6a1d 00bd b8e2 753d
-0.0049819406 0.014166457 -0.07607973 4.199e-41 0.10858449 0.008728933 -0.06990193 -0.08136955
0.0027810284 -0.005987092 0.063813515 -0.06876902 3.221752e-39 -5.282004e-38 0.07514821 2.749756e-06
0.06391417 0.08894548 0.101849936 -0.075211346 0.06303602 -3.093035e-38 -0.0081448015 0.065743186
0.082502805 0.16418521 5.4377e-41 0.009116732 0.06544443 5.7428e-41 0.06517079 -1.5500377e-25
0.08970207 -0.029959597 -5.2638e-41 -0.07684708 -0.070964605 -0.069941014 0.064839385 0.06875018
-0.010472832 4.8671575e-33 0.16211733 -1.3309565e-33 -0.004535266 0.08506239 0.1519413 0.0033592745
-0.017818147 -0.025947286 -8.148856e-15 0.0668754 0.06887265 -0.07240761 0.008913749 1.4097e-40
0.07267727 -4.0396055e-38 -0.08002342 4.8385083e-34 -0.00076537963 -9.889546e-23 0.0818507 -6.35618e-40
0.06617466 1.0148e-40 0.06702522 0.067461595 0.06802376 -3.2019955e-20 -0.0059365244 0.085694626
0.051057383 -0.03127805 0.06003067

fc3.weight f4 [4, 75]
00000000: 22a2 fe3c c1e4 333e 07fb 713e afa2 3eb8
00000010: a921 87be f59b 253e 2fe8 563e fe4f 843e
00000020: 6a08 273e 32ee b33d 7272 36be 01d9 353e
00000030: 2525 3239 c8bd 8a35 8efd 603d 4d92 51b6
00000040: 0af2 81bd eea6 40be 8967 f9bd 66bc 7a3e
00000050: d9fa 34be e90a e9b8 dd6c 213e 4bf8 5bbd
00000060: ff80 d83d bae6 d5be 97e7 503b b320 2d3e
00000070: 3aef 35be 55ae 96b7 3728 29be 861d 1cb3
00000080: 63ac 70be e852 163e e277 ec3a 7923 6a3e
00000090: ff32 643e c5f6 683e 5cf6 2abe 4451 30be
000000a0: 019b 063e ece1 0138 d300 d0be 826f 1eb8
000000b0: f248 283e e1f1 2ebe 31fd c3be 9ae6 28bc
000000c0: 9dce f03d 513a 1a3e b119 c33a dc74 37be
000000d0: f1a9 8dbd 274b 653e aa51 883c e732 17b6
000000e0: b6b1 83bd 432a 013b 17f5 7f3e 953d 44bc
000000f0: 9163 1f3e f6f4 4738 c590 dd3d c0a4 073a
00000100: 28f1 3cbe 70af 8434 cd51 37be 0ee0 99bd
00000110: f563 85bd da76 8939 ec3a 113e cb21 43be
00000120: 1dec 3abd 7397 1a3e 1863 78bd 9a20 34bd
00000130: ddfa 283e accd 3ebe 8961 03b7 2578 8d3e
00000140: a7a0 233e e655 2dbe a412 46be 23b0 1c3e
00000150: 1fd7 8dbe e0c2 90be a088 39be 629f f3b6
00000160: 7465 1436 daa6 1f3e c5c6 b1b6 917b 82bd
00000170: fa8d 933e 4ae3 5b3e df7b 23be a5c2 8fbe
00000180: 54c2 0c39 b7ce 0f3e cb5d 81bd 72b7 303e
00000190: 0cd4 ba3d 184c 7c39 3116 2a3e 4c15 8dbe
000001a0: 8a63 59b7 da6c 8fbe 114e 8536 349a 903e
000001b0: 0ea0 41be 628e 2fb9 7d9d 3cbe cb87 2bbe
000001c0: c07e 2dbe 91f0 8cbe 8695 90be ebe7 e83d
000001d0: c7af 7cb5 bb4e d03d f94e b1b7 9725 1c3e
000001e0: d2d1 8f3e 5b24 f43d adaf 0dbd 050a 38bd
000001f0: a899 77be 26e7 d6b8 e561 8dbe 7424 93bd
00000200: 9b40 2ebe 5fd8 debd 3c00 34b4 f888 99bd
00000210: 20d6 b338 9e23 39be e242 2c3c 85ca 1e3e
00000220: 8547 ed39 2169 323e 0a13 1939 db19 91be
00000230: 4ed5 bdb5 9633 90be e5bc 9abd bb2d 85bd
00000240: dd57 7d3b 0a0e 093e d01d 963e 29c7 92bd
00000250: abc1 13be c947 7cbd fcf8 ec3b 2d41 7fbe
00000260: 0da5 90bd f8fa 0b34 058c 5d3c cca8 93be
00000270: d6fc 95bd 92b9 3cbd 756b 9fbe 2f15 003e
00000280: ee77 253e c3e6 90bd b46b 5136 b6ef 33b5
00000290: 9901 803e 3322 46b7 8881 b7be 74a8 44be
000002a0: 4e6f 903e e129 8dbd 360a 2b3e 650a 233a
000002b0: 2e8d c3be d2f7 babe 882b 653e da25 013e
000002c0: 199e c6b4 f6b3 89be d500 433e 3312 043c
000002d0: 9546 273e d205 083b 5692 a3bd edc0 253e
000002e0: 7b70 e5b1 0b1f 86bd 3d97 89bd a8de 8cbd
000002f0: d7ac 2d3e 9207 323e 50cb d8be 0887 0eb5
00000300: df32 0c3e 5028 1dbb a2de aebe d05b 62be
00000310: 8514 ef3d 376a 98bc 1c43 bfbe 88ce 073e
00000320: 3bee 2db5 dd0a 2d3e ce34 99be fd8c 93bd
00000330: cc49 64be b31b 143c 52ec 9ebe 1d84 b6b1
00000340: 0465 83bd f10a 3c35 0aeb adbe 6014 80b6
00000350: b86d 703e b40d aeb4 3c36 283e 8c41 1136
00000360: 332b 373e 49e5 86be 32cb babe ccb2 af38
00000370: 3a20 d1be 8c60 3cbe 702f b5be 8456 28be
00000380: 86d1 b1be d0f8 4abc b64f 2ebe c6e1 11bc
00000390: b756 6f36 4f72 abbc 8684 03be 6a4b 1b3c
000003a0: d6b9 09bd fb56 5cbd 0841 b63d 5805 1b3e
000003b0: 4ee8 b33b 71ad 3635 85e3 95b6 5b67 06bf
000003c0: deac 8937 a6ff f23e 7f24 9c3d 8493 c8be
000003d0: 9752 48bc 4604 2c3e d56b 0fbb d6d2 503c
000003e0: f0d3 ef3e 173c 0fbf 4c4f d83d ecb3 c939
000003f0: e78b 10be ff62 383e 0f8f c33b 8e3e 1e3e
0.03108317 0.17567731 0.23630916 -4.545104e-05 -0.26392868 0.16172774 0.20987009 0.2584228
0.16311803 0.087856665 -0.17817095 0.17758562 0.0001698924 1.0337035e-06 0.05492931 -3.1228585e-06
-0.063449934 -0.18813679 -0.12177951 0.24485931 -0.17673816 -0.00011112338 0.15764184 -0.053703588
0.10571479 -0.41777593 0.003187632 0.16907005 -0.17767039 -1.7962573e-05 -0.16519247 -3.6348432e-08
-0.2350326 0.14680064 0.0018041099 0.22865094 0.22285078 0.22750385 -0.16695541 -0.172185
0.13145067 3.0966403e-05 -0.4062563 -3.7773985e-05 0.16434076 -0.17084457 -0.38279107 -0.010308886
0.11758158 0.15061308 0.0014884976 -0.17915672 -0.069171794 0.2239195 0.016640503 -2.2530382e-06
-0.0643038 0.0019709028 0.24995838 -0.011977573 0.15565325 4.7673435e-05 0.10818628 0.0005174391
-0.18451369 2.4714564e-07 -0.17902298 -0.07513438 -0.06513206 0.00026219228 0.14182633 -0.1905586
-0.04563533 0.15096836 -0.06064138 -0.043976404 0.16501947 -0.18633145 -7.830918e-06 0.27630726
0.15979253 -0.16927299 -0.19343048 0.15301566 -0.27703187 -0.28273678 -0.18118525 -7.260519e-06
2.2112772e-06 0.15590993 -5.298151e-06 -0.06371225 0.28819257 0.21473423 -0.15965222 -0.2807819
0.00013423833 0.14043699 -0.06316718 0.17257479 0.09122476 0.0002406094 0.16610028 -0.2755531
-1.2957384e-05 -0.28012735 3.972797e-06 0.28242648 -0.18908712 -0.00016742342 -0.18419452 -0.1675102
-0.16942883 -0.27527288 -0.28239077 0.1137236 -9.4133105e-07 0.10171267 -2.1136819e-05 0.15248714
0.28089768 0.11920997 -0.034591366 -0.04493143 -0.24179709 -0.0001024737 -0.2761375 -0.07184687
-0.17016833 -0.10881113 -1.6763892e-07 -0.07496828 8.575269e-05 -0.18079993 0.010513993 0.15506943
0.0004525745 0.17422916 0.0001459831 -0.2834004 -1.4143677e-06 -0.28164357 -0.0755556 -0.06502863
0.0038657107 0.13384262 0.2931962 -0.07166893 -0.14429347 -0.061591897 0.0072318297 -0.24927206
-0.07062731 1.3036686e-07 0.013522153 -0.2883972 -0.07323615 -0.04607541 -0.3113667 0.12508081
0.16159031 -0.07075264 3.1206118e-06 -6.703152e-07 0.2500122 -1.1809682e-05 -0.35841012 -0.19204885
0.2820992 -0.068927534 0.16703114 0.00062195054 -0.3819365 -0.36517197 0.22379887 0.12612095
-3.6995405e-07 -0.26895112 0.19043286 0.00806098 0.16335519 0.0020755422 -0.07986896 0.16186877
-6.6775647e-09 -0.0654889 -0.067182995 -0.06878406 0.16960464 0.173857 -0.42342615 -5.309562e-07
0.13691281 -0.0023980327 -0.3415423 -0.22105336 0.11673836 -0.018605335 -0.37355888 0.13262379
-6.4794193e-07 0.16898675 -0.299231 -0.07204626 -0.22293776 0.009039807 -0.31039673 -5.3119167e-09
-0.064157516 7.005138e-07 -0.33968383 -3.8170692e-06 0.23479354 -3.2419996e-07 0.16426939 2.1644837e-06
0.17887573 -0.26346806 -0.3648315 8.377954e-05 -0.408449 -0.18396205 -0.35387754 -0.16439253
-0.34730166 -0.012388423 -0.17022595 -0.008903926 3.566425e-06 -0.02092853 -0.12843522 0.009478429
-0.033624493 -0.05379389 0.088991225 0.15138757 0.0054903394 6.8052674e-07 -4.467033e-06 -0.5250146
1.641217e-05 0.4746067 0.076241486 -0.39175045 -0.012226722 0.16798505 -0.0021884341 0.01274558
0.46841383 -0.55951065 0.10562 0.0003847176 -0.14115869 0.18006514 0.0059679816 0.1545355

fc3.bias f4 [4]
00000000: ac89 d9be 2c1f 633e b478 ff3e af19 80be
-0.42487848 0.2217986 0.49896777 -0.25019595
