MediaPipe_Operation/model_4class/gesture_classifier5.pth (torch, 24880 bytes, 4 tensors)

fc1.weight f4 [60, 90]
00000000: ef70 3eba 198b f13c 787b 5a3d 3ce9 a63c
00000010: 1b97 04bd 97bc 86bd f594 15bb 2657 9d3c
00000020: 1e90 393d fc46 103c ee2a 2bbd b906 82bd
00000030: 711f 8ebb 1846 263c 3758 123d 2fb8 423c
00000040: 7a78 45bd 79b6 6ebd 4976 d0bb 5054 083c
00000050: f6ef d83c 6cbb 973c 675d 65bd a66c 5fbd
00000060: ae61 09bc 8a52 893b bb95 b13c 393a d0ba
00000070: 833f 78bd 1864 83bd f360 1dbc b89f 163c
00000080: 6db9 d23c ff41 a03a 2e31 68bd 8440 8ebd
00000090: 971c 6cbc b2cf ac3b f664 da3c 5c27 a33c
000000a0: c05f 77bd dc29 91bd 3fc3 97bc a1da 15bb
000000b0: 1fe9 e63c d7bc a93c ac20 71bd 2c40 98bd
000000c0: d4dd 94bc 8155 0e3c 48ca d63c a88f d93c
000000d0: 0be4 86bd f4ae 8ebd c235 66bc b4e0 553c
000000e0: 527f e63c 3995 2c3c 3bb4 80bd d760 8abd
000000f0: c0b8 5ebc 36a7 863b a953 d13c caf6 573c
00000100: d68e 8bbd 07e9 79bd 4bf6 0cbc 5377 503b
00000110: e1e2 eb3c f236 f63c 3a8c 7ebd 5014 4bbd
00000120: 379b aabb 7e52 853b 32a3 143d 4d62 9e3c
00000130: f500 6bbd 2791 60bd 82a6 10bb 78a6 3c3c
00000140: 8879 333d a655 2f3c 3b6f 54bd fe0e 6cbd
00000150: 1591 2f39 7fef ba3c 90b7 663d 095d 8d3c
00000160: c2d6 16bd 0335 87bd 0e6e 09be cdf2 e9bc
00000170: da4a 05bd 3b15 a33c 6960 b0bd 4fde 833d
00000180: 758f eebd c479 ffbc ac56 7cbc 6e80 77bc
00000190: ae8f 6fbd e312 253d 6d73 d2bd 47a7 c4bc
000001a0: f6e4 383b d18d 71bc 4df5 3dbd a102 893c
000001b0: 017d babd 9e27 b0bb 891a aa3c c292 373b
000001c0: b756 bbbc 33c1 13b9 b6fe 9bbd 0622 0ebc
000001d0: 0639 0f3d 7d2a 88bc 224d 2dbc abe7 a5bb
000001e0: 00b6 80bd 12d1 483b 3b6a 2b3d 5922 c8bc
000001f0: ada6 80bb e383 08ba 4fd0 4cbd 6856 513c
00000200: 7ccc 6d3d fa98 19bc c129 37bb ba28 c4bb
00000210: 25a2 24bd 7276 0e3d 9d37 853d 0794 8ebc
00000220: bd54 fbbb c147 123c 33a4 f6bc 5661 1a3d
00000230: b28f 823d 10c3 c7bb 6080 59bc c8d1 dbbb
00000240: 2f62 a6bc a3f9 eb3c 5211 673d 10c4 0fbd
00000250: a8e8 59bc 82df bcba a86c bebb 931c 9a3c
00000260: 9a48 803d e9db 36bd 09ee aebc a3e6 2dbc
00000270: faac dfbb e7cd de3c 23c4 373d e136 8dbc
00000280: 843c 43bd 813a aabb 3c0e b5b9 f353 883c
00000290: c23d 1c3d 0c51 f1bc 7963 81bd 357b 003c
000002a0: ca90 5bbb 120f 1a3c fd5e 043d d0c8 0abc
000002b0: 6287 95bd 1d08 4a3d a699 c7bb 1833 463c
000002c0: 6279 b83c 8479 c83c c7bb e2bd 1c9b b33d
000002d0: cf4a 223d 95cd 29bb 281c de3d fe7f acbc
000002e0: 471c b53c cb0a 5fbd 618d c43c a5f4 bfbb
000002f0: 5f3d a13d d851 01bd e675 cebb f7e4 43bd
00000300: 4568 e53b e5a9 8b39 3608 5a3d 177e 89bb
00000310: 8b95 0bbd 2aad 1cbd f3d0 eeb9 7b83 073c
00000320: 782e 233d 2320 7f3c df5e 3abd 1895 0bbd
00000330: 275b e6bb 4989 e43b 284b fa3c 4ac5 bc3b
00000340: aff3 4fbd 7d4d 21bd 74b6 7ebc 7efd 1e3c
00000350: 1354 c03c 32b8 9cbb 0b8a 3abd bd6e 24bd
00000360: b51e afbc b174 323c 5066 7d3c e76a 0e3c
00000370: 748e 64bd 27b0 13bd 64e4 cabc 9e4a 833c
00000380: 5225 843c d669 ca3c 15e9 76bd c614 17bd
00000390: 31d8 d6bc 94f1 543c 8175 803c e385 563c
000003a0: b2ab 83bd d383 10bd 748c b1bc ba0d 5a3c
000003b0: b3a1 be3c 6f48 fabb 9939 74bd 861d 29bd
000003c0: 95cf 48bc 506f 5a3c cb70 fa3c 2ccc 04bc
000003d0: 5f3f 8abd 2ace 1cbd 86b1 9bbb 2af0 4e3c
000003e0: 4e50 293d 8925 2dbc 717c 6ebd cd82 06bd
000003f0: 4ce8 c93b cee8 bc3b b07b 6b3d ba9c f6bc
-0.0007264753 0.029485272 0.053340405 0.020374887 -0.032370668 -0.065789394 -0.002282438 0.019206595
0.045303456 0.0088059865 -0.041788988 -0.063489385 -0.004337244 0.010148548 0.03572866 0.011884733
-0.0482106 -0.05827949 -0.006361757 0.008320883 0.02648161 0.018521987 -0.05599728 -0.054546975
-0.008385105 0.0041907476 0.021677842 -0.0015886492 -0.060607444 -0.06415576 -0.009605634 0.009193353
0.025723184 0.00122267 -0.056687526 -0.06945899 -0.014411113 0.0052737826 0.02665947 0.019916229
-0.06039405 -0.07088062 -0.018525718 -0.0022865909 0.028187333 0.020719929 -0.05886905 -0.07434115
-0.018172182 0.008687378 0.026219502 0.026557758 -0.065864645 -0.069669634 -0.014050903 0.013054062
0.028136883 0.010533624 -0.06284376 -0.06756752 -0.0135938525 0.0041092886 0.025552588 0.013181398
-0.06814353 -0.061013248 -0.008603643 0.0031809404 0.028794708 0.030055497 -0.06214545 -0.04957992
-0.0052064913 0.0040686717 0.036288448 0.019333983 -0.05737396 -0.054825928 -0.0022071903 0.011514299
0.043817073 0.0107015725 -0.05186389 -0.057631485 0.00016743348 0.022819279 0.056327403 0.017256277
-0.036825903 -0.06601908 -0.13420889 -0.02855816 -0.032542087 0.019907584 -0.08612139 0.064388864
-0.11648456 -0.031185992 -0.015401524 -0.015106304 -0.058486633 0.040301215 -0.10275922 -0.024005545
0.0028212643 -0.014743284 -0.046376515 0.016724886 -0.09105874 -0.0053758165 0.020764606 0.0028011058
-0.022868497 -0.00014090985 -0.07616942 -0.008675104 0.03496649 -0.016621822 -0.010577472 -0.0050630174
-0.06284714 0.0030642194 0.041849356 -0.02443044 -0.0039261193 -0.0005207641 -0.050003346 0.0127769485
0.05805634 -0.009374851 -0.0027948471 -0.0059863003 -0.040193696 0.034780927 0.06504748 -0.01740457
-0.0076700137 0.00892824 -0.030107593 0.037690483 0.06375064 -0.0060962513 -0.013275236 -0.0067083575
-0.02031049 0.02880556 0.056413002 -0.03509909 -0.0133000985 -0.0014409872 -0.0058112927 0.018812453
0.06263848 -0.044643316 -0.021353738 -0.01061407 -0.0068260403 0.027197791 0.044864785 -0.017238082
-0.047665134 -0.0051949625 -0.00034533616 0.016641593 0.038144834 -0.029457591 -0.06317801 0.007841875
-0.003350305 0.009403007 0.03231715 -0.008470729 -0.07301213 0.049324144 -0.0060913144 0.012097143
0.022518817 0.024472006 -0.11070972 0.08769819 0.039622124 -0.002590989 0.10845214 -0.021057125
0.02210821 -0.054453652 0.023993196 -0.0058580213 0.07873034 -0.031572193 -0.0063006757 -0.04782578
0.0070009553 0.00026638727 0.053230487 -0.0041959393 -0.034078162 -0.03825108 -0.00045550577 0.0082710935
0.039839238 0.015571627 -0.045500632 -0.034077734 -0.007029909 0.0069743735 0.030553415 0.0057608234
-0.050769504 -0.03938054 -0.01554643 0.009703992 0.02347759 -0.0047827 -0.045541804 -0.04014467
-0.021376947 0.010892079 0.015466288 0.00869248 -0.055799916 -0.036056664 -0.024767108 0.016026791
0.016131077 0.02470867 -0.060280878 -0.036885045 -0.026226135 0.01299705 0.01568103 0.0130934445
-0.06429233 -0.035281967 -0.021673419 0.013308937 0.023270464 -0.0076380293 -0.059625242 -0.04128792
-0.012256523 0.013332203 0.030571362 -0.008105319 -0.06750368 -0.03828255 -0.004751387 0.012630502
0.04133635 -0.010568031 -0.058224145 -0.032839585 0.006161725 0.005765057 0.057491004 -0.03010403

fc1.bias f4 [60]
00000000: 7ac5 f33c 8ab2 11be 47e6 c5bc 7d2e 1abd
00000010: 8366 533e 9c02 09be 368c aebd 9bc0 8bbd
00000020: 3e4a 1abe d896 27bc d3a4 13be 636a 5a3c
00000030: 10f3 5fbb ba81 35bb 44c6 c6bb 7cfd 3abe
00000040: 590a c7bd c3a6 f6bc 911b 5c3e 49f2 573e
00000050: 8475 3abe b8f3 b9bb b3aa 1bbe 169d 61bc
00000060: f087 423e 21a9 d1bd 69d6 5a3e e8db f7bd
00000070: 9fc6 11be 0b2b 24bd 40fa 78bc 5c15 0abe
00000080: 9809 563e 93ff 553e d7a8 1ebe c5cf 093c
00000090: dcba 17be 545e 7abb 2ff3 8dbb 5676 573e
000000a0: bcfa 17bb 1925 543e f5ed d6bc d72f 47bb
000000b0: e126 5b3e 0a32 6fbd 68f2 98bd c84b 7dbb
000000c0: f334 27bb d48e febd 722b 3abb 8ce6 23be
000000d0: 8e4d 18be 0cdd 42bb 4184 f0bc afbe 5d3e
000000e0: 3792 00bb 7350 603e a60f 6dbd 1b0c 64bc
0.02975725 -0.14228263 -0.024157656 -0.03764199 0.20644574 -0.13379902 -0.08522837 -0.06823846
-0.15067384 -0.010228835 -0.14418344 0.013331029 -0.0034171976 -0.0027695731 -0.0060661156 -0.18260759
-0.097187705 -0.030108815 0.21494891 0.21088518 -0.18208891 -0.0056748055 -0.15201835 -0.013770362
0.18997169 -0.10237337 0.21370853 -0.12102491 -0.14235924 -0.04008011 -0.015196383 -0.1348471
0.20902097 0.20898275 -0.15494095 0.0084113525 -0.14817375 -0.0038203197 -0.0043319683 0.21041235
-0.002319022 0.20717277 -0.026236514 -0.0030393505 0.2140155 -0.05839733 -0.0746811 -0.0038649905
-0.0025513738 -0.12429586 -0.0028407243 -0.16005915 -0.14873335 -0.0029733805 -0.029359939 0.21654771
-0.00196184 0.21905689 -0.05787625 -0.013918902

fc2.weight f4 [4, 60]
00000000: d2bc 17be 49df 0f3e 58f7 f13b 4cb2 213c
00000010: 7b20 7dbe 50b3 2b3e 21ce f0bb 5e57 163e
00000020: aa0a 393e 176f 423e 1aa2 133e 1b8e 033e
00000030: 0d66 f33e 3dc2 e03e 2a54 0a3f 0bb6 5a3e
00000040: da24 493e 0ff9 073c a4f3 35be defa 3ebe
00000050: 7ef5 5a3e eb5d 3a3e 2459 183e 5bfe 523e
00000060: 3054 5dbe 9e89 183e 420f 39be 6586 243e
00000070: ac64 e73d 860a 1b3c 762c 053f 0682 4d3e
00000080: 2ffe 38be ecb3 75be 3ec6 293e 68b9 b53d
00000090: d1dc 373e 9b4a d73e dc2a a63e 5b6d 2fbe
000000a0: 4954 c93e cc9f 67be c9c4 1b3e b043 ce3e
000000b0: a7bf 7dbe b6d0 233e 8031 0f3e 83d2 af3e
000000c0: fe5b d93e 6cc5 693e 390f bb3e 04dd d93e
000000d0: 4eba e63d 37cc c23e 8e09 0f3e 2941 72be
000000e0: febf ca3e d481 3abe 6435 5b3d fb82 513e
000000f0: d1a7 c23c 8435 95be 6ff1 16be f794 21be
00000100: b7d6 263e d709 7ebd 8e8b c83e 04b4 febd
00000110: 611e 4dbd 9497 34be a4a8 93be 4008 1f3e
00000120: 8849 d73e 8914 d53e c1af a13e dd5f c5bd
00000130: 148d 4cbe 25e9 25be 1abd 223e 01ed 1e3e
00000140: 0d81 17be 718b 3dbe a378 9bbe 73f2 45be
00000150: 41b0 1d3e d5e2 d4bd 4650 2e3e 1747 dbbd
00000160: 8d14 90be 3aad 24be f0b8 1b3e ef53 1f3d
00000170: 9d88 263e dc86 2b3e c29d 303e 8f7b 5ebe
00000180: 0fdf 493d 556a bd3e cbb6 c73e 164c 333e
00000190: 0008 d73e bf78 333e 6bc4 e13d 6b89 cb3e
000001a0: db56 2b3e e605 2fbe ea3e 05be 1f4f ce3e
000001b0: 5d0f d03e 0a4f 873e 661c d43e 1d38 57be
000001c0: 336e 8ebe 80dc d73e 29bc a63d baaf 2b3e
000001d0: f284 d23e 036f 2d3e cdb8 36be d74a 43be
000001e0: dc7f 8b3e 5aa8 603e 603d 813e c23c 853e
000001f0: 284c 443e 3b3f 00be 4df9 6ebe 7a22 dc3c
00000200: 26fe 11be b43b 3f3e 5a15 5d3e 1c0f 93be
00000210: 2151 9dbd d6c4 4d3c a38d 98be f119 3ebe
00000220: 5ad4 a03d 399e 853e 06c1 673e c6ba 703e
00000230: 52c0 01be 090c 373e 61b3 533e f4f4 353e
00000240: 350b 263e 5e7c d3bc 8380 603e 074d 4cbd
00000250: 710c 643e b927 853e af38 a8be ab0c 99be
00000260: 25e7 703e 86cf 493e 84ea 87be 2ac2 393e
00000270: 5972 51be 9d9c 3cbe 0c92 823e 480a 643e
00000280: b00e 0a3e ada9 323e 2cbe 96be 9f20 3e3d
00000290: ec96 403e 9155 ba3d c083 ba3c 79f3 703e
000002a0: f551 623c 5f99 b3be 7ac8 3b3e d323 02be
000002b0: 1deb 683e 5ec3 2f3e a9e3 45be 0c9c 423e
000002c0: 9f8b 8e3d 5694 683e 352a 713e 17c3 2a3e
000002d0: 9748 303e db22 033e 96af 293e ab73 253e
000002e0: c6cd 5d3e dd31 583e d2c3 8d3c 57bb 3a3e
000002f0: 5d1c 523e d216 f43d 250c f93d b336 973e
00000300: 7eee 26bf 7c41 34bf d004 02bf 77d6 743e
00000310: a3cc 453e f514 343e 2ffa 513e 77fa 4f3e
00000320: d2dc 5f3e 5f51 0a3e 4f0d 0b3e 8312 fd3d
00000330: 4bb3 563e 0239 4f3e d563 5a3e 481a 523e
00000340: 0b0e 113e 1c16 2e3e 68f0 afbe 8b6f 583e
00000350: aad9 4b3e 7825 5c3e 2e2c 303e 18cf 473e
00000360: 80a3 393e b336 10bf a82e 46bf 8483 523e
00000370: 9bb0 41bf 0a2e 5b3e 67a5 8e3e 72a3 31bf
00000380: e59f 5a3e 74c8 4b3e 4f28 393e ca9e 4abf
00000390: 162f 2fbf 1721 1c3d 9d88 43bf 27ff bfbb
000003a0: 2706 0a3e e62d 48bf 7976 3f3e 47cb 573e
000003b0: eadd 34bf 8c34 553e df00 253e a59e 093e
-0.14818123 0.1405002 0.007384222 0.009869169 -0.24719422 0.16767621 -0.007348791 0.14681765
0.18070474 0.1898769 0.14417306 0.12847178 0.47538796 0.43898192 0.54034674 0.21358506
0.19642964 0.008299126 -0.17768723 -0.18650386 0.2138271 0.1819989 0.14877754 0.20604841
-0.21614146 0.14896247 -0.18072227 0.16066892 0.112984985 0.009462958 0.52020967 0.20069131
-0.18065713 -0.23994416 0.1657953 0.08873254 0.17955329 0.42049107 0.32454574 -0.1713156
0.39322117 -0.22619551 0.15211786 0.40286016 -0.24780141 0.15997586 0.13983727 0.34340295
0.42452997 0.22829217 0.3653505 0.42551434 0.112660035 0.3804643 0.13968489 -0.23657669
0.39599603 -0.18213588 0.053517714 0.20460121 0.023761662 -0.29142392 -0.14740537 -0.15779482
0.16292845 -0.062021103 0.39168972 -0.12436679 -0.0500778 -0.17635947 -0.288396 0.15530491
0.42048287 0.4161723 0.31579402 -0.09637425 -0.19975692 -0.16202219 0.15892449 0.15520097
-0.14795323 -0.18510224 -0.30365476 -0.19330768 0.15399267 -0.10394827 0.1702281 -0.10706919
-0.2814068 -0.16081706 0.15207267 0.038898405 0.16263051 0.16750664 0.1724768 -0.21726821
0.04928499 0.36995187 0.39006647 0.17509493 0.4199829 0.1752653 0.11023792 0.3975328
0.16732351 -0.17092094 -0.13012281 0.4029474 0.4063672 0.2642749 0.41427916 -0.210175
-0.2781845 0.42160416 0.081413575 0.16766253 0.41117054 0.16936879 -0.17843933 -0.19071518
0.27245986 0.21939221 0.25242138 0.26022917 0.19169676 -0.1252412 -0.23337288 0.026871908
-0.14257106 0.18675119 0.21590176 -0.28722465 -0.0768149 0.012559136 -0.2979556 -0.18564583
0.07853003 0.26097277 0.22632226 0.23508748 -0.1267102 0.17875685 0.20673896 0.17769223
0.16215213 -0.025816139 0.21924023 -0.049878146 0.22270371 0.26006868 -0.32855746 -0.29892477
0.23525675 0.1970807 -0.2654611 0.18140474 -0.20453776 -0.18419118 0.2550205 0.22269547
0.13482165 0.17447539 -0.29441965 0.04641783 0.18807572 0.09098352 0.022767901 0.23530377
0.013813485 -0.3507795 0.18338194 -0.12708978 0.22745939 0.1716437 -0.19325127 0.1900484
0.06960224 0.22712836 0.23551257 0.16675983 0.17215191 0.12806265 0.16570887 0.16157405
0.21660528 0.21112771 0.017305288 0.18235527 0.20518632 0.11918415 0.121605195 0.2953392
-0.6520766 -0.7041242 -0.50788593 0.23909937 0.19316344 0.1758612 0.20505594 0.20310389
0.2186158 0.13507603 0.13579296 0.123570465 0.20966832 0.2023659 0.21327145 0.20517838
0.14165513 0.17000622 -0.34363103 0.211363 0.19907251 0.21498668 0.17204353 0.19512594
0.18128777 -0.56333464 -0.7741494 0.20557982 -0.75660104 0.21404281 0.27860567 -0.6939002
0.21350057 0.19900686 0.18081783 -0.7914854 -0.6843122 0.038117494 -0.7638033 -0.005859274
0.1347891 -0.78195035 0.18697537 0.21073638 -0.70651114 0.20820826 0.16113614 0.13439424

fc2.bias f4 [4]
00000000: e21e e9be eb9e e33e 215f bd3e 9331 3c3f
-0.45531374 0.44457182 0.3698664 0.73513144
