MediaPipe_Operation/model_4class/gesture_classifier8.pth (torch, 62272 bytes, 6 tensors)

fc1.weight f4 [76, 150]
00000000: ea0f 0b3c fb0c 23bd 5cb8 1f3d a2a7 083b
00000010: 6193 3f3b 44dd aa3c c4c0 483c c7b6 06bd
00000020: 51f5 1e3d bc89 3fbb 2c36 5b3b 4187 6b3c
00000030: af2d 683c 9162 e1bc 8c09 223d c93d c6bb
00000040: 140a b73b dcbb 793b 3400 543c ffb9 d6bc
00000050: 7ca9 173d 4a6d bcbb 362e 06b9 aaee 8e3b
00000060: 9eb0 ce3b 832c dcbc fc35 dd3c ed5c 3abc
00000070: 5ba4 30bc c641 c93b af31 4c3b f428 b5bc
00000080: 9ac4 ab3c f10b 8a3a bea7 54bc 94e9 103c
00000090: 18a5 883b 30b7 c3bc e751 c03c b5d8 e53a
000000a0: 7500 2bbc be22 293c beb6 d43b 9af4 cdbc
000000b0: ce87 a93c b4bc ebba e7bb 14bc ed58 6c3c
000000c0: 676b f23a 285a 71bc 531c 773c 63a9 833a
000000d0: 56b6 80bb b61d 803c 4f9a df3a 8525 6ebc
000000e0: 336d 413c d7ca 36bb 84cd c5ba f729 853c
000000f0: f651 223b 5e20 2bbc be0e 2e3c c69a 2d3b
00000100: 340c 993a 476c 7c3c 1794 903b 4767 61bc
00000110: 6ee8 5f3c 4205 afbc ae19 863b bdc9 d03b
00000120: c5b3 7f3b daf6 93bc 9b21 563c e29b 01bd
00000130: 6937 5cbb f2b8 2a3b 3923 943b 4ec9 8ebc
00000140: 2899 843c 62a2 cebc 4f00 a1ba d0c9 933b
00000150: 7c34 713b 340e 94bc dd13 893c 2257 80bb
00000160: 66cd c3bb 6220 4f3c dbe3 963b 0806 99bc
00000170: 4195 933c ed34 88bc b4c2 97bb ac87 803c
00000180: f967 a23b 601c 85bc 086b 9f3c 71f7 93bc
00000190: dff7 02bc ff4d 7e3c a9fb 1e3c 8063 c9bc
000001a0: 2b44 e73c 638a f8bb 037e 1fbc ee34 323c
000001b0: 9bb0 433c 66f8 d9bc 7236 013d b0b2 c73a
000001c0: f9fa 50bb 4881 ee3b aa80 2b3c 7eb7 acbc
000001d0: c10b e93c edb7 01bb 7ed0 b7bb 1b0f c33b
000001e0: 9e3c 643c 0888 afbc 9cc4 0e3d 86a7 24bc
000001f0: 04a9 afba d1a3 f33b bde3 753c dfce 93bc
00000200: 38ff 2d3d ca14 46bb 8c16 2f3b dee8 fd3b
00000210: f06a 9c3c dd5d 9bbc 626c 343d af2f 67bc
00000220: 2036 743b f66e 813b 6595 823c 02b7 cebc
00000230: dcc2 1e3d 7da5 acbc 8926 1dbb 5be6 d43b
00000240: 4f28 963c 2d24 1abd 688f 283d 2405 99bc
00000250: 7a8e 4fbb 60f0 813c d946 16bd 9205 87bc
00000260: de2b 50bc a1ef cf38 ff69 24bd 1b67 533c
00000270: a868 dfbc 2ff1 9dbb a085 4fbc 762a 91ba
00000280: 37b8 18bd 6f7e 893c 9ae7 c3bc d5d7 ccbb
00000290: 684a 20bc c527 dbbb 1f98 e2bc 8dc7 573c
000002a0: 87ec a9bc 2cf3 dbbb f0f2 c4bb 2c0f 2c3b
000002b0: fd9b c0bc 51b5 9a3c 381b a5bc 50ce 1abc
000002c0: 2849 e83a 9a3b 433a 70b2 98bc 977b 4a3c
000002d0: e0e3 95bc 8226 c4bb 70ba 583b 4ec3 81bb
000002e0: ea2b 8cbc e7b8 1a3c bd8f 93bc f858 04bc
000002f0: 6f9b 283c ac97 6f3c 9ec6 6cbc e9f8 073c
00000300: 00e6 73bc b87a f1bb cda8 4b3c 39c9 0b3c
00000310: 30a7 36bc 56d0 223c c39d 63bc 94cd aebb
00000320: e489 603c ac94 b43b 767f 3cbc fec4 643c
00000330: 67c7 55bc d7fa 48bb 43f7 733c 23e4 b63a
00000340: d676 22bc 35ff 783c c673 4fbc 71b1 7cbb
00000350: df0c 8b3c 088c a23b 7e7a 45bc a83c 9b3c
00000360: 50dc 35bc a974 32bb 9eb5 863c 2f6b 6cbc
00000370: b2f9 35bc 3571 a13c 410a 30bc 1665 61bb
00000380: 992a 2a3c 9242 20bd 10e1 9fbc 0603 6e3c
00000390: 156e 2fbc 355c daba a79b 843c 8536 98bc
000003a0: e212 6ebc a1fb 8e3c 2eb2 58bc 8a73 6cbb
000003b0: cb8d 803c 02b3 f5bb eb7d 8dbc d219 6e3c
000003c0: 1136 60bc c5dd 7abb 405f 563c 0af7 74bc
000003d0: 0744 6bbc a4f8 643c f86f 7ebc 1e53 79bb
000003e0: b613 5b3c 35d3 bfba 027d 6dbc b10d 523c
000003f0: 1309 91bc 97c2 19bb 2f9b 303c 64bb 953b
0.008487681 -0.0398073 0.03899418 0.002085187 0.0029232132 0.02085746 0.01225299 -0.032889154
0.03880817 -0.0029226383 0.0033449037 0.014375509 0.014171048 -0.02751282 0.039559886 -0.006049846
0.005585918 0.0038106358 0.012939502 -0.026211737 0.037026867 -0.005750333 -0.00012796451 0.004361947
0.0063076755 -0.026876694 0.02700328 -0.011374694 -0.010781373 0.006141874 0.0031157543 -0.022114255
0.02096777 0.0010532123 -0.012979446 0.008844752 0.0041700713 -0.023891062 0.023476554 0.0017535897
-0.010437121 0.010323225 0.006491511 -0.02514105 0.02069464 -0.0017985315 -0.009078003 0.014425498
0.0018495143 -0.014730968 0.015082437 0.0010044988 -0.003927986 0.015639167 0.0017059537 -0.014535313
0.01180582 -0.0027891898 -0.0015091156 0.016255362 0.002476809 -0.010444729 0.010623632 0.0026489957
0.001167661 0.015406675 0.004412185 -0.013757533 0.013666255 -0.021364812 0.0040924167 0.0063717053
0.0039017063 -0.018062044 0.013069536 -0.031642802 -0.0033602363 0.0026050177 0.0045208004 -0.017429974
0.016186312 -0.025223915 -0.0012283417 0.004510142 0.0036804965 -0.018073179 0.016733104 -0.003916637
-0.005975413 0.012641998 0.004604799 -0.018679634 0.018015506 -0.0166268 -0.0046313647 0.015689693
0.004956242 -0.016248882 0.019460216 -0.018062325 -0.007993667 0.015521525 0.009703555 -0.024583578
0.028230747 -0.0075848564 -0.009734633 0.010876877 0.0119439615 -0.026607703 0.031546064 0.0015235748
-0.0031887873 0.007278595 0.010467688 -0.02108359 0.028447988 -0.0019793466 -0.005609571 0.0059527284
0.013930468 -0.02142717 0.03485547 -0.010049706 -0.0013401811 0.0074353 0.01500791 -0.01804298
0.042479724 -0.0030224794 0.002671632 0.007748707 0.01909396 -0.018965656 0.044048674 -0.01411049
0.0037263706 0.003949995 0.015940377 -0.02523375 0.03876005 -0.021075005 -0.0023979268 0.006497187
0.018329768 -0.037632156 0.041152388 -0.018679209 -0.0031670616 0.01586169 -0.03668866 -0.016482148
-0.012705771 9.9151635e-05 -0.04014015 0.012903 -0.027271584 -0.004820011 -0.012666136 -0.0011075276
-0.037285056 0.016783921 -0.023914147 -0.006251315 -0.009783365 -0.0066880905 -0.027660428 0.013170135
-0.020742668 -0.006712338 -0.0060104057 0.002625416 -0.023511881 0.018885287 -0.02015458 -0.009448603
0.0017721998 0.0007447541 -0.018639773 0.012358568 -0.018297136 -0.005986036 0.003307011 -0.0039600497
-0.017110784 0.009443498 -0.018012876 -0.008077852 0.0102909645 0.014623564 -0.014451651 0.008299091
-0.014886379 -0.0073693655 0.012430382 0.008531862 -0.011148259 0.0099373665 -0.013892594 -0.0053345654
0.013704751 0.005510887 -0.011504998 0.013962982 -0.0130480295 -0.003066709 0.014890495 0.0013953488
-0.009916028 0.015197565 -0.01266188 -0.0038557912 0.01697391 0.0049605407 -0.01205313 0.018949822
-0.01109989 -0.002723018 0.016444024 -0.014429851 -0.011106895 0.019707302 -0.010744632 -0.0034392527
0.010386133 -0.039125986 -0.019516498 0.014527088 -0.010707398 -0.001665956 0.016187502 -0.018580684
-0.014530869 0.01745397 -0.013226075 -0.0036079609 0.015692612 -0.007498146 -0.017271956 0.014532523
-0.013684765 -0.0038279158 0.013084233 -0.014951477 -0.014359481 0.013975296 -0.015529625 -0.0038043926
0.013371399 -0.0014635088 -0.014495136 0.012820647 -0.017704522 -0.0023461932 0.010779186 0.004569458

fc1.bias f4 [76]
00000000: 143d eabc ce6c a6bc f065 27be d853 cf3d
00000010: 3ac6 6ebc d646 48bd ed47 35bc e70b 1ebc
00000020: 260c 7fbd 5c0d 05bd bc1c adbd 1ed9 df3b
00000030: cc77 51bc 76bc 9ebc b59e 7dbd 7b1b abbc
00000040: 4d4b 37bd 9b2c 35bc 0d0a a1bd ba7f 6bbd
00000050: fcad 413c 78d0 e7bc 0cc5 a9bc 7b37 3cbe
00000060: c1ca 78bd 7041 21bd 95af c8bd 438d 11be
00000070: cedb 18bc daa8 3bbc 9ae3 c1bd 280d c1bd
00000080: af5c 8ebd 6208 46be 7de7 3abe 1769 00bd
00000090: 9cc6 3d3c b62f d83d c862 de3d 4d77 d4bc
000000a0: f569 4dbd f53a 8fbd 296a aebc d7ac 54bc
000000b0: 3160 a3bd e4b8 3a3c b163 a9bd 1d84 753b
000000c0: 2520 e0ba 4455 99bd 8c83 00be 2173 c43c
000000d0: 4c63 d6bd 462a f4bd 5d9b 38bc 5087 5939
000000e0: 65ce 2dbe a2ad 83bd 2de6 72bd 7120 98bd
000000f0: b1f7 8fbd a61d a5bd 8f49 a739 dd6d b6ba
00000100: da6f 94bc 52de 67bc 1dcb c7bc fc89 f6bd
00000110: e007 cf3d b4e6 133e b12e 72bd d7bc 07bd
00000120: 9d74 8abd 3964 51be 20fb c6bd f905 133d
-0.028593577 -0.020315554 -0.1634748 0.10123414 -0.014573628 -0.04889568 -0.011064512 -0.009646392
-0.062267445 -0.032483444 -0.08452746 0.0068313023 -0.012784909 -0.019376975 -0.061918933 -0.020887127
-0.044749547 -0.011057998 -0.07863245 -0.057494856 0.011821266 -0.028297648 -0.020723842 -0.18380539
-0.060740236 -0.039369047 -0.097991146 -0.14214043 -0.009329749 -0.011453832 -0.0946724 -0.094263375
-0.06951272 -0.19339135 -0.18252368 -0.03135022 0.011582997 0.10555975 0.10858685 -0.025935793
-0.050149877 -0.06993667 -0.021290855 -0.012980661 -0.079773314 0.01139662 -0.08270968 0.003746278
-0.0017099424 -0.07486966 -0.12550181 0.023980679 -0.10468158 -0.119221255 -0.01126751 0.0002074514
-0.16973265 -0.06429602 -0.059301544 -0.07428063 -0.07029665 -0.080622956 0.00031907528 -0.001391824
-0.018119741 -0.014152126 -0.024388844 -0.12038037 0.10108924 0.14443475 -0.05912656 -0.033139076
-0.067605235 -0.20448388 -0.09715867 0.035894368

fc2.weight f4 [43, 76]
00000000: cf3e 0a3d 9b72 1a3c 0eb9 a73d 833e 90bd
00000010: f4d7 ad3c 9990 393d 61a2 163c 1714 1cbc
00000020: 7fee c03c 16d5 ce3a 3b91 823d 501b a2bc
00000030: b4e5 62bc bd34 853c e933 653d c1dd 20bc
00000040: 5f5d c03c 4aa5 b7bc 39fc a83c d907 0d3b
00000050: 9365 4abd 637f aabc 0c08 e03c c003 b53d
00000060: 24e8 a03c a659 9a3c 0cd9 763c 18f4 a43d
00000070: ca92 ea3b f78f 1cbd 48e2 0f3d d4c0 f53c
00000080: 3cc9 243d 4a5e bb3d b8b4 b73d 7f41 28bc
00000090: 86da 5fbd 639f 91bd 0c30 89bd c3b7 75bb
000000a0: e184 4f3d 2e8f 843d 8fa1 0bbc 29b8 233d
000000b0: 0338 e13c 9dcb dabc defd 713d 99e7 49bd
000000c0: b712 d43a a91f 343d bfc9 b83c d853 48bd
000000d0: da09 a93c 8e49 a13d 46cb 21bd 8e5c 88bc
000000e0: 3552 b23d 4850 893c f174 873c c696 5a3d
000000f0: b7a1 8f3c 3e42 0d3d 86dc 9e38 ffe3 eebb
00000100: 3f2c 44bc 0f2d 2c3c 3b67 013d 2105 be3d
00000110: df3c 4ebd 714b 60bd 4d2c f93c 3b7c 083d
00000120: df40 7d3d 78a6 c63d 5ff8 173d 1f0f ddba
00000130: f2d0 023d 186d 103d c929 8bbc b9bf 343d
00000140: 9af2 a03c 06f6 113d de76 823a 145b 333d
00000150: d026 513d e68f 9b3d 1bb2 4bbb 8324 04bd
00000160: a35b 6f3d 0b92 b43c 1f2c 883c 5916 4bbd
00000170: 4ef0 d1ba ad78 47bd 6d5c d1bd 9258 dcbd
00000180: ea83 af3c 4060 82bc c256 e63c ec54 3abc
00000190: 9527 dc3c 6c57 913d 3650 08be c732 50bd
000001a0: afdd 0d3b 0f95 9bbc 7169 4a3d 066b f5bd
000001b0: cdf3 96bc 3b70 fcbc 4aa1 38bd 5c90 693d
000001c0: d6b2 103d 3838 0c3d f390 a73c b1f6 2f3d
000001d0: 338f f23b e4f5 893c 5201 5b3d 1d9b e03c
000001e0: 74f4 673d 2876 45bc 90b8 9cbd 3ee8 d9bc
000001f0: fa87 8a39 757c d4bd 42c3 07be 5cea 933d
00000200: d422 c6bd 307c 043d f3c0 f8bc a287 3e3d
00000210: d239 93bc 2174 353d d335 7f3d 3eea 63bd
00000220: 03ef e6bd c996 1f3d 171a b1ba ea95 e53c
00000230: ae0a 233d 01da 9aba 590b e33c 4c22 68bd
00000240: b9b3 6b3d a386 d43c 78be 47bc fcba e7bd
00000250: 8462 a93c 1ff4 20bd 6bb7 f6bd e15f 8f3d
00000260: b524 2b3d b1bd 043b 4ffa ae3d d370 8cbd
00000270: 9f8d f93c 35db 553d f60a 383c 4f70 20bc
00000280: 0fe7 eb3c fcaf 733a 30fb 713d fc6f 81bc
00000290: 0294 6abc 059c ae3c a53b 423d 9100 d4bb
000002a0: b7c0 ab3c 5424 86bc da01 c93c 6607 f8bb
000002b0: 0fb6 3abd 2357 6fbc 8938 ed3c db1d 9d3d
000002c0: 0f25 a23c ef12 4d3c fea6 b73c ee77 a53d
000002d0: ddf1 1d3c ec9e 14bd caef 013d 1ddb d43c
000002e0: 6575 133d 492b cb3d 504c b23d 53c4 72bc
000002f0: 4b02 4cbd a18d 91bd 7599 70bd d58e 91bb
00000300: 26e2 603d 7db0 773d 6417 39bc 804b 183d
00000310: e69a 083d e5a7 e2bc 2cab 843d 4895 1bbd
00000320: e0df 693b e2ce 3e3d 2668 043d 2c27 3abd
00000330: c535 183d 1c65 8f3d 5238 2abd 07be 74bc
00000340: baf1 ab3d 4d57 a13c 5dcd c13c dec5 6f3d
00000350: 2e82 9a3c 6d69 0f3d b719 abb8 bb65 c8bb
00000360: a01c 1dbc 9627 573c 0897 123d 9549 ae3d
00000370: d255 60bd 11aa 88bd fdd1 023d b5ab ef3c
00000380: d0ef 743d 99b2 c23d 3ac1 f63c afc8 0ebc
00000390: 14dd 173d 9dfb eb3b e1d7 9f3d 14dd 91bd
000003a0: f309 d53c f5b5 543d dded 0c3c 73cd 56bb
000003b0: 7966 be3c d71f e73b a812 733d ee9b c4bc
000003c0: 6432 c3bb e2b7 cf3c ec6e 563d 409d 78bc
000003d0: bc66 bd3c 51d9 9fbc c259 b83c ccea a4ba
000003e0: ab23 30bd 8133 98bc 64ae f83c 63f0 af3d
000003f0: d6fa e33c 9751 783c c66d e23c 8bef 9a3d
0.033751305 0.009426738 0.08189593 -0.07043173 0.021221139 0.045303915 0.009193988 -0.009526274
0.023551224 0.0015780057 0.06375357 -0.019788414 -0.013848711 0.0162605 0.05595771 -0.009818495
0.023482023 -0.022417683 0.020628082 0.002151957 -0.049413275 -0.020812696 0.027347587 0.08838606
0.019641943 0.018841576 0.015066396 0.0805437 0.007158612 -0.038223233 0.035127908 0.029999174
0.040230975 0.091488436 0.08970016 -0.010269522 -0.05465176 -0.07110479 -0.06698617 -0.0037493564
0.050663833 0.06472622 -0.008522405 0.03997055 0.027492529 -0.026708419 0.059079997 -0.049293134
0.0016179894 0.043975506 0.022557138 -0.048908085 0.02063458 0.078753576 -0.039500497 -0.016645696
0.08707086 0.016761914 0.016535254 0.053366445 0.017533166 0.034487 7.575103e-05 -0.007290363
-0.01197344 0.01050879 0.03159259 0.09278322 -0.05035102 -0.054759447 0.030416632 0.0333216
0.061829444 0.0969972 0.0371021 -0.0016865468 0.031937547 0.03526029 -0.016987698 0.044128153
0.019646931 0.035635017 0.0009953638 0.04378803 0.051062405 0.07595806 -0.00310815 -0.032261383
0.058437 0.022042295 0.016622601 -0.04958186 -0.0016017051 -0.04869907 -0.10222707 -0.10759081
0.021425206 -0.015915036 0.028117541 -0.011372786 0.026874343 0.070967525 -0.13311848 -0.050829675
0.0021647026 -0.018991975 0.049416963 -0.11983304 -0.0184268 -0.030815234 -0.045075692 0.057022437
0.0353268 0.034233302 0.02045486 0.042959873 0.0074023246 0.016840883 0.053468056 0.027417714
0.056629613 -0.012052096 -0.0765239 -0.0266 0.00026422722 -0.10375301 -0.13258079 0.07222435
-0.09674612 0.032344997 -0.030365443 0.04651607 -0.017971907 0.044300202 0.06230719 -0.055643313
-0.112760566 0.03896216 -0.0013511804 0.028025586 0.039805107 -0.0011814238 0.027715372 -0.056673333
0.057544444 0.025943106 -0.012191407 -0.11314961 0.020676859 -0.039295312 -0.12046703 0.07000709
0.041783053 0.0020254666 0.08543836 -0.06857457 0.030463038 0.052211005 0.011233082 -0.009792401
0.0287967 0.0009295938 0.05907744 -0.015800469 -0.014317514 0.02131463 0.047420163 -0.006469794
0.020965917 -0.016374744 0.024537016 -0.0075692413 -0.04558378 -0.014608177 0.028957622 0.0767171
0.019793062 0.012516721 0.022418495 0.080795154 0.009640184 -0.036284372 0.03172282 0.025983388
0.036000628 0.09920365 0.08705962 -0.014817315 -0.049806874 -0.07107092 -0.058740098 -0.0044420757
0.054903172 0.060471047 -0.011297081 0.037181377 0.033350848 -0.027667949 0.06477961 -0.037984163
0.0035686418 0.046584018 0.032325886 -0.045447513 0.037160654 0.07001707 -0.041557617 -0.014937884
0.08395715 0.019694949 0.023657495 0.05853831 0.018860903 0.03501265 -8.158705e-05 -0.006115643
-0.009589344 0.013131997 0.035788566 0.085101284 -0.054769345 -0.066730626 0.03193854 0.029256681
0.059799016 0.09506721 0.030121434 -0.008714839 0.03707607 0.0072016255 0.078048475 -0.071222454
0.02600572 0.05193134 0.008601633 -0.0032776266 0.023242222 0.007053356 0.059343964 -0.024000134
-0.0059569348 0.025356237 0.052351877 -0.01517421 0.023120277 -0.019512804 0.022503737 -0.0012582182
-0.043002766 -0.018579246 0.030356593 0.08590772 0.027829569 0.015156171 0.027640235 0.075652204

fc2.bias f4 [43]
00000000: df37 c8bd 4339 9d3d dfce cfbd 7c74 b2bd
00000010: 8812 e5b0 bcd2 533d 308e 673e 3389 1c3e
00000020: debd 793e 6074 923d cf3c 3a3d aa07 ccbd
00000030: 0651 8e3d c843 c1ab 901a b6bd d8fa cbbd
00000040: 8123 c7bd 14ef 923d a353 4a3d 7e58 c2bd
00000050: eb50 cbbd 2c88 8e3d 5822 aabd db1b 793e
00000060: 622f 583d 6ec3 173e 97b0 a33d 28aa 6b3d
00000070: d972 073e 4793 c8bd 20c2 7f3d 5985 6d3d
00000080: 9088 4a3d 0b14 963d 11ce 9ebd 16b8 7b3e
00000090: 90f8 993d d10e d1bd 689b 153e 6c72 613d
000000a0: 9c97 bcbd 429a d3bd 6e94 babd
-0.097762816 0.076769374 -0.101468794 -0.08713624 -1.666721e-09 0.051714644 0.22612834 0.15286712
0.24388835 0.07151103 0.045468148 -0.09962399 0.06949048 -1.3732288e-12 -0.08891785 -0.09959954
-0.09723569 0.07174507 0.04939617 -0.09489535 -0.09927543 0.069595665 -0.08307332 0.24327032
0.052779563 0.14820644 0.07992666 0.05753532 0.13227405 -0.09793716 0.06244099 0.0579885
0.049446642 0.07328042 -0.07754148 0.24581942 0.07518113 -0.10207904 0.14610064 0.05504076
-0.09208605 -0.10332157 -0.09110342

fc3.weight f4 [3, 43]
00000000: d8cd 8a3e 0f06 a5bd a94b 8c3e 4cad 873e
00000010: 3024 f53a ff5a 303e 1ad8 d2be 1c01 1fbe
00000020: ebf1 ddbe 712e 7ebd 8d06 3d3e ad94 983e
00000030: 6891 77bd ac4c 06ba 5594 873e b97b 963e
00000040: d033 8d3e e7c6 8cbd b8d7 3e3e d5f4 8b3e
00000050: 8ccd 973e 40af 9ebd 2c03 833e 1c89 debe
00000060: 8cfe 2e3e 521c 02be d15f a5bd 8f84 423e
00000070: 8ee0 b3bd 9924 8e3e bbad 3cbd d460 e1bc
00000080: 20dd 5639 56b7 92bd bde4 663e 473a dcbe
00000090: b895 a3bd 73db 943e e419 21be af89 353e
000000a0: 0645 8f3e 5bff 953e 7f92 883e 09f6 4abe
000000b0: 8b4f 96be 2b09 47be da7f 47be 2591 8839
000000c0: 60a8 433e 0d0e 383e 576c af3e 3d9f 433e
000000d0: 65e3 9bbe dee6 393e 3aa7 5cbe 86b1 9cbe
000000e0: e499 153a 4f39 30be ce24 55be 43d2 31be
000000f0: 420f 9bbe 57b8 563e 3db3 6abe c600 68be
00000100: c30c 91be 5645 51be 4388 363e 7f26 2b3e
00000110: 02fa ac3e 80c9 95be ae93 443e a7e8 a23e
00000120: f722 44be e2fe 9ebe 1d29 97be ba3b 9fbe
00000130: 937b 94be 0882 4fbe b578 493e 2001 9abe
00000140: c105 65be c97f a93e c4f6 4a3e e512 4bbe
00000150: 6c88 60be ba8d 4fbe 1f7c b7bd 5401 ba3e
00000160: 2769 c3bd b7ac aebd 612d 8a36 0820 ddbe
00000170: 5a34 4e3e ce7b 4fbe a64e 493e 3ebb b53e
00000180: e92f ddbe 9ca0 abbd 1ad7 ae3e 6ac4 06b7
00000190: 5e05 c9bd e255 c8bd e385 cabd 3d01 b93e
000001a0: 88c7 ddbe 90d6 91bd 657f bdbd dcdc b43e
000001b0: 1117 9bbd 6628 463e 4d28 dcbe bb98 63be
000001c0: 923e bd3e 0d9f e3be 4340 79be ff39 cbbd
000001d0: 7476 aa3e 7de1 a03e 718f 8f3e f69f af3e
000001e0: d69c 7ebd 3694 383e 85fd bb3e b939 b6bd
000001f0: 3a24 3cbe 294f dfbe 2a5b b8bd 1ab6 babd
00000200: 6e19 babd
0.2711017 -0.08057796 0.27401474 0.26499403 0.0018702801 0.17222212 -0.41180497 -0.15527767
-0.4334863 -0.06205601 0.1845953 0.2980093 -0.060441405 -0.00051231193 0.26480356 0.29391268
0.27578592 -0.06873875 0.18636978 0.2733523 0.29649007 -0.0774827 0.25588357 -0.4346398
0.1708929 -0.12706116 -0.08074916 0.1899588 -0.08783065 0.27762297 -0.04606412 -0.027511992
0.00020491006 -0.07163875 0.22548194 -0.43013212 -0.07987541 0.29073676 -0.15732533 0.17728303
0.27982348 0.29296383 0.26674268 -0.19820417 -0.2935756 -0.19437091 -0.19482365 0.00026048083
0.19107199 0.1797411 0.34262344 0.19103713 -0.30446926 0.18154475 -0.21548167 -0.3060419
0.00057068304 -0.17209361 -0.20814821 -0.17365365 -0.30285078 0.20968758 -0.22919936 -0.22656545
-0.2833005 -0.20436606 0.17825417 0.16713904 0.3378449 -0.29255295 0.1919696 0.31818125
-0.19153963 -0.31053835 -0.29523554 -0.31100255 -0.2900053 -0.20264447 0.19674952 -0.30078983
-0.22365476 0.33105305 0.19820696 -0.19831426 -0.21927041 -0.20268908 -0.08959221 0.36329138
-0.095415406 -0.085290365 4.1180033e-06 -0.431885 0.20137158 -0.20262071 0.19658908 0.35494417
-0.43200615 -0.08380243 0.34148484 -8.032754e-06 -0.09815477 -0.09782006 -0.09888818 0.36133757
-0.43316293 -0.07121003 -0.09252814 0.35324752 -0.07572759 0.19351348 -0.42999497 -0.22226231
0.369618 -0.44457284 -0.2434092 -0.09923171 0.33293498 0.31422034 0.28039125 0.34301728
-0.06216129 0.18025288 0.36716858 -0.088977285 -0.18373194 -0.43615082 -0.09001763 -0.09116764
-0.090868816

fc3.bias f4 [3]
00000000: e9ca 26bf 91ff e53e ac62 583e
-0.65153366 0.44921544 0.2113139
