MediaPipe_Operation/model_4class/gesture_classifier4_without.pth (torch, 44432 bytes, 6 tensors)

fc1.weight f4 [76, 90]
-0.0018871622 0.04856009 0.08222186 0.03548978 -0.028851964 -0.07674947 -0.009176002 0.030930508
0.06322817 0.04794489 -0.04903812 -0.06567565 -0.017898025 0.02091644 0.04307617 0.06079184
-0.05865932 -0.059469596 -0.023626737 0.015545882 0.02627968 0.073216505 -0.07014372 -0.045426622
-0.023278613 0.007174344 0.021938533 0.04684479 -0.06395062 -0.061343957 -0.032652173 0.015399729
0.02374887 0.05924371 -0.051920004 -0.057914507 -0.040626734 0.009243195 0.011708779 0.054775782
-0.05737444 -0.05315767 -0.034160778 0.00073694286 0.003388421 0.011804784 -0.040581908 -0.04793482
-0.024459824 0.0063423617 0.0054512504 -0.029883416 -0.024863739 -0.04314583 -0.011957156 0.009601173
0.0041568773 -0.06542615 -0.008028957 -0.0402938 -0.00847433 -0.004260712 -0.002585471 -0.07252739
-0.004844136 -0.02161975 0.002792873 4.647318e-06 0.0028137013 -0.048882674 0.011267601 -0.009413542
0.013780363 0.0034837045 0.011713305 -0.047213145 0.018945795 -0.019143896 0.027206248 0.020906057
0.021232493 -0.03256385 0.02269111 -0.023785818 0.03800286 0.043941885 0.036820263 -0.006963032
0.032279596 -0.034280356 0.054067597 -0.04988691 -0.06700284 0.00033941912 -0.0071308753 -0.005569766
0.054941844 -0.042976044 -0.065238155 -0.0054975846 -0.0060011023 -0.00998076 0.05569029 -0.03740265
-0.057170752 -0.0007783709 -0.005140705 -0.016991066 0.057483554 -0.034318123 -0.053871952 0.0027625456
-0.00010131917 -0.016560705 0.05854688 -0.030823885 -0.052461985 0.011625199 0.0036033825 -0.013068766
0.06109086 -0.026629398 -0.049984455 0.0009771987 0.0045956927 -0.010524997 0.063636035 -0.02900027
-0.04620815 0.0083197765 0.0080934875 -0.00911859 0.06499201 -0.026842732 -0.04026434 0.014544663
0.008995353 -0.008709353 0.06490977 -0.03001275 -0.04228953 0.01165119 0.0074559893 -0.011767796
0.06269849 -0.031489752 -0.04765579 0.0074811536 0.0011188553 -0.010277817 0.063618466 -0.038017094
-0.050470445 0.00419728 -0.0013257968 -0.011642812 0.058971506 -0.042383227 -0.053933136 -0.0025968587
-0.002101727 -0.016053447 0.054537386 -0.04992167 -0.05601127 0.0014607118 -0.004558824 -0.010856578
0.055050317 -0.056231707 -0.05935581 -0.009507994 -0.002326843 -0.0076839104 0.052223742 -0.06355615
-0.060989194 0.0018626864 -0.0075830766 0.0028369918 -0.0030095938 -0.0016658818 -0.0008429064 -0.0018087537
0.002867161 -0.002571908 -0.0037069363 -0.0011437323 -0.0014724864 -0.0017116838 0.0028279088 -0.0025100326
-0.0041085756 -0.0005925236 -0.0018458131 -0.0020262813 0.002662701 -0.002242548 -0.004380545 -0.0004409934
-0.002148643 -0.0023502654 0.0022885946 -0.002080967 -0.0045384844 -0.0007408967 -0.0020835346 -0.0018678029
0.0020494591 -0.0014342624 -0.004726942 -0.00039739086 -0.0021369609 -0.0012914209 0.0018036374 -0.0011223563
-0.0045457147 -0.00026302994 -0.0017665804 -0.0009576193 0.002229305 -0.0012352316 -0.004546582 -7.472918e-05
-0.001453149 -0.00040869304 0.002078905 -0.0012492356 -0.0044565764 -0.00054302946 -0.001531232 -0.0012917197
0.0021340547 -0.0014215086 -0.0043641725 -0.0011408738 -0.0018256154 -0.0023116674 0.0018170361 -0.0013434584
-0.0039601037 -0.0011389917 -0.0017246691 -0.0029805154 0.0020673499 -0.0017702382 -0.0037776427 -0.0010231768
-0.0015920468 -0.0036734517 0.002087453 -0.0026407046 -0.003488002 -0.0012659638 -0.0012793974 -0.0031066828
00000000: a85a f7ba f2e6 463d ef63 a83d bb5d 113d
00000010: f45a ecbc d32e 9dbd f156 16bc fa61 fd3c
00000020: c57d 813d dc61 443d 32dc 48bd f580 86bd
00000030: e19e 92bc f458 ab3c a370 303d dd00 793d
00000040: c144 70bd 6496 73bd dc8c c1bc 28b4 7e3c
00000050: 7c48 d73c 89f2 953d 83a7 8fbd 4411 3abd
00000060: cab2 bebc c216 eb3b 70b8 b33c 53e0 3f3d
00000070: 8bf8 82bd cd43 7bbd 49be 05bd 254f 7c3c
00000080: fd8c c23c 88a9 723d 12aa 54bd c337 6dbd
00000090: 3868 26bd c570 173c 2ed6 3f3c 925c 603d
000000a0: 7601 6bbd dbbb 59bd 2cec 0bbd 662f 413a
000000b0: 4510 5e3b da68 413c 3739 26bd 4d57 44bd
000000c0: f85f c8bc 96d3 cf3b 67a0 b23b 11ce f4bc
000000d0: 0aaf cbbc afb9 30bd f2e7 43bc 3d4e 1d3c
000000e0: 6a36 883b 25fe 85bd e38b 03bc 1d0b 25bd
000000f0: ebd7 0abc 719d 8bbb 0171 29bb 3e89 94bd
00000100: 8fbb 9ebb e71b b1bc a208 373b 28f0 9b36
00000110: 1366 383b 3339 48bd be9b 383c 423b 1abc
00000120: 08c7 613c dd4e 643b 29e9 3f3c 9262 41bd
00000130: 3634 9b3c a9d3 9cbc a3df de3c 2e43 ab3c
00000140: c4ef ad3c ac61 05bd b5e2 b93c 7ada c2bc
00000150: e3a8 1b3d 68fc 333d d8d0 163d 252a e4bb
00000160: 9c37 043d 8f69 0cbd fc75 5d3d 3756 4cbd
00000170: c938 89bd 10f4 b139 1eaa e9bb 9582 b6bb
00000180: b30a 613d a607 30bd 959b 85bd 1525 b4bb
00000190: e5a4 c4bb 5786 23bc 801b 643d 8533 19bd
000001a0: e12b 6abd 960b 4cba 5c73 a8bb d930 8bbc
000001b0: e073 6b3d 2991 0cbd d6a8 5cbd d30b 353b
000001c0: 517b d4b8 51aa 87bc dace 6f3d 5f82 fcbc
000001d0: 61e2 56bd 9e77 3e3c ba26 6c3b 611e 56bc
000001e0: 693a 7a3d e525 dabc 80bc 4cbd 5915 803a
000001f0: 7797 963b 0971 2cbc 9c53 823d f991 edbc
00000200: c244 3dbd ac4f 083c 8c9a 043c 2366 15bc
00000210: 881a 853d 4ae5 dbbc 38ec 24bd bd4c 6e3c
00000220: 3f61 133c adb1 0ebc 6aef 843d 4cdd f5bc
00000230: c937 2dbd a2e4 3e3c 5f51 f43b b7cd 40bc
00000240: 1168 803d 66fb 00bd b832 43bd 7724 f53b
00000250: 8ea6 923a 4a64 28bc 664a 823d d0b7 1bbd
00000260: 19ba 4ebd 5689 893b 5cc6 adba 7ec1 3ebc
00000270: 1b8c 713d 099a 2dbd fee8 5cbd 0f30 2abb
00000280: 21bd 09bb 8582 83bc 9862 5f3d aa7a 4cbd
00000290: 136c 65bd 5b75 bf3a 3062 95bb cadf 31bc
000002a0: 717c 613d 3853 66bd 141f 73bd 6bc7 1bbc
000002b0: f37d 18bb 50c9 fbbb 90e8 553d ba29 82bd
000002c0: cecf 79bd 6225 f43a 757b f8bb d3ec 393b
000002d0: 9b3c 45bb b859 daba 7ef6 5cba b413 edba
000002e0: fbe6 3b3b 758d 28bb 12f0 72bb 4ae9 95ba
000002f0: 7200 c1ba 945a e0ba 7054 393b 5c7f 24bb
00000300: 3ba1 86bb 9653 1bba 36ef f1ba 5ccb 04bb
00000310: b680 2e3b b6f7 12bb ad8a 8fbb 2235 e7b9
00000320: 3fd0 0cbb e906 1abb 3ffc 153b d560 08bb
00000330: 91b7 94bb bc38 42ba e98b 08bb 11d1 f4ba
00000340: 3850 063b dcfd bbba 77e4 9abb e658 d0b9
00000350: 410c 0cbb e544 a9ba 0768 ec3a 071c 93ba
00000360: 38f4 94bb 48e7 89b9 9a8c e7ba be08 7bba
00000370: 8819 123b 7fe7 a1ba 7efb 94bb ecb7 9cb8
00000380: 9777 beba da45 d6b9 3d3e 083b 64bd a3ba
00000390: 7908 92bb 175a 0eba 9fb3 c8ba ec4e a9ba
000003a0: 7fdb 0b3b ea51 baba 5501 8fbb 5f89 95ba
000003b0: 7d49 efba 587f 17bb 9d29 ee3a fc16 b0ba
000003c0: c2c3 81bb 384a 95ba 4b0e e2ba c054 43bb
000003d0: 607c 073b 5607 e8ba 5492 77bb 1e1c 86ba
000003e0: 3aac d0ba 4bbe 70bb a6cd 083b ac0f 2dbb
000003f0: f796 64bb b2ee a5ba 74b1 a7ba 7d99 4bbb

fc1.bias f4 [76]
0.058368504 -0.045928065 -0.0052337167 -0.021212496 0.13363814 0.013054774 -0.07842777 -0.0026975006
-0.06783629 -0.0010054233 0.014565757 -0.03817604 0.0050421166 -0.012488951 0.06471001 -0.09380895
-0.0018710142 -0.04147587 -0.0037774458 0.2284982 -0.0108873015 0.03033145 -0.09893865 0.040729333
-0.10609735 -0.0015769115 -0.0030987724 0.004882285 -0.037854522 -0.0024942018 -0.068550386 -0.027826656
-0.10325705 -0.07537461 -0.06501002 -0.0033187557 -0.16854976 -0.009546039 -0.04497324 0.0038072127
-0.01925956 -0.004055553 -0.0019874454 -0.0033751107 -0.15974115 -0.14699383 0.0031873076 -0.004942964
-0.0060222386 -0.10879098 -0.08341908 -0.04776253 0.0002526394 -0.01897795 -0.016917344 7.010917e-05
-0.124952234 0.00018985603 -0.047842633 0.22162327 0.022029378 -0.047944836 -0.097721905 0.031072931
-0.019482827 -0.0020971792 -0.0038830347 -0.08624703 -0.075015254 -0.028574755 0.18681386 0.15152067
0.01272802 -0.062408764 0.0030583683 -0.12402673
00000000: d013 6f3d 111f 3cbd 997f abbb d4c5 adbc
00000010: 70d8 083e b1e3 553c bd9e a0bd 8dc8 30bb
00000020: c1ed 8abd 68c8 83ba 36a5 6e3c 7b5e 1cbd
00000030: 5738 a53b 759e 4cbc af86 843d e81e c0bd
00000040: d23c f5ba 9ae2 29bd 068f 77bb 6ffb 693e
00000050: a760 32bc a979 f83c 59a0 cabd cdd3 263d
00000060: 9149 d9bd 5fb0 ceba c614 4bbb 93fb 9f3b
00000070: 580d 1bbd c375 23bb 2564 8cbd baf4 e3bc
00000080: 6f78 d3bd 015e 9abd f923 85bd 7b7f 59bb
00000090: 4f98 2cbe fd66 1cbc dc35 38bd 6e82 793b
000000a0: 3ac6 9dbc 72e4 84bb cd3f 02bb f630 5dbb
000000b0: 2f93 23be 8d85 16be 26e2 503b 96f8 a1bb
000000c0: 3356 c5bb cecd debd 9fd7 aabd a5a2 43bd
000000d0: b074 8439 a577 9bbc 3e96 8abc 9307 9338
000000e0: f5e6 ffbd 1714 4739 a3f6 43bd 36f1 623e
000000f0: f476 b43c ce61 44bd 6c22 c8bd a98c fe3c
00000100: 739a 9fbc d470 09bb 837a 7ebb 48a2 b0bd
00000110: 99a1 99bd 9b15 eabc 224c 3f3e 3c28 1b3e
00000120: 2f89 503c 55a0 7fbd e86e 483b ba01 febd

fc2.weight f4 [43, 76]
0.0028604767 -0.010056689 -0.0010251395 0.00972721 0.0049126856 -0.013382369 0.0004750422 -0.0009578045
0.0015116081 0.3658294 0.0068115457 0.004716819 -0.0018549514 0.00048099612 0.0060714153 -0.00263135
0.3463607 -0.0033546414 0.31653395 0.00012143679 -0.012759096 -0.0010302926 -0.0030563336 0.0027473639
-0.0010296195 0.21474572 0.20334888 0.004942524 -0.004574429 0.16484144 0.0016894543 -0.00011833181
0.08974997 -0.0006267214 -0.0049641547 0.0023143434 -0.006018106 0.0020387892 0.0011531396 0.0074720867
0.0017801845 0.3266304 0.13634253 0.0066795046 -0.0036154224 -0.0045633325 0.009727798 -0.010308196
0.0049864207 0.00026290017 9.9915145e-05 -0.010727476 0.00067358394 0.0030406534 -0.004421954 0.00048482217
-0.002060371 6.5182096e-05 -0.00667285 0.00043916417 -0.0010777299 0.0039187283 0.00069319166 -0.0022526365
0.007598252 0.38146564 0.39118406 -0.0024578262 -0.0017470599 -0.00015043636 -0.0012326281 -0.0008095629
-0.0041704355 -0.0014375412 0.0071577905 -0.0026251543 0.05844139 0.00054670934 -0.0039700586 0.0072019855
0.06886315 0.028027492 0.022802517 0.07398962 0.03270915 -0.087619394 -0.024865761 -0.03489195
0.0944442 0.085832134 0.05513171 0.101648465 -0.09860098 -0.0081086 -0.13049173 0.028277539
0.04731348 -0.027338536 0.06803203 0.031585194 0.0048445533 -0.16545103 -0.16461015 -0.043827135
-0.0063829226 -0.13567437 0.0478583 0.035665758 -0.15594496 0.030548658 -0.032396205 0.04404829
-0.048420615 0.08760148 0.06971525 0.000934424 0.03779136 -0.13033056 -0.11767492 0.048321873
-0.049085595 -0.032480966 0.019123606 0.00044192126 0.046865433 0.074789435 0.0073761805 0.0063640773
0.00024321619 0.03847637 -0.013358212 0.00022590233 -0.00086173543 0.00010207562 0.008985707 0.03155933
-0.024261912 0.041820247 0.07014496 -0.013765344 0.029928751 -0.025677959 -0.03216168 0.014229866
0.038675953 -0.030160105 0.044635423 0.02828442 0.010460242 -0.027378445 0.043170076 -0.035835028
-0.06265596 0.05684017 0.0013152766 0.021323008 -0.054054227 0.042581443 0.060140356 -0.052713394
0.042906377 -0.00559445 -0.02962057 -0.024204675 -0.0112038655 -0.021234307 -0.07030012 0.032970175
0.0057463273 0.037453387 0.02463216 -0.07029829 -0.006798132 -0.022088135 0.027560677 -0.020936769
0.08012376 0.083931595 0.08546532 -0.03845066 0.040045142 0.10563882 0.025608577 0.021628039
0.016298747 0.054063886 0.02585989 0.05703679 0.06558381 -0.021417972 0.041926265 0.004994392
0.021617454 0.033269078 0.110514626 0.059751682 0.044606026 0.10174153 0.031110184 0.002838721
0.05748653 0.033311334 0.074892096 0.03551032 0.0001104127 0.018179413 -0.015323941 0.00018515023
0.0609421 0.00060559856 0.057393234 -0.056795035 -0.03220955 0.025720509 0.02388121 -0.025606453
0.04450582 -0.0011915587 -0.0076734195 0.05455259 0.055951346 -0.02887025 -0.046503704 -0.06120825
-0.022370948 0.036425017 0.05372986 0.050218504 -0.056124225 0.052756432 0.0037276214 0.020261712
-0.04893281 0.038154196 0.05239582 -0.050764795 0.0371264 0.005485361 -0.033263795 -0.027151419
-0.0096421 -0.018003954 -0.06654178 0.03784611 0.00266634 0.032917634 0.022703735 -0.06816347
-0.008449411 -0.024616228 0.03138702 -0.021457216 0.075071 0.09692577 0.089650884 -0.02961211
00000000: d676 3b3b d0c4 24bc f95d 86ba e05e 1f3c
00000010: 98fa a03b b941 5bbc 160f f939 2c15 7bba
00000020: 2721 c63a fe4d bb3e 6333 df3b 8c8f 9a3b
00000030: d721 f3ba 352e fc39 b9f2 c63b ba72 2cbb
00000040: 3156 b13e 8bd9 5bbb bd10 a23e e1ab fe38
00000050: 870b 51bc e20a 87ba c54c 48bb 1e0d 343b
00000060: 4cf4 86ba 4de6 5b3e b03a 503e e5f4 a13b
00000070: 17e5 95bb 32cc 283e ae70 dd3a e828 f8b8
00000080: d5ce b73d 904a 24ba 59aa a2bb 3dac 173b
00000090: 8833 c5bb 359d 053b f224 973a 68d8 f43b
000000a0: 1455 e93a 1a3c a73e 609d 0b3e bfdf da3b
000000b0: b9f0 6cbb 0288 95bb 5861 1f3c b5e3 28bc
000000c0: 2165 a33b ddd5 8939 8989 d138 4cc2 2fbc
000000d0: 7493 303a b345 473b 0ae6 90bb bb2f fe39
000000e0: 4a07 07bb 5fb2 8838 eca7 dabb 9e3f e639
000000f0: 9d42 8dba ad68 803b 4eb7 353a f8a0 13bb
00000100: c2fa f83b 774f c33e 4749 c83e 7b13 21bb
00000110: 9afd e4ba 74be 1db9 2390 a1ba d938 54ba
00000120: 26a8 88bb e16b bcba e68b ea3b c80a 2cbb
00000130: 3d60 6f3d 0b51 0f3a 4417 82bb a2fe eb3b
00000140: 2008 8d3d e999 e53c 58cc ba3c df87 973d
00000150: 08fa 053d cc71 b3bd 48b3 cbbc ddea 0ebd
00000160: f66b c13d c2c8 af3d cad1 613d 122d d03d
00000170: 50ef c9bd efd9 04bc a09f 05be 4ca6 e73c
00000180: c8cb 413d 11f5 dfbc 6054 8b3d 7a5f 013d
00000190: 0fbf 9e3b ff6b 29be 908f 28be 1584 33bd
000001a0: d627 d1bb 39ee 0abe 1107 443d 4216 123d
000001b0: 09b0 1fbe 2e41 fa3c e2b1 04bd fb6b 343d
000001c0: b254 46bd 6868 b33d dec6 8e3d 22f4 743a
000001d0: 1dcb 1a3d 6075 05be 8cff f0bd 28ed 453d
000001e0: fa0d 49bd c30a 05bd 1ca9 9c3c abb1 e739
000001f0: f8f5 3f3d 342b 993d e3b3 f13b c089 d03b
00000200: d907 7f39 6699 1d3d 67dc 5abc 32e0 6c39
00000210: 16e6 61ba 6e11 d638 c938 133c 5b44 013d
00000220: ebc0 c6bc b54b 2b3d 29a8 8f3d 0a88 61bc
00000230: 242d f53c 955a d2bc f7bb 03bd 6224 693c
00000240: ad6a 1e3d 5312 f7bc a2d3 363d bab4 e73c
00000250: 6f61 2b3c c348 e0bc 1bd3 303d c0c7 12bd
00000260: c551 80bd 3dd1 683d 5c65 ac3a 97ad ae3c
00000270: f767 5dbd e169 2e3d bc55 763d 00ea 57bd
00000280: 99be 2f3d a651 b7bb d6a6 f2bc e248 c6bc
00000290: 6b90 37bc 92f3 adbc 82f9 8fbd bc0b 073d
000002a0: b04b bc3b b968 193d 62c9 c93c 8df8 8fbd
000002b0: ddc2 debb 2df2 b4bc eec6 e13c 9683 abbc
000002c0: ed17 a43d 54e4 ab3d 7108 af3d 707e 1dbd
000002d0: 6006 243d 2a59 d83d 14c9 d13c 492d b13c
000002e0: f384 853c 1872 5d3d 1fd8 d33c 699f 693d
000002f0: ce50 863d be74 afbc e0ba 2b3d ffa7 a33b
00000300: 1617 b13c 2845 083d 7e55 e23d 2ebe 743d
00000310: cfb4 363d dd5d d03d c9da fe3c d609 3a3b
00000320: ff76 6b3d 7771 083d 0761 993d 4573 113d
00000330: 5e8d e738 feec 943c 4411 7bbc e324 4239
00000340: 6c9e 793d 08c1 1e3a 2b15 6b3d e9a1 68bd
00000350: 29ee 03bd d1b3 d23c 87a2 c33c a0c4 d1bc
00000360: bc4b 363d 132e 9cba 4f71 fbbb 8972 5f3d
00000370: 3d2d 653d 4d81 ecbc ab7a 3ebd 80b5 7abd
00000380: 4743 b7bc 6632 153d d713 5c3d ebb1 4d3d
00000390: 84e2 65bd 2117 583d 1c4b 743b e4fb a53c
000003a0: c56d 48bd 9347 1c3d 009d 563d bfee 4fbd
000003b0: da11 183d 8bbe b33b 9e3f 08bd a76c debc
000003c0: e6f9 1dbc 077d 93bc 0f47 88bd 8604 1b3d
000003d0: c3bd 2e3b a4d4 063d 2ffd b93c 4a99 8bbd
000003e0: 666f 0abc f9a7 c9bc ad8f 003d 0bc7 afbc
000003f0: d3be 993d 0581 c63d e29a b73d 1995 f2bc

fc2.bias f4 [43]
0.00010220916 0.16404274 -0.124422565 -0.12223238 0.1991421 -0.12916677 -0.001257298 0.11588455
0.16475545 -0.13181536 -0.12699698 -0.0005498751 0.2895343 0.13187067 -8.641589e-28 0.16904297
0.16274375 -0.08016752 0.16850047 0.16664855 -0.12577307 -0.12943432 0.15796657 -0.1315239
-0.12932992 -0.12884924 0.20410988 -0.0011110157 0.16752054 0.048128806 0.15707643 -0.0007727227
-0.13032697 0.28404847 0.28115505 0.18029965 -0.0017565878 -0.12706886 0.2813072 0.14109775
0.1633535 -0.12148809 -0.0010791178
00000000: 2059 d638 d2fa 273e 42d1 febd f854 fabd
00000010: e8eb 4b3e 4b44 04be eccb a4ba e154 ed3d
00000020: a7b5 283e 9bfa 06be 7f0b 02be 7e25 10ba
00000030: d73d 943e 1b09 073e 73ee 8892 9a19 2d3e
00000040: 4ca6 263e de2e a4bd 638b 2c3e eba5 2a3e
00000050: a8ca 00be 6e8a 04be fdc1 213e 34ae 06be
00000060: 106f 04be 0ef1 03be 2e02 513e 809f 91ba
00000070: 818a 2b3e b622 453d a5d8 203e 8b90 4aba
00000080: 6f74 05be cd6e 913e 8ef3 8f3e 79a0 383e
00000090: 4e3d e6ba 571e 02be 7f07 903e ee7b 103e
000000a0: 2446 273e bfce f8bd 2f71 8dba

fc3.weight f4 [4, 43]
0.29114008 -0.17056102 0.27168187 0.27460772 -0.1460191 0.28657365 0.29401135 -0.12133546
-0.17615676 0.28080145 0.28441924 0.29519936 -0.45911226 -0.09552515 -1.6016911e-16 -0.18002181
-0.16775528 0.2263942 -0.1728068 -0.18076444 0.28221697 0.27637163 -0.15773772 0.28785244
0.27728635 0.2750631 -0.13917883 0.29208803 -0.17011617 0.18248835 -0.1558268 0.29189146
0.2889842 -0.46593532 -0.45727384 -0.0374912 0.29335237 0.28432444 -0.46067834 -0.120742805
-0.17555833 0.2679248 0.2932412 0.30028018 -0.36441946 -0.21363485 -0.19836056 0.36642563
-0.21166071 0.30244142 -0.088023834 -0.35257763 -0.2142555 -0.21273422 0.2980395 0.16116664
-0.38821363 8.0614235e-18 -0.35541993 -0.35981494 -0.1833271 -0.3580097 -0.34836593 -0.21469732
-0.20905514 -0.36653605 -0.20212278 -0.21930316 -0.21159981 0.36593345 0.30470368 -0.36542204
0.20425119 -0.37395597 0.29895702 -0.21307473 0.15701707 0.15690085 0.2983809 0.30332154
-0.21470499 0.15791264 -0.07900096 -0.3513647 -0.21680692 0.30003804 0.18851502 0.2628882
-0.19101356 -0.1851536 -0.40336984 -0.18213059 0.18390028 -0.37099078 0.26797876 -0.17963248
-0.17356631 0.1871496 0.15036699 0.2381998 4.747352e-13 0.26245224 0.24671288 -0.20619936
0.25682104 0.26027116 -0.18359157 -0.17483906 0.25669122 -0.18090014 -0.18258746 -0.17885539
-0.40648162 0.19415954 0.2654872 -0.55580777 0.24436957 0.19493505 -0.18535836 0.14665768
0.14503613 -0.4470201 0.18058556 -0.17187028 0.14863794 -0.3994185 0.2564287 -0.18233773
0.1879279 -0.8209469 0.2541626 0.12602565 0.10851919 0.1747638 0.099411234 -0.8274513
0.5559795 0.2494662 0.11503034 0.09759065 -0.8249085 0.14436209 0.21579029 -1.2510552e-12
0.26086858 0.2625213 0.15945782 0.2653436 0.25440922 0.11189264 0.10362746 0.24484879
0.09254704 0.12439917 0.11217434 0.17318363 -0.8268451 0.25294128 0.15055381 0.25688764
-0.83057415 0.10280168 0.14971867 0.14781739 0.18241937 -0.82762945 0.09671404 0.1376411
0.5884463 0.25536335 0.12769876 -0.82904965
00000000: 5010 953e 8ca7 2ebe e319 8b3e 6299 8c3e
00000010: 0886 15be c8b9 923e a888 963e ba7e f8bd
00000020: 7062 34be 35c5 8f3e 669f 913e 5f24 973e
00000030: c310 ebbe b1a2 c3bd 94a9 38a5 a357 38be
00000040: 0ac8 2bbe e2d3 673e 44f4 30be 501a 39be
00000050: be7e 903e 9580 8d3e ff85 21be 6561 933e
00000060: 7af8 8d3e 12d5 8c3e e584 0ebe 908c 953e
00000070: ef32 2ebe 3ade 3a3e 1091 1fbe cc72 953e
00000080: bdf5 933e 138f eebe cc1f eabe 5f90 19bd
00000090: 4832 963e f992 913e 08de ebbe 0148 f7bd
000000a0: 90c5 33be 702d 893e b623 963e 53be 993e
000000b0: 3095 babe 18c3 5abe 081f 4bbe 249c bb3e
000000c0: 96bd 58be 9ad9 9a3e d745 b4bd 0e85 b4be
000000d0: cb65 5bbe 00d7 59be a298 983e de08 253e
000000e0: f0c3 c6be ffb4 1423 9af9 b5be aa39 b8be
000000f0: 19ba 3bbe 0c4d b7be 055d b2be 9dd9 5bbe
00000100: 8d12 56be 9daa bbbe 46f9 4ebe 0291 60be
00000110: 9fad 58be a15b bb3e 1f02 9c3e 9918 bbbe
00000120: 3927 513e 2877 bfbe e510 993e 4330 5abe
00000130: 15c9 203e 9eaa 203e 62c5 983e f64c 9b3e
00000140: a0db 5bbe dab3 213e 41cb a1bd 13e6 b3be
00000150: a202 5ebe 969e 993e 150a 413e 4899 863e
00000160: 0f99 43be e898 3dbe 7e86 cebe 7180 3abe
00000170: 5b50 3c3e 81f2 bdbe 8334 893e 94f1 37be
00000180: 5ebb 31be 25a4 3f3e cef9 193e a6ea 733e
00000190: 47a0 052b 2460 863e 4da2 7c3e ed25 53be
000001a0: 0c7e 833e 4342 853e 6eff 3bbe 0309 33be
000001b0: 086d 833e e33d 39be 35f8 3abe de25 37be
000001c0: 5c1e d0be c2d1 463e f0ed 873e 6b49 0ebf
000001d0: 043c 7a3e 0e9d 473e 95ce 3dbe 6e2d 163e
000001e0: 5a84 143e d2df e4be 6ceb 383e c3fe 2fbe
000001f0: 8b34 183e 9580 ccbe 9f4a 833e beb6 3abe
00000200: 2c70 403e 9329 52bf 9a21 823e de0c 013e
00000210: 4f3f de3d 48f5 323e 1e98 cb3d d9d3 53bf
00000220: ac54 0e3f 1174 7f3e 0795 eb3d 9bdd c73d
00000230: 342d 53bf a8d3 133e 21f8 5c3e 0412 b0ab
00000240: 9190 853e 3169 863e e948 233e 1edb 873e
00000250: ed41 823e f827 e53d a23a d43d a4b9 7a3e
00000260: 4d89 bd3d fec4 fe3d a9bb e53d 0d57 313e
00000270: 1fac 53bf 8581 813e c72a 1a3e c786 833e
00000280: 82a0 54bf b089 d23d da4f 193e 715d 173e
00000290: 25cc 3a3e 86df 53bf 0312 c63d caf1 0c3e
000002a0: 6ba4 163f fcbe 823e 77c3 023e 993c 54bf

fc3.bias f4 [4]
-0.6643532 0.21571201 0.070971794 0.38987866
00000000: 0d13 2abf 9ce3 5c3e a959 913d 2d9e c73e
