MediaPipe_Operation/model_4class/gesture_classifier4_long.pth (torch, 46578 bytes, 6 tensors)

fc1.weight f4 [82, 90]
000000 09 90 75 bc ad ff f0 ba e5 f1 31 3b 1e 41 a3 3c
       -0.014987954 -0.0018386744 0.0027152237 0.019928511
000010 48 94 0d 3b fa 8b 0e bc a1 84 68 bc 11 fe 6d bb
       0.0021603275 -0.008700365 -0.014191777 -0.0036314765
000020 8d 6e 55 3b d9 bc a0 3c 37 38 ff 3a 72 88 c0 bb
       0.0032567114 0.0196213 0.0019471709 -0.0058756405
000030 65 ed 62 bc a8 ed b7 bb f7 40 6b 3b ab 5e 84 3c
       -0.013850545 -0.0056130476 0.0035896876 0.016158422
000040 02 7b 4b 3b ee 7c 2d bb 52 a2 5d bc 78 51 c6 bb
       0.003104866 -0.002647217 -0.01352747 -0.0060521923
000050 1d 7a 5e 3b d3 5d 5c 3c a0 1a a2 3a ec 93 22 bb
       0.0033947297 0.013450104 0.0012367554 -0.0024807407
000060 c2 3a 5a bc ae 3f bb bb 92 89 5d 3b e1 f4 90 3c
       -0.013319673 -0.0057143783 0.0033803922 0.017694892
000070 43 42 a9 39 3d 70 13 3a 3a 74 5f bc 8f 84 a8 bb
       0.0003228356 0.000562433 -0.01363855 -0.0051427553
000080 85 5a 23 3b 65 40 92 3c 02 90 82 ba 40 82 5b 39
       0.002492578 0.017852971 -0.000996113 0.0002093399
000090 5a e0 60 bc 22 44 b1 bb b6 ec a3 3a fa 27 7e 3c
       -0.013725365 -0.0054097334 0.0012506458 0.015512461
0000a0 b9 81 e3 ba 0f b3 5d ba 02 18 59 bc 14 4f 83 bb
       -0.0017357386 -0.0008457163 -0.013250353 -0.0040072296
0000b0 2f 05 bb 3a 85 d9 6f 3c a1 15 29 bb ac 5d 6b ba
       0.0014268513 0.014639263 -0.0025800245 -0.0008978497
0000c0 60 cf 58 bc 77 12 8d bb e5 e2 c2 3a 1d a3 36 3c
       -0.013233036 -0.0043051797 0.0014868645 0.011147288
0000d0 9b 83 18 bb 47 da 2e ba 19 25 61 bc 8d 2b 4d bb
       -0.0023271802 -0.0006670099 -0.013741755 -0.0031306476
0000e0 cc 1d cc 3a 02 ad 77 3c e0 b8 3c bb 87 16 56 ba
       0.0015572845 0.015116932 -0.0028796718 -0.0008166809
0000f0 0c 74 5b bc 86 0b fb bb 18 b2 da 3a 03 37 46 3c
       -0.013394367 -0.007661286 0.0016685156 0.012098077
000100 d6 dc 16 bb 8e 34 92 b9 88 3a 5e bc 9e 1b ee bb
       -0.0023019812 -0.00027886446 -0.01356376 -0.007266476
000110 80 56 da 3a 8f 74 35 3c e2 96 53 bb 30 a3 39 bb
       0.0016657859 0.011075153 -0.0032285978 -0.0028326027
000120 b7 06 59 bc cb e0 0a bc ab 2d 10 3b cc c3 52 3c
       -0.01324623 -0.008476446 0.0021999876 0.012864064
000130 9d c8 2a bb 9c 10 e8 ba 70 1f 66 bc 78 82 c9 bb
       -0.0026059516 -0.0017705145 -0.014045581 -0.0061495863
000140 a8 21 1b 3b c0 31 93 3c f1 62 43 bb 0a 8f 95 bb
       0.0023671184 0.017968059 -0.0029813612 -0.0045641707
000150 b6 49 69 bc b0 97 97 bb 5f 6a f7 3a 48 d7 9f 3c
       -0.014238765 -0.004626237 0.0018876306 0.019511834
000160 7d f5 64 bb 6d 8a b8 bb 71 fb c7 3c 21 51 cc 3b
       -0.0034936361 -0.005631736 0.024411889 0.0062352573
000170 91 53 d4 3c f2 5a bc ba 38 40 0d 3c c5 48 4b bc
       0.025918754 -0.0014370366 0.008621268 -0.012407486
000180 83 2e 99 3c 17 cc c8 3b 02 24 99 3c e8 2a 20 3b
       0.018698936 0.006127845 0.018693928 0.0024439637
000190 8a 3f 50 3b f6 93 33 bc 9d 62 71 3c 5f 81 d7 3b
       0.0031776153 -0.01096057 0.014732984 0.0065767015
0001a0 e2 4b 52 3c a7 e2 80 3a 65 cd 15 bb 40 81 40 bc
       0.012835475 0.0009833173 -0.002285802 -0.011749566
0001b0 5e 5d 48 3c 8a 5b d8 3b 60 90 13 3c c3 21 65 ba
       0.012229292 0.006602709 0.00900659 -0.00087406876
0001c0 69 df 9a bb 4d 30 2b bc 61 60 2f 3c 47 22 c7 3b
       -0.0047263396 -0.0104485275 0.010704131 0.006077084
0001d0 1d 7a c4 3b 0a a7 14 bb 51 b4 e2 bb c6 9f 1f bc
       0.0059960024 -0.002268257 -0.006918468 -0.009742683
0001e0 a8 5e 00 3c d4 e5 d2 3b 31 f5 87 3b 18 f8 ee b9
       0.007835068 0.006436089 0.004149102 -0.00045579742
0001f0 35 2c d3 bb da 71 21 bc b3 7e dd 3b ef a7 dc 3b
       -0.006444479 -0.0098538045 0.0067594885 0.0067338864
000200 ce da 48 3b 33 60 24 3b 47 12 cd bb 4e fc 0e bc
       0.0030647996 0.0025081753 -0.0062582823 -0.008727146
000210 0a 74 f1 3b 98 09 c2 3b be 9a 44 3b 31 3e ac 3a
       0.0073685693 0.005921554 0.002999946 0.0013141093
000220 08 3b e1 bb 8b 02 1b bc e8 08 e6 3b fc e2 d5 3b
       -0.006873492 -0.0094610555 0.0070201047 0.006527303
000230 8c 76 44 3b de 2c 40 3b 09 28 c5 bb 31 1d 08 bc
       0.0029977886 0.0029323618 -0.0060167355 -0.008307741
000240 81 90 0a 3c 88 37 e5 3b 49 b2 9c 3b b6 b2 8d ba
       0.008457304 0.006995145 0.0047819954 -0.0010810706
000250 aa 07 b1 bb b9 d9 13 bc 64 65 35 3c d3 4e e4 3b
       -0.005402525 -0.009024077 0.011071537 0.0069674044
000260 96 33 d8 3b c0 98 81 ba c8 25 c8 bb 93 77 0c bc
       0.0065979464 -0.0009887442 -0.0061080195 -0.008573431
000270 4f ca 5a 3c 40 9d eb 3b bd e2 2d 3c 6f 45 01 bb
       0.013353898 0.0071903765 0.010613141 -0.0019725224
000280 6c 22 1a bb 2e de 15 bc 60 b5 82 3c 77 df f5 3b
       -0.0023519052 -0.00914721 0.015955627 0.0075034457
000290 1a 93 6c 3c 88 0d 0c bb cc 95 b8 b8 a6 2c 22 bc
       0.014439369 -0.002137037 -8.8017056e-05 -0.00989834
0002a0 b3 a2 a9 3c dc 26 00 3c 88 82 a4 3c 82 46 4c bb
       0.020707464 0.007821765 0.020081773 -0.0031169956
0002b0 40 78 8b 3b 13 71 1f bc 7f fa d5 3c 2e 91 0a 3c
       0.0042562783 -0.009731549 0.026120422 0.008457465
0002c0 2a 19 de 3c ae b3 a0 bb 5c 4c 2e 3c 05 f1 1a bc
       0.027111609 -0.004904232 0.010638323 -0.009456878
0002d0 1b 1d 8a 3c 65 17 d6 bc 52 b0 fb 3c af f1 45 bc
       0.016859582 -0.026134202 0.030723725 -0.012081548
0002e0 aa 9f 9e 3c 65 a9 be 3c 76 c3 61 3c 3b 3f a6 bc
       0.019363243 0.023274133 0.013779512 -0.020293823
0002f0 67 43 dc 3c f1 c4 01 bc b3 f2 7d 3c 76 4c 49 3c
       0.026887609 -0.00792049 0.0154997585 0.012286296
000300 94 cb 1d 3c d4 25 5f bc e8 ac 9e 3c 89 a4 89 bb
       0.009631056 -0.013619859 0.019369557 -0.0042005223
000310 7d 42 82 3b 26 75 d1 3b eb f4 d6 3b 66 a9 16 bc
       0.003975211 0.006392139 0.006559958 -0.009195661
000320 11 2b 7e 3c b7 83 98 bb 0c 4d 80 3b a6 33 12 3b
       0.0155131975 -0.0046543735 0.0039154347 0.0022308617
000330 cc 87 c0 3b fa 4f 04 bc ee ec 4e 3c 18 e5 99 bb
       0.0058755632 -0.0080757085 0.012629731 -0.0046964996
000340 33 cf be 3a c0 d4 79 ba 40 01 63 3b 06 01 1c bc
       0.00145576 -0.00095302984 0.0034638196 -0.009521728
000350 18 25 1a 3c 94 9d ef bb 60 4a fb 38 0f c2 8a 3b
       0.009408258 -0.007312486 0.00011982466 0.0042345594
000360 37 75 6b 3b 37 cd 33 bc 27 a0 16 3c 8f db cb bb
       0.003592802 -0.01097422 0.009193457 -0.006221242
000370 fc 0a 4b 3b cb 58 e7 3b c6 c2 a5 3b 61 3d 27 bc
       0.003098189 0.0070601455 0.005058619 -0.010207505
000380 4c 4e 0b 3c 90 13 9f bb 86 a5 26 3b 3e 9f 76 3b
       0.008502554 -0.004854627 0.002542825 0.0037631537
000390 0f f3 94 3b 8e 7f 18 bc 82 73 eb 3b d5 3b 03 bb
       0.0045455764 -0.009307755 0.0071854005 -0.0020024676
0003a0 29 7c 29 3b 3e b5 ba 3b d0 40 c4 3b ae 27 9e bb
       0.0025861359 0.0056978753 0.0059891716 -0.0048265075
0003b0 35 49 44 3c d4 85 88 37 8c bb b4 3b 32 e4 d9 3b
       0.011980345 1.6274782e-05 0.0055155214 0.0066495175
0003c0 c2 78 05 3c 72 18 89 bb 47 78 81 3c e3 15 b5 ba
       0.008146467 -0.0041838223 0.015804423 -0.0013815727
0003d0 9f 29 0c 3b 1b 11 3c 3b 72 78 21 3c b2 47 b3 bb
       0.0021387113 0.002869672 0.009855377 -0.005471193
0003e0 77 48 c7 3c 2b ee 0d 3b 55 a2 18 3c af 04 73 3b
       0.024326546 0.0021656852 0.009316047 0.003708165
0003f0 45 38 61 3c 01 90 2a bc 94 24 eb 3c f0 42 a5 b7
       0.013746326 -0.01041031 0.028703965 -1.9700703e-05

fc1.bias f4 [82]
000000 cc 78 55 bc 44 61 af ba a9 d2 f9 bc 2a 91 0a 3e
       -0.0130292885 -0.0013380428 -0.030495958 0.13531938
000010 1f f6 96 39 93 69 1c 3e 2e dc dc bb 05 31 24 3d
       0.00028793604 0.15274648 -0.0067401147 0.04008581
000020 61 21 c1 3d 3c 74 f4 bc d0 c9 71 bd c7 45 e3 3c
       0.09430195 -0.029840581 -0.059030354 0.027743233
000030 fa 92 33 be 11 3f d2 ba 3e 02 dd bc bd 2f b1 bd
       -0.17536536 -0.0016040524 -0.026978608 -0.086516835
000040 4b f1 8d ba 03 5b 2d bb 21 e0 d2 3c 77 f9 53 be
       -0.0010829357 -0.0026451952 0.025741639 -0.20700632
000050 df f0 55 bd cf 5f 40 bb 80 7d c0 bc f6 f0 13 3b
       -0.052231666 -0.0029353981 -0.023497343 0.0022574044
000060 1b cb 8d bd fb 81 58 bd bb 82 c2 ba ec 2a 11 3d
       -0.06923505 -0.052858334 -0.0014839986 0.035441324
000070 48 af 0b bb 03 d3 f3 3d 74 4f 37 be 4a a2 c4 b7
       -0.0021314193 0.11905482 -0.17901403 -2.3440592e-05
000080 57 79 f5 bc 79 9a d7 b9 60 f0 7e bd bc 6d 34 bd
       -0.029965086 -0.00041123087 -0.06224096 -0.044049963
000090 58 1c 1f bd 38 ec 90 bd 55 1b 22 be 9e c3 39 bd
       -0.03884539 -0.07076305 -0.15830739 -0.04535257
0000a0 73 85 90 bc 65 45 69 bb 1f 8f e5 bd e0 73 66 3c
       -0.017641759 -0.003559434 -0.11208939 0.014065713
0000b0 ea 56 0a bd 22 41 3b 3e 71 42 23 bd fa 51 6b ba
       -0.033774294 0.18286565 -0.039858285 -0.0008976754
0000c0 e2 0e 1f bd fa 06 77 3d a1 e0 92 3c 31 ba 47 bd
       -0.038832553 0.060309388 0.017929377 -0.04876155
0000d0 ae 88 90 bb 59 ff 23 bd 50 32 10 3b c1 d2 0b b9
       -0.0044108247 -0.04003844 0.0022002645 -0.00013334585
0000e0 8d 61 61 be a0 7c ba 3d 4d 22 1b 3d 68 8f 25 3d
       -0.22009869 0.091058016 0.03787451 0.040419966
0000f0 93 dd 42 bd 13 59 0b be dd c7 7a bd 55 8a 92 3d
       -0.04757459 -0.13608198 -0.06122576 0.07155291
000100 fb 35 d6 bc a4 46 7f bb ac 61 c2 3c d6 99 30 bd
       -0.026148787 -0.0038952017 0.023728214 -0.04311546
000110 4d bc 0b 3e 16 6e 39 bd d3 52 90 b7 6d 1e 24 bd
       0.1364605 -0.045271 -1.7204706e-05 -0.04006808
000120 af f3 9b bd 31 27 7a bd 58 93 ce bd 09 0f 88 bd
       -0.07614838 -0.061072532 -0.10086697 -0.06643493
000130 00 2d ed bd 98 b9 08 bb 8f 91 2c bd a2 d4 55 b8
       -0.11580849 -0.0020862576 -0.042131003 -5.0981187e-05
000140 88 cd dc 3d f2 f3 28 bd
       0.107813895 -0.04124827

fc2.weight f4 [40, 82]
000000 dc de 99 3c c6 88 8e 3b bf 12 c9 bb 17 99 bc 3d
       0.018783025 0.0043498008 -0.006136268 0.09208887
000010 0f 84 a7 b8 b7 0a f9 3d f3 8c 45 bb 8d 8a a3 3d
       -7.9877784e-05 0.12160247 -0.0030143827 0.07985411
000020 ed ec 29 3b 12 00 4d bc d7 ae 0e 3d 4d 10 38 bc
       0.0025928572 -0.012512224 0.03483471 -0.011234355
000030 28 f4 db 3b 72 d0 ec 3b 2d a6 0e bd 2a 50 50 bd
       0.0067124553 0.007226997 -0.034826446 -0.0508577
000040 80 e3 ba 39 34 76 19 bd cd 06 17 3e c1 84 b8 bd
       0.00035646185 -0.037466243 0.14748688 -0.09009696
000050 63 d0 12 bc 67 1c 84 3c 94 ed ba bb 0a 88 14 3c
       -0.008960816 0.016126825 -0.005704591 0.009065637
000060 d1 36 56 bd 6c 99 21 bc fc 71 fe 3b af ab 0b 3e
       -0.05229837 -0.009863239 0.007765053 0.13639711
000070 00 32 01 bc 6f 3c e7 3d ff 71 af bd e6 c0 1a 36
       -0.007885456 0.11290824 -0.08566665 2.306007e-06
000080 c8 4a 45 bc fb 6a 55 b9 65 2b 07 bd c5 ce 00 bd
       -0.012041755 -0.00020353116 -0.03300037 -0.03144719
000090 8f 3c 71 bc 99 c4 60 3c 0b c8 cc bc 1d 4f 8a bc
       -0.014723911 0.0137187475 -0.024997732 -0.016883427
0000a0 67 94 04 3a bd a9 91 bc 84 65 14 bd b6 bb 7f 3c
       0.0005057514 -0.017781133 -0.036229625 0.015608719
0000b0 58 90 02 bd 31 bc e3 3d bf d8 b1 bc 4b c5 63 ba
       -0.03187594 0.11119879 -0.021709798 -0.0008688762
0000c0 09 a9 c1 3d 45 ee 89 3d 91 82 54 bc b7 12 d0 bb
       0.09456069 0.067348994 -0.012970583 -0.0063498872
0000d0 b7 ff 7b bb ed 22 c9 3d 32 ba 9e 3d 5c 6a 28 3b
       -0.0038451978 0.09821115 0.07750358 0.002569816
0000e0 27 cb 8f bc ee 41 16 3b f9 e0 13 3e ce 00 82 3d
       -0.017552925 0.002292748 0.14441289 0.0634781
0000f0 78 7e 75 bc 76 a4 59 bd 7f df 46 bd bb 4b 9b bb
       -0.014983766 -0.053135358 -0.048552986 -0.0047392524
000100 15 40 cd bc f7 97 05 bd 64 9a 58 bb 6e e9 59 bc
       -0.02505497 -0.032615628 -0.0033051008 -0.013300283
000110 07 e2 12 3e 1b ce a5 bc c4 02 6a b7 cc 84 1f bd
       0.14344035 -0.02023988 -1.3948131e-05 -0.038945004
000120 86 d9 0c bd 2d 27 f3 bb 5c f6 a1 bc fe 44 70 3c
       -0.034387134 -0.0074204416 -0.019770794 0.0146648865
000130 a5 cf a3 bd ca 94 84 ba 83 7c e9 ba 0b 10 b7 3b
       -0.079985894 -0.0010115143 -0.0017813597 0.0055866293
000140 76 0c e0 3d 4d db 9c bc e5 b9 ee ba 68 31 62 3c
       0.10939877 -0.01914754 -0.001821336 0.013805725
000150 c6 3c 6b 3c b1 e1 9a 3d 16 0a de 38 54 72 54 3d
       0.014357751 0.075625785 0.000105876636 0.051866844
000160 7c a0 f5 3a fe 8c 2e bd a2 cd b4 3d 06 3c 23 3d
       0.0018739845 -0.04261493 0.08828284 0.039852165
000170 a2 6c dc bc 77 65 ce 3d 97 3a e8 bd f5 dc 19 bd
       -0.026907269 0.10077947 -0.113393 -0.037564237
000180 93 b9 f9 3c e5 98 01 3d 08 6c db b9 06 89 25 be
       0.030483996 0.031639952 -0.00041851425 -0.16165552
000190 9a ec af bb 7b 92 1d bd 41 88 19 3d 49 77 0c bd
       -0.0053687813 -0.038469773 0.037483457 -0.034293447
0001a0 75 08 0e 3d 49 a5 ea 3d e6 1d 9a 3c 24 eb 3f 3c
       0.034676034 0.11457307 0.018813085 0.011713777
0001b0 37 fe b5 3c 1e 06 f3 bb 73 8b aa bd 23 f2 04 3d
       0.022215946 -0.0074165007 -0.08327379 0.032457482
0001c0 9f ee 9e bd 9a 13 b0 37 59 02 07 3c 59 d3 ee 39
       -0.07760357 2.0989963e-05 0.008240306 0.00045552364
0001d0 f1 9a 25 3d 04 20 44 3c 38 1a 1e 3b 96 16 84 bc
       0.040430967 0.011970524 0.0024124514 -0.016124051
0001e0 45 62 49 bd 2a 93 bf 3c dd 0c 06 3d ad 2e 0d be
       -0.049165983 0.023385603 0.03272711 -0.13787337
0001f0 74 c4 ac bc 8e 5d fd 3d ce 53 2c 3d c3 0e 69 3d
       -0.02108977 0.1237136 0.04207211 0.056898843
000200 2b b6 66 3c ed ff 2e 38 3e 5f 36 bc 6e f7 7b 3c
       0.014081518 4.1723182e-05 -0.011131106 0.015378816
000210 69 2e 95 3d 53 7c 1c 3d 04 e5 c4 bd c5 4d 83 bc
       0.07284243 0.038204502 -0.09613994 -0.016028294
000220 c9 34 b7 bc 48 5b 86 bd e4 e4 37 bd f9 8c b7 3d
       -0.022364037 -0.06560379 -0.04489602 0.08962435
000230 13 5a e4 bb c4 f9 9f 3d 84 f4 92 3c f8 a9 1e bd
       -0.0069687455 0.07811311 0.01793886 -0.038736314
000240 53 f3 fa 3a ae 7f a7 3d 16 04 d3 3b b3 5f 38 be
       0.0019146003 0.0817865 0.006439696 -0.18005256
000250 01 4d 3e 3d 8d 67 b6 3c 92 91 52 3d a9 d4 41 3d
       0.046460155 0.022266174 0.051408358 0.04732195
000260 17 41 8b 36 2f 2d f5 3c a5 28 1d 3d 99 65 ad 3d
       4.1501003e-06 0.029928772 0.03836884 0.08466644
000270 86 46 7e 3d f4 4b d6 bc 3c 6d a5 3c e9 5c 8d 39
       0.062078975 -0.026159264 0.020193689 0.0002696284
000280 b1 86 a0 3d 81 cd 7c 3b 59 24 08 3d 2e 48 15 3d
       0.0783819 0.0038574638 0.03323779 0.03644579
000290 dd d2 37 bb 48 87 62 3c a3 69 c2 3c a0 0b a6 3d
       -0.0028049268 0.013826199 0.023732012 0.08107686
0002a0 e5 af 15 39 fa 6a 5e 3d eb 9f 03 3b 67 d1 34 bd
       0.00014275273 0.05430124 0.0020084332 -0.044145014
0002b0 d1 17 ad 3d 24 cd 0f 3d 2a 3a ee bc 63 89 da 3d
       0.08451808 0.035107747 -0.02908047 0.10670736
0002c0 33 92 e0 bd d4 c1 f1 bc 5e ae f4 3c 83 46 fd 3c
       -0.10965385 -0.02951137 0.029868301 0.030917412
0002d0 af 71 19 39 74 11 1f be 1a 84 5a bc 82 66 06 bd
       0.00014633567 -0.15534002 -0.0133371595 -0.032812603
0002e0 be d0 f1 3c d3 26 67 bc c6 84 26 3d 2b d5 fb 3d
       0.029518481 -0.0141083775 0.040653966 0.12296518
0002f0 14 47 d5 3c 58 42 01 3c a5 1c a9 3c 0a 19 83 bc
       0.02603487 0.007889353 0.020643542 -0.01600315
000300 98 13 a0 bd 16 4b 24 3d 4c 19 96 bd 81 54 d4 37
       -0.07816237 0.04011067 -0.07329044 2.531172e-05
000310 68 9d c5 3b c2 66 45 b8 22 df ed 3c 5c 5a 3d 3c
       0.006030727 -4.706416e-05 0.029037062 0.011557188
000320 d4 e4 31 3b 57 f7 b5 bc 5f d9 61 bd f0 f6 a4 3c
       0.0027144449 -0.022212667 -0.05513894 0.02013728
000330 65 7e 06 3d 63 ea 08 be 30 8a f3 bc 53 b0 f3 3d
       0.032835383 -0.13370661 -0.029728979 0.118988656
000340 f3 7d 2f 3d 57 9c 61 3d 7c c8 47 3c f3 c5 31 39
       0.042844724 0.055080738 0.012193795 0.00016953777
000350 ef 43 f5 bb f9 9f a2 3c d4 a4 8d 3d 05 8b fe 3c
       -0.007484905 0.019851672 0.06916204 0.031072149
000360 a1 b6 b9 bd 89 de 6c bc d3 d5 bb bc 6f a6 88 bd
       -0.09068037 -0.014457353 -0.022929108 -0.0667237
000370 86 01 5d bd f4 24 be 3d 6e 93 3b 3b 60 74 8b 3d
       -0.05395653 0.09284392 0.002862181 0.06809306
000380 51 00 38 3c 04 24 3d bd b6 57 19 bb c7 ed b0 3d
       0.011230544 -0.046176925 -0.0023398227 0.086391024
000390 4e f7 97 3b 33 de 30 be a0 4c 2e 3d 57 10 93 3c
       0.0046376353 -0.17272262 0.042553544 0.017952127
0003a0 67 33 40 3d ae e3 3e 3d dd 75 0b b7 d5 6f d3 3c
       0.04692402 0.04660385 -8.312488e-06 0.025810162
0003b0 a1 33 16 3d fb e5 b7 3d 3e 17 62 3d b6 2f 01 bd
       0.03667033 0.08979412 0.055197947 -0.03153964
0003c0 b5 3c a8 3c 30 ce 4f b7 59 32 a0 3d f1 73 46 3b
       0.02053676 -1.2386168e-05 0.07822103 0.0030281509
0003d0 e5 67 15 3d ed 4b 28 3d ea 37 08 bc 86 89 0a 3b
       0.036476035 0.041088033 -0.008314112 0.00211391
0003e0 22 b6 15 bc 04 45 16 3c 88 ee af 39 e2 5e 40 3b
       -0.009137662 0.009171728 0.0003355632 0.002935343
0003f0 51 63 22 bb 57 15 79 3b 2e 95 c9 ba 3e 41 b9 3b
       -0.0024778435 0.0038007104 -0.0015379542 0.0056535294

fc2.bias f4 [40]
000000 bb 93 8a 3e ab c4 2e 3e 44 77 28 3e 7b 7a a6 bb
       0.27065834 0.1706721 0.16451746 -0.005080519
000010 5f 58 ef a0 2c ac 87 3e 14 17 23 3e a0 47 15 3e
       -4.0546654e-19 0.26498544 0.15926772 0.14578104
000020 60 9a 85 3a fc 3e 2a 3e 0e f4 2e 3e 62 db 8d bb
       0.0010193102 0.16625589 0.17085287 -0.004329131
000030 e6 6f 8d bd 26 33 04 bc 33 14 9c 3b 43 10 f3 bd
       -0.069061086 -0.008068835 0.00476315 -0.11868336
000040 ad 28 8c 3e 59 38 a1 bb 99 f2 c3 bb 5a 5c f9 bd
       0.27374783 -0.0049200472 -0.0059798476 -0.12175818
000050 0d d5 95 bd 13 d7 8b 3e fc 3a 2f 3e 83 12 2c 3e
       -0.07316027 0.27312526 0.17112345 0.16803937
000060 f7 c0 06 3e 4d bb de bd 10 4c d9 bd e0 8e 21 3e
       0.13159548 -0.108755685 -0.10610211 0.15777159
000070 04 92 d5 bd 3d 02 2d 3e fc 0c 28 3e c4 fb f6 bd
       -0.10428241 0.16895385 0.16411203 -0.12059739
000080 ce 08 2c 3e 96 ac 5d bb ca 29 e2 bd 1a 1e dd bd
       0.16800234 -0.0033824793 -0.11043127 -0.10796757
000090 a7 65 ee bd a7 bc ed bd 20 47 a1 bb db 71 64 3e
       -0.116404824 -0.11608248 -0.004921809 0.22309057

fc3.weight f4 [4, 40]
000000 04 71 f3 be 5d 32 40 be fe 83 3e be 57 ba 90 3e
       -0.47547162 -0.18769212 -0.18605039 0.28267166
000010 a5 27 2b 8a 1f 97 ee be 2d fb 37 be 1e d5 b4 3d
       -8.240807e-33 -0.4659967 -0.1796691 0.088297114
000020 18 ca 9c b9 bb f8 45 be c8 56 45 be 09 1f 91 3e
       -0.0002990521 -0.19333164 -0.19271386 0.2834399
000030 00 83 4a 3e 94 87 91 3e da 03 73 3e 63 d7 81 3e
       0.19776535 0.2842375 0.23731938 0.2535964
000040 40 b4 ef be 83 8c 93 3e 10 58 92 3e 8b 88 81 3e
       -0.46817207 0.2881814 0.2858281 0.25299487
000050 c2 ca 50 3e a2 d1 f3 be e8 7a 3d be d4 85 3a be
       0.20389846 -0.47620875 -0.18503916 -0.18215114
000060 78 76 07 be 41 cc 74 3e 36 b7 6a 3e f7 32 38 be
       -0.13228786 0.23906042 0.22921452 -0.17988192
000070 5b d6 78 3e 9c d1 49 be d9 b0 3f be 98 33 84 3e
       0.2430052 -0.19708866 -0.18719806 0.25820613
000080 1c 21 44 be dc ee 8f 3e 9c 9c 80 3e 2e 07 7c 3e
       -0.19153255 0.28111923 0.25119483 0.24612114
000090 0f 5c 82 3e 54 5e 7e 3e 6d 36 94 3e f0 b0 49 be
       0.2546086 0.24840671 0.28947774 -0.19696403
0000a0 fa 1b 29 3e 1c 9f ae be 56 cf ab be db 0d 94 3e
       0.16514578 -0.34105766 -0.33556622 0.2891682
0000b0 18 28 bf 96 c2 45 29 3e 8f 6f b2 be f1 d0 32 3e
       -3.0883017e-25 0.16530517 -0.34850737 0.17462517
0000c0 43 94 23 ba 5b fc b2 be a9 82 b1 be 2b 2a 94 3e
       -0.0006240049 -0.34958157 -0.34669998 0.28938422
0000d0 11 e7 48 be 9f e2 94 3e 15 5d 6e 3e 42 ab 62 be
       -0.19619395 0.29079148 0.23277695 -0.22135642
0000e0 51 21 36 3e 52 9c 91 3e 96 ab 93 3e 93 6f 65 be
       0.17786147 0.28439575 0.28841847 -0.22405843
0000f0 1b 5a 40 be 01 5d 2f 3e ba 36 af be 77 62 b0 be
       -0.18784373 0.17125322 -0.3422144 -0.34450123
000100 6e d9 c1 be d3 4d 57 be cb b8 4f be f2 99 ad be
       -0.37861198 -0.21025781 -0.20285337 -0.33906513
000110 59 6a 4f be 52 d3 ac be 18 07 b1 be 55 69 60 be
       -0.20255412 -0.33754975 -0.34575725 -0.21915181
000120 a1 ce ab be 25 65 94 3e 3d 8e 50 be 2b ec 59 be
       -0.33556083 0.28983417 -0.2036676 -0.21281497
000130 b2 0c 62 be 35 02 64 be 68 74 93 3e b9 15 c4 3e
       -0.22075155 -0.22266467 0.28799748 0.38297823
000140 19 fa f7 3d 2a 28 7b 3e d0 16 73 3e 6c fc 67 3e
       0.12108249 0.2452704 0.23739171 0.22654885
000150 c3 34 94 2b 1f 26 f0 3d 91 99 73 3e 72 05 03 bf
       1.0530677e-12 0.11726021 0.2378905 -0.51180184
000160 24 be 87 ba 9f 27 74 3e 30 4a 75 3e b1 7c 6a 3e
       -0.0010356349 0.23843239 0.23954082 0.22899128
000170 d6 ff 3f be c7 46 6c 3e 8e 06 e3 be 81 1a 38 be
       -0.18749937 0.23073874 -0.44340938 -0.1797886
000180 98 06 e6 3d 21 37 67 3e ed ad 6b 3e f9 74 3d be
       0.112317264 0.22579624 0.23015566 -0.18501653
000190 a3 3a 46 be 00 c4 ec 3d 31 5c 6a 3e 5f 5b 74 3e
       -0.19358306 0.115608215 0.2288673 0.2386298
0001a0 7c b8 6e 3e df 0a 35 be 8f 01 3b be 5f cb 7f 3e
       0.23312563 -0.17679928 -0.18262313 0.24979924
0001b0 44 9c 3f be c2 6e 7a 3e 42 94 75 3e 9c 1d 37 be
       -0.18711954 0.24456313 0.23982337 -0.17882389
0001c0 f9 24 77 3e 26 e0 6b 3e ef 7e 46 be ad 15 37 be
       0.24135198 0.23034725 -0.19384359 -0.17879362
0001d0 f1 84 3a be 12 30 30 be fb 38 6e 3e 90 a5 d0 be
       -0.18214776 -0.17205837 0.23263924 -0.40751314
0001e0 c0 6d 22 3e c5 0a 79 3e f4 71 77 3e b1 e1 71 bf
       0.15862179 0.24320515 0.24164563 -0.94485
0001f0 91 99 4d 2b b2 8d 1d 3e 58 6b 80 3e b4 c2 82 3e
       7.3043747e-13 0.15386084 0.25081897 0.25539172
000200 fc 35 b7 3a 76 f4 83 3e 01 91 84 3e 3e 5d 76 bf
       0.0013977881 0.25772446 0.2589188 -0.96236026
000210 a0 88 3a 3e 68 b4 73 bf fb 95 ba bc 6a a6 0d 3e
       0.18216181 -0.95197153 -0.022776594 0.13833013
000220 1c e8 22 3e e5 43 74 bf e5 85 71 bf 2b b3 17 3e
       0.15908855 -0.954161 -0.9434493 0.14814441
000230 44 e3 2f 3e a7 49 1c 3e cc e5 84 3e c5 4b 80 3e
       0.17176539 0.15262471 0.2595657 0.25057808
000240 44 9c 58 3e ea e4 13 3e c5 77 1b 3e fc 29 75 3e
       0.2115336 0.14442793 0.15182407 0.23941797
000250 b3 12 12 3e 3b 0a 7c 3e 93 7f 7f 3e 50 ac 02 3e
       0.14264946 0.24613278 0.2495101 0.12761045
000260 38 78 80 3e 5a 31 71 bf a0 d5 0a 3e b2 17 0e 3e
       0.2509172 -0.9421593 0.13558054 0.13876227
000270 26 8d 0e 3e 71 07 08 3e 8f 29 73 bf a9 eb 5f 3e
       0.13921031 0.13284089 -0.9498529 0.21867241

fc3.bias f4 [4]
000000 1e 36 28 bf e1 fc e8 3d b8 28 d5 bd db e7 2d 3f
       -0.65707576 0.11376358 -0.10408157 0.6793191
