MediaPipe_Operation/model_4class/gesture_classifier_transformer.pth (torch, 48794 bytes, 50 tensors)

encoder_layer.self_attn.in_proj_weight f4 [18, 6]
0	0x3dc5aaa0	0.09651685
1	0x3d4aa4e0	0.049473643
2	0xbe273220	-0.16327715
3	0xbedcc6f4	-0.4312054
4	0x3ea5ce1a	0.32383806
5	0x3e001170	0.12506652
6	0xbe39b950	-0.18137097
7	0xbea3ad52	-0.3196817
8	0x3e9e942e	0.30972427
9	0x3eae8f0c	0.3409351
10	0xbeb67f16	-0.35643834
11	0xbeeffb96	-0.46871632
12	0xbeadbe84	-0.33934414
13	0xbecb0998	-0.39655757
14	0xbef2c8f2	-0.47418934
15	0x3ee9739a	0.4559601
16	0xbd529ae0	-0.05141723
17	0xbd94cd78	-0.072657526
18	0x3eabe946	0.3357641
19	0x3e64ed60	0.22356176
20	0x3e75bcb0	0.2399776
21	0xbef30db4	-0.47471392
22	0xbeea6422	-0.4577952
23	0x3e35d64c	0.17757529
24	0xbe7eba38	-0.24875724
25	0x3eab8234	0.33497775
26	0xbe439070	-0.19098067
27	0x3e0967ec	0.1341855
28	0x3eb81966	0.35956877
29	0x3e845f0c	0.25853765
30	0x3ea8c9ee	0.3296656
31	0x3ecb0d36	0.39658517
32	0x3e76cb44	0.24100977
33	0x3e2336d8	0.1593889
34	0xbebf6cf4	-0.37387812
35	0xbdc918c0	-0.09819174
36	0x3ead1f8e	0.33813137
37	0x3e4ed03c	0.20196623
38	0xbee20998	-0.44147944
39	0xbee707a8	-0.4512303
40	0xbead8b10	-0.3389516
41	0x3dfa54e8	0.12223226
42	0x3ee33ed0	0.4438386
43	0x3df95b78	0.121756494
44	0xbeb3223e	-0.34987062
45	0x3ec26b9e	0.3797273
46	0x3e68878c	0.22707957
47	0x3eb87c1c	0.36032188
48	0xbee809cc	-0.45319974
49	0x3d464950	0.04840976
50	0xbe404758	-0.18777215
51	0x3e00757c	0.12544817
52	0x3d951128	0.07278663
53	0xbea0af8c	-0.31383932
54	0xbe9b8d6a	-0.30381328
55	0x3e1a6390	0.15077043
56	0x3ea689f6	0.3252713
57	0xbe9ae898	-0.3025558
58	0x3e11ae54	0.14226657
59	0x3effca92	0.49959236
60	0x3edeccf2	0.43515736
61	0x3ea22038	0.31665206
62	0x3d032610	0.03201872
63	0xbe78bf74	-0.24291784
64	0xbec37aca	-0.38179618
65	0xbeee518c	-0.4654659
66	0x3e9d0bfe	0.30673212
67	0x3df5dee0	0.12005401
68	0x3db477d8	0.08811921
69	0xbed22c6c	-0.41049516
70	0x3eafa4c0	0.34305382
71	0xbc2b0240	-0.010437548
72	0xbc8279a0	-0.015927136
73	0xbd11e350	-0.035617173
74	0x3e23dad0	0.16001439
75	0x3ed5fb52	0.41793305
76	0xbe431408	-0.1905061
77	0xbecc3f90	-0.39892244
78	0x3eae177c	0.34002292
79	0xbd9fa5d8	-0.07795304
80	0xbd457ee0	-0.0482167
81	0xbef90420	-0.4863596
82	0x3bd4ed00	0.006497979
83	0xbee54a42	-0.44783217
84	0xbec8b486	-0.39200228
85	0x3e86194e	0.2619118
86	0x3e273da4	0.16332108
87	0x3ea841b0	0.32862616
88	0xbe9affa2	-0.30273157
89	0xbeaa9ff4	-0.3332516
90	0xbdf05030	-0.117340446
91	0x3e71c048	0.23608506
92	0x3a392c00	0.00070637465
93	0x3e8de47e	0.27713388
94	0x3eaddfa6	0.33959693
95	0xbc861040	-0.01636517
96	0x3e8b031a	0.27150804
97	0xbe089814	-0.13339263
98	0x3ea37d2e	0.31931442
99	0xbd7eb380	-0.062182903
100	0x3d714f60	0.05891359
101	0x3d950bf0	0.072776675
102	0x3eb274ca	0.34854728
103	0x3ddd04f0	0.107919574
104	0x3e5032bc	0.20331854
105	0x3e239460	0.1597457
106	0xbdcaf000	-0.099090576
107	0x3e41e3ec	0.18934602

encoder_layer.self_attn.in_proj_bias f4 [18]
0	0x00000000	0.0
1	0x00000000	0.0
2	0x00000000	0.0
3	0x00000000	0.0
4	0x00000000	0.0
5	0x00000000	0.0
6	0x00000000	0.0
7	0x00000000	0.0
8	0x00000000	0.0
9	0x00000000	0.0
10	0x00000000	0.0
11	0x00000000	0.0
12	0x00000000	0.0
13	0x00000000	0.0
14	0x00000000	0.0
15	0x00000000	0.0
16	0x00000000	0.0
17	0x00000000	0.0

encoder_layer.self_attn.out_proj.weight f4 [6, 6]
0	0x3ebb8e5a	0.36632043
1	0xbde90494	-0.11377826
2	0x3e4944ac	0.19655102
3	0x3e8b2bca	0.27181846
4	0x3e18da28	0.1492697
5	0xbe9925cd	-0.29911652
6	0xbe2890d1	-0.16461493
7	0x3cb5e290	0.02220276
8	0xbca12080	-0.019668818
9	0xbe9998ac	-0.29999292
10	0x38e57000	0.000109404325
11	0xbecc63fc	-0.39920032
12	0x3c0a2ca0	0.008433491
13	0xbe837326	-0.2567379
14	0xbec4cfdd	-0.38439837
15	0x3e798648	0.2436763
16	0xbdfc4d78	-0.123194635
17	0x3ea34896	0.31891316
18	0x3eaf4cae	0.3423819
19	0xbeb7e716	-0.35918492
20	0x3ecb8a78	0.3975408
21	0xbe788060	-0.24267721
22	0xbe8468ae	-0.25861114
23	0xbe47d62f	-0.19515298
24	0xbe1b8c4c	-0.15190238
25	0x3d43aa88	0.047770053
26	0x3dd704a8	0.10498935
27	0xbeab27d0	-0.33428812
28	0x3e15ec94	0.14641029
29	0x3e6e613c	0.2327928
30	0xbe09c4c6	-0.1345397
31	0xbdc44358	-0.09583157
32	0xbe96f4f0	-0.29483747
33	0xbeb9c3e2	-0.3628226
34	0x3e8d40d4	0.27588522
35	0xbe6a1230	-0.228585

encoder_layer.self_attn.out_proj.bias f4 [6]
0	0x00000000	0.0
1	0x00000000	0.0
2	0x00000000	0.0
3	0x00000000	0.0
4	0x00000000	0.0
5	0x00000000	0.0

encoder_layer.linear1.weight f4 [128, 6]
0	0x3e765854	0.24057132
1	0x3e75dd58	0.24010217
2	0xbe37dc08	-0.17955029
3	0x3e8c8068	0.27441716
4	0xbe77ab97	-0.2418655
5	0xbe0c902e	-0.13726875
6	0xbdb56280	-0.08856678
7	0x3e7f91f0	0.24958014
8	0xbebb389d	-0.3656663
9	0x3eb1bd7e	0.34714884
10	0x3c90cd10	0.017675906
11	0xbda5b598	-0.08091277
12	0x3ea83a78	0.32857108
13	0xbdec5d8c	-0.1154128
14	0xbeacba36	-0.33735818
15	0xbeaacff9	-0.33361796
16	0xbe28b459	-0.16475047
17	0x3ebe616a	0.37183696
18	0x3dcd6478	0.100289285
19	0x3ea5c4ae	0.32376617
20	0x3db9b5d0	0.09067881
21	0x3e5ab4a8	0.21357977
22	0x3ea310d2	0.3184877
23	0x3ec3c44a	0.38235694
24	0xbe8c97b6	-0.27459496
25	0xbeb0d626	-0.34538382
26	0xbecc0ff0	-0.3985591
27	0xbdc3a674	-0.09553233
28	0x3e1640c8	0.1467315
29	0xbe04eb0a	-0.12980285
30	0x3db30d70	0.087427974
31	0x3e238c88	0.15971577
32	0xbeab59b5	-0.3346688
33	0xbe5e51d5	-0.21710904
34	0x3eabc598	0.3354919
35	0x3c84e1e0	0.016220987
36	0x3d3ea7d0	0.046546757
37	0xbea994d2	-0.33121353
38	0xbe9184c4	-0.28421605
39	0xbd271100	-0.040787697
40	0xbe6cbb81	-0.23118402
41	0x3ebbb5a0	0.36662006
42	0xbe2f5791	-0.17123248
43	0xbde7e09c	-0.11322138
44	0x3e503f44	0.20336634
45	0xbdaadfc8	-0.08343464
46	0x3e14edac	0.1454379
47	0x3ec721dc	0.3889302
48	0xbe863770	-0.2621417
49	0x3eca8e5c	0.39561737
50	0x3e9ef642	0.31047255
51	0x3e66795c	0.22507232
52	0x3e92a468	0.28641057
53	0x3eaec0fc	0.3413161
54	0x3e14136c	0.14460534
55	0xbe999f0e	-0.30004162
56	0x3eb92132	0.3615814
57	0xbeb46f58	-0.352412
58	0x3eafadce	0.3431229
59	0xbd578b58	-0.052623123
60	0xbd42a3f8	-0.047519654
61	0x3e87f4dc	0.26554
62	0xbe95af14	-0.29235137
63	0xbd363458	-0.044483513
64	0xbeb38356	-0.3506114
65	0xbe840839	-0.25787523
66	0x3eb9087c	0.36139286
67	0xbe030c22	-0.12797597
68	0x3e15f668	0.14644778
69	0x3d8435e8	0.06455594
70	0xbe288096	-0.16455302
71	0x3e2b1230	0.16706157
72	0x3dd6cd30	0.10488355
73	0xbea0eebc	-0.3143214
74	0xbe13fd4e	-0.14452097
75	0x3db18220	0.086673975
76	0xbc4911a0	-0.0122722685
77	0x3e36cecc	0.17852324
78	0xbe57a23a	-0.21057978
79	0x3e49f6c8	0.19723046
80	0xbe8c8bae	-0.27450317
81	0x3e858a16	0.26081914
82	0x3e37cfe8	0.17950404
83	0x3ed01d00	0.40647125
84	0xbe84c60a	-0.25932342
85	0x3e71c534	0.23610383
86	0xbeaac8f8	-0.33356452
87	0x3e913dec	0.28367555
88	0xbeab2c69	-0.3343232
89	0xbea4413d	-0.32081023
90	0x3e23e05c	0.16003555
91	0x3dec9020	0.11550927
92	0xbe97b638	-0.2963121
93	0x3c0bff40	0.008544743
94	0x3d406870	0.0469746
95	0x3eb512be	0.35365862
96	0x3e380ef4	0.17974454
97	0xbe439d76	-0.19103035
98	0x3dc9af60	0.09847903
99	0xbecd4460	-0.40091228
100	0xbeab0a21	-0.33406165
101	0xbe474a6f	-0.19461988
102	0xbe64219b	-0.22278444
103	0xbd8f6788	-0.07002169
104	0xbec38dac	-0.38194025
105	0xbe0d8116	-0.13818774
106	0x3d14af20	0.036299825
107	0x3ec96b82	0.39339834
108	0x3ddf44b0	0.10901773
109	0x3e82b8d4	0.25531638
110	0x3d0af5c8	0.0339258
111	0x3e972afa	0.29524976
112	0x3e6094ec	0.21931809
113	0xbd4b47c8	-0.049629003
114	0x3ec55c02	0.3854676
115	0x3ec32710	0.3811574
116	0x3d657268	0.05601731
117	0x3e4a7a94	0.19773322
118	0xbe380111	-0.17969157
119	0x3ec9f8a8	0.39447522
120	0xbe2b6d2d	-0.16740866
121	0x3e2234d4	0.15840465
122	0x3e842aae	0.25813812
123	0xbdce8ea4	-0.100858
124	0xbe302620	-0.17202044
125	0xbe5b0908	-0.21390164
126	0x3d90eccc	0.070764154
127	0x3ecbb9c0	0.39790154
128	0xbdfbeb70	-0.123007655
129	0x3deb9d80	0.1150465
130	0xbd8cb9b0	-0.068713546
131	0xbe6339e6	-0.22190055
132	0xbe679da4	-0.22618729
133	0x3e2ac7c0	0.16677761
134	0x3e9e962e	0.30973953
135	0x3e724e58	0.23662698
136	0x3e97c59e	0.29642957
137	0x3eaa5f66	0.33275908
138	0x3e5281c0	0.20557308
139	0xbe48d7a9	-0.19613518
140	0xbe89d47b	-0.26919922
141	0xbd5fc478	-0.054630727
142	0xbb32df00	-0.0027293563
143	0x3e0ca6bc	0.13735479
144	0xbe10fa3c	-0.14157957
145	0x3d4189a0	0.04725039
146	0xbec65726	-0.38738364
147	0xbe92701c	-0.28601158
148	0x3eb91048	0.36145234
149	0xbe83eed8	-0.2576816
150	0xbd653860	-0.055961967
151	0xbe26961a	-0.16268197
152	0xbca22bd0	-0.019796282
153	0xbea60e8c	-0.32432973
154	0xbdabca94	-0.08388248
155	0xbde93c0c	-0.11388406
156	0x3eaf3888	0.34222817
157	0x3e907398	0.2821319
158	0xbd91c8b4	-0.07118359
159	0x3e974f52	0.29552704
160	0x3ea4c1d2	0.32179123
161	0xbeb4c936	-0.35309762
162	0x3e5589d8	0.20853364
163	0x3db64bdc	0.08901188
164	0x3cb78150	0.022400528
165	0x3ebc84a4	0.36819947
166	0xbdaa84e0	-0.08326125
167	0xbd6b66d8	-0.057471126
168	0xbe912efd	-0.28356162
169	0xbeaeccfc	-0.34140766
170	0xbe998fba	-0.29992467
171	0x3de241d8	0.11047715
172	0x3da7ec78	0.081994
173	0xbe8e2961	-0.27765945
174	0xbe56b3dc	-0.20967048
175	0xbece642a	-0.40310794
176	0x3e86e038	0.2634294
177	0x3d48a9d8	0.0489901
178	0x3d8eed68	0.069788754
179	0xbe9966cf	-0.2996125
180	0xbec4c027	-0.3842785
181	0x3ea5d2c2	0.32387358
182	0x3e8cdf6e	0.27514213
183	0xbe21f58c	-0.15816325
184	0x3e1226ec	0.1427266
185	0xbea2b804	-0.31781018
186	0xbeacb631	-0.3373275
187	0x3e9a7bda	0.30172616
188	0x3ea5237c	0.32253635
189	0xbec8849e	-0.3916368
190	0xbe65f299	-0.22455825
191	0x3e213be0	0.15745497
192	0xbd7d79a0	-0.06188357
193	0x3e57a038	0.21057212
194	0xbdbe9250	-0.09305251
195	0xbea014ae	-0.31265777
196	0x3e4e1cd0	0.20128179
197	0x3e79d608	0.24398053
198	0x3e895990	0.26826143
199	0xbe6ba538	-0.23012245
200	0x3e3adf7c	0.18249315
201	0x3e921528	0.28531766
202	0xbdc15cf8	-0.094415605
203	0xbd093eb8	-0.03350708
204	0xbe4eac41	-0.20182897
205	0x3ca7b3b0	0.020471424
206	0xbe82aef9	-0.2552412
207	0xbe643bdc	-0.2228846
208	0xbe5ee08a	-0.21765342
209	0xbecd2fb0	-0.40075445
210	0xbeb77075	-0.35827985
211	0x3d42ebe0	0.04758823
212	0x3ed0cf86	0.40783328
213	0x3e8702dc	0.2636937
214	0xbe5f8aaa	-0.2183024
215	0xbdd96680	-0.106152534
216	0xbe5627e2	-0.20913652
217	0xbebb4550	-0.3657632
218	0xbeb1d2c8	-0.34731126
219	0xbc980fa0	-0.018562138
220	0x3dac8a40	0.084248066
221	0x3d162260	0.036653876
222	0xbe853257	-0.2601497
223	0xbd8eeb4c	-0.06978473
224	0xbe444b69	-0.19169392
225	0xbd9f3764	-0.07774237
226	0xbe6ef02a	-0.23333803
227	0xbebb9f71	-0.36645082
228	0x3e522ce4	0.20524937
229	0xbea038b5	-0.31293264
230	0x3e8e7cba	0.27829534
231	0x3e666ab8	0.22501647
232	0x3ea1d4ae	0.31607574
233	0xbe86d44e	-0.2633385
234	0xbd8cdc58	-0.06877965
235	0x3eb0907a	0.34485227
236	0x3dc2f068	0.0951851
237	0x3e082080	0.13293648
238	0xbe9bdc7c	-0.30441654
239	0xbe29f149	-0.16595949
240	0x3e202310	0.15638375
241	0xbeabd792	-0.33562905
242	0xbd66b530	-0.056325138
243	0x3b6e7980	0.0036388338
244	0xbd1ae138	-0.03781244
245	0x3eb23ba2	0.3481112
246	0xbe9cf51e	-0.3065576
247	0x3e92a53a	0.28641683
248	0xbea06a34	-0.31331027
249	0x3e962916	0.2932822
250	0xbce2b650	-0.027674824
251	0x3eb21600	0.3478241
252	0xbebb9b58	-0.36641955
253	0xbe870ca4	-0.26376832
254	0x3d95fed8	0.07323998
255	0xbddf432c	-0.10901484

encoder_layer.linear1.bias f4 [128]
0	0xbcc34810	-0.023838073
1	0xbe3d1564	-0.18465191
2	0xbe42ffb2	-0.19042853
3	0xbdd26c14	-0.102745205
4	0xbe5aa9d2	-0.21353844
5	0xbe914b12	-0.28377587
6	0x3ea26582	0.3171807
7	0x3e6c6198	0.23084104
8	0x3e37720c	0.17914599
9	0xbea3485f	-0.31891152
10	0xbe47c302	-0.19507983
11	0x3dc12740	0.094313145
12	0x3d187368	0.037219435
13	0x3e2d6954	0.1693471
14	0xbb70b780	-0.0036730468
15	0xbd6be218	-0.057588667
16	0xbe0b6540	-0.13612843
17	0x3dfc4028	0.12316924
18	0x3e85ac62	0.2610808
19	0xbdcf536c	-0.10123333
20	0x3eaaae16	0.33335942
21	0x3e405c00	0.18785095
22	0xbd2d4d10	-0.04230982
23	0x3e94a160	0.2902937
24	0xbeb6587c	-0.35614383
25	0x3e4328d8	0.1905855
26	0xbe23f580	-0.1601162
27	0xbeb8bf22	-0.36083323
28	0x3e877d26	0.26462668
29	0x3ea77cea	0.3271249
30	0x3e80ff66	0.25194854
31	0xbe199bae	-0.15000793
32	0x3e44fc14	0.19236785
33	0x3e6a1568	0.22859728
34	0x3dacb714	0.08433357
35	0xbea4de30	-0.32200766
36	0x3eb6c438	0.35696578
37	0x3ecfa6ca	0.40556937
38	0x3de02848	0.10945183
39	0x3c04dc00	0.008109093
40	0xbecbec9b	-0.39828953
41	0xbe066c9a	-0.13127366
42	0xbc6f3de0	-0.0146021545
43	0xbec8c448	-0.3921225
44	0xbe4079b8	-0.18796432
45	0x3eb52cbc	0.35385692
46	0x3eb77072	0.35827976
47	0x3cc2ec80	0.023794413
48	0xbeb1690a	-0.3465045
49	0xbec72168	-0.38892674
50	0xbe863bc4	-0.26217473
51	0xbe9ddfca	-0.308348
52	0xbe2c58b9	-0.1683072
53	0xbeb8444f	-0.35989615
54	0xbea04b82	-0.31307608
55	0x3defb200	0.11703873
56	0x3ebb5734	0.36589968
57	0x3e939f8a	0.28832656
58	0x3ebbc4e8	0.36673665
59	0x3d43ee38	0.047834605
60	0x3e289b0c	0.16465396
61	0xbe432a17	-0.19059025
62	0xbe044838	-0.12918174
63	0xbd29e128	-0.04147449
64	0x3d65b528	0.056080967
65	0xbe2b4467	-0.16725312
66	0xbeb1183b	-0.345888
67	0x3e715d7c	0.23570818
68	0x3cff7e40	0.03118813
69	0x3e780434	0.24220353
70	0xbe8113d1	-0.2521043
71	0xbe5099ea	-0.20371214
72	0x3e9753c0	0.29556084
73	0x3e46f084	0.19427687
74	0xbe7f6b89	-0.24943365
75	0xbe680cdd	-0.22661157
76	0x3e4c6454	0.19960147
77	0x3e61eba8	0.22062552
78	0x3eb3530a	0.3502429
79	0x3bee08c0	0.0072642267
80	0xbe2089f6	-0.15677628
81	0xbdb8eb88	-0.09029299
82	0x3e214d9c	0.15752262
83	0xbe813eb5	-0.25243154
84	0xbe0858ac	-0.13315076
85	0xbdc6b6b8	-0.097028196
86	0x3e3aa88c	0.18228358
87	0x3dafb1d8	0.08578843
88	0xbe8ac523	-0.27103528
89	0x3eaf5284	0.34242642
90	0xbe5a4a96	-0.21317515
91	0xbeb62d08	-0.3558123
92	0x3e0317a8	0.12801993
93	0xbe144dec	-0.1448285
94	0x3ddd9aa8	0.10820514
95	0x3e69b4e8	0.22822917
96	0x3e6bb4dc	0.23018211
97	0x3aed5a00	0.0018108487
98	0x3d8612f0	0.06546581
99	0x3eb8e62a	0.361131
100	0x3eb24194	0.34815657
101	0xbec4a913	-0.38410243
102	0x3c9c6d10	0.019094974
103	0x3e446dfc	0.1918258
104	0x3dba1af0	0.09087169
105	0xbeac74d5	-0.33682886
106	0xbc6920a0	-0.01422897
107	0xbe64630a	-0.22303405
108	0x3ecace52	0.39610535
109	0x3ea7ea46	0.32795924
110	0x3d9ff9a8	0.0781129
111	0xbebb9321	-0.36635688
112	0xbea6fe44	-0.32615864
113	0x3eae6dd4	0.34068167
114	0xbe32b65f	-0.17452382
115	0x3ebd6b42	0.36995894
116	0xbe0600ac	-0.13086194
117	0xbe8e6a19	-0.2781532
118	0x3ceacc70	0.028661937
119	0x3ea2cc54	0.31796515
120	0x3d4e13b0	0.050311744
121	0xbd0e6ba0	-0.034770608
122	0x3e9c2aac	0.30501306
123	0xbe5fd2b5	-0.21857722
124	0xbd4ccee0	-0.05000198
125	0x3e2ca0cc	0.16858214
126	0xbe503a28	-0.20334685
127	0x3e9d8098	0.30762172

encoder_layer.linear2.weight f4 [6, 128]
0	0x3d807d6d	0.06273923
1	0xbc335770	-0.01094614
2	0x3caf2270	0.021378726
3	0xbc80b214	-0.015709914
4	0x3d07fc10	0.03319937
5	0x3d610fa2	0.05494655
6	0x3cb3d714	0.021953143
7	0x3d6bcfa2	0.05757106
8	0xbdada5da	-0.08478899
9	0xbdb2b898	-0.08726615
10	0x3d1af4e2	0.037831195
11	0x3ae661c0	0.0017576739
12	0xbc1ff708	-0.009763487
13	0x3d820921	0.063493975
14	0x3d295092	0.041336603
15	0x3d3331a6	0.04374852
16	0x3d9a9d1f	0.075495
17	0xbb28e3c0	-0.0025770515
18	0xbcb0cd20	-0.021582186
19	0x3d9922bb	0.074773274
20	0x3d4a79c6	0.04943254
21	0xbd8985e7	-0.06714993
22	0x3db15b7d	0.08660028
23	0xbd95eea4	-0.07320908
24	0x3d1622fe	0.036654465
25	0x3b2959a0	0.0025840774
26	0xbd5873b1	-0.052844707
27	0x3d3a2b16	0.045451246
28	0xbd205da8	-0.039151818
29	0x3d3826e6	0.04495897
30	0xbc91923c	-0.017769925
31	0x3db07441	0.08615924
32	0xbca17dc4	-0.01971329
33	0xbdb09b84	-0.08623412
34	0x3db29eef	0.087217204
35	0x3d580fd2	0.052749462
36	0xbc89b080	-0.016807795
37	0x3cf163d4	0.029466547
38	0xbda1773c	-0.0788407
39	0x3d9fe2bd	0.07806919
40	0xbd917d7c	-0.07104012
41	0x3d516bd6	0.05112823
42	0xbd033ed2	-0.032042332
43	0xbcd9eb52	-0.026601467
44	0x3d4f7936	0.050652705
45	0xbd2c66c4	-0.042090192
46	0xbb8eb700	-0.0043553114
47	0x3d85dad1	0.065358765
48	0xbd35f75b	-0.04442535
49	0xbd94a7b1	-0.07258547
50	0x3b976ae0	0.004620895
51	0xbda06c18	-0.07833117
52	0x3cd264fc	0.025682919
53	0x3c147f70	0.009063587
54	0x3da17be1	0.07884956
55	0xbd1a4387	-0.037662055
56	0xbda04cdf	-0.07827162
57	0xbcd2e0e4	-0.025742002
58	0x3cb8daa4	0.022565193
59	0xbd45b2fd	-0.0482664
60	0xbcb7a2c8	-0.022416487
61	0x3b74bce0	0.0037344024
62	0xbac1d3c0	-0.0014787838
63	0x3d84c763	0.064833425
64	0xbd44129d	-0.047869314
65	0xbdafd556	-0.085856125
66	0x3d02ee1e	0.031965367
67	0xbd6c4526	-0.057683133
68	0xbd615c2e	-0.05501955
69	0xbd23e0d2	-0.040009327
70	0xbc82ee20	-0.015982687
71	0x3d35cb0e	0.0443831
72	0xbda0482a	-0.07826264
73	0xbd3db735	-0.046317298
74	0x3ca6dffc	0.020370476
75	0xbc79a7b8	-0.015237741
76	0x3cce38b4	0.025173523
77	0x3cf20f40	0.029548287
78	0x3cd23cfc	0.025663845
79	0x3d885b69	0.0665806
80	0x3d57bc42	0.05266977
81	0xbd2b142c	-0.041767284
82	0xbdad5b93	-0.08464732
83	0xbd228092	-0.039673395
84	0xbcb863e4	-0.022508569
85	0x3d109bb0	0.035304725
86	0xbc0fca90	-0.008776322
87	0xbd2cc987	-0.04218438
88	0x3d0b8c78	0.03406951
89	0x3da70127	0.08154517
90	0xbc67ddd0	-0.014152005
91	0xbcb1da94	-0.021710671
92	0xbd8ae121	-0.06781221
93	0xbd9cb602	-0.07651903
94	0x3da513d1	0.0806042
95	0x3d951b29	0.07280571
96	0xbc25fda8	-0.010131277
97	0xbd1ba69b	-0.038000684
98	0xb9b2ee00	-0.0003412813
99	0xbd508dfc	-0.050916657
100	0xbb952860	-0.004551932
101	0xbd8d3433	-0.06894722
102	0x3d5ecc9e	0.054394357
103	0xbd2cb785	-0.042167205
104	0x3d8688d3	0.06569066
105	0x3d77abde	0.06046664
106	0xbd4f3255	-0.05058511
107	0x3d079f62	0.033110984
108	0x3c52e900	0.012872934
109	0x3b5c81a0	0.0033646598
110	0x3c066230	0.008202121
111	0x3da48423	0.080330156
112	0x3d3b575e	0.045737617
113	0xbc780a98	-0.0151392445
114	0x3d57da7e	0.052698605
115	0xbd956b2c	-0.07295832
116	0x3ce31834	0.027721502
117	0x3ca3d67c	0.019999735
118	0xbd67202a	-0.05642716
119	0xbb060f20	-0.0020455793
120	0x3d7d59c2	0.061853178
121	0x3d0a603c	0.033783183
122	0x3d59325a	0.053026535
123	0xbd8e9b32	-0.06963195
124	0x3da69105	0.08133129
125	0x3cc431dc	0.023949556
126	0xbce65066	-0.028114509
127	0x3d520832	0.051277347
128	0xbd5e11df	-0.054216262
129	0x3d81d429	0.063392945
130	0xbc2088e8	-0.009798266
131	0x3cec213c	0.028824441
132	0x3d922e37	0.07137721
133	0x3d99ee9f	0.075162165
134	0x3c86b69c	0.016444497
135	0x3d80b9f3	0.06285467
136	0x3daacabb	0.08339449
137	0xbd97da0d	-0.07414637
138	0xbd6c892d	-0.05774801
139	0x3c92ca9c	0.017918877
140	0x3caf7e3c	0.021422498
141	0xbda6727f	-0.08127307
142	0xbc8168d8	-0.015797064
143	0x3d998bf3	0.07497396
144	0xbd1625fe	-0.036657326
145	0xbd795aed	-0.06087773
146	0x3d729aee	0.059229784
147	0xbd90924b	-0.07059153
148	0xbd2a733d	-0.041613806
149	0x3cfbf2b8	0.030755386
150	0x3d6cd072	0.057815976
151	0x3d87a807	0.066238455
152	0x3ca674c4	0.02031935
153	0x3ceea754	0.029132523
154	0xbd823ef8	-0.063596666
155	0xbda781b7	-0.08179038
156	0x3d8b8ad1	0.068135865
157	0x3d95cf9b	0.07314988
158	0x3d2047c2	0.039130934
159	0xbd46dc7f	-0.048550125
160	0xbdaf7b99	-0.08568496
161	0x3d470b86	0.048594974
162	0x3c34e2b0	0.011040375
163	0xbca24c28	-0.019811705
164	0x3b1d4d80	0.0024002492
165	0xbcb80534	-0.022463419
166	0x3c0b9080	0.008518338
167	0x3d11406c	0.035461828
168	0xbdb3d94c	-0.087816805
169	0xbc6386b8	-0.0138871
170	0xbd63be12	-0.055601187
171	0x3d6eec26	0.058330677
172	0x3d6bc436	0.05756017
173	0xbd160fff	-0.03663635
174	0xbd384868	-0.044990927
175	0x3d4838da	0.048882343
176	0x3d412a4e	0.047159486
177	0xbd94543e	-0.072426304
178	0x3da23621	0.079204805
179	0x3c6d8360	0.014496654
180	0xbc816d24	-0.015799113
181	0xbd5a673b	-0.053321104
182	0x3c1cb1b0	0.009563848
183	0x3d216e62	0.03941191
184	0xbdb18962	-0.08668782
185	0x3dab58b9	0.08366532
186	0x3da4ba05	0.08043293
187	0xbcf9713e	-0.030449506
188	0x3cfcd8dc	0.030865125
189	0x3d634506	0.055485748
190	0xbd9cf6e9	-0.07664282
191	0x3cdb2a24	0.026753493
192	0xbd8d566c	-0.06901249
193	0x3c062458	0.008187376
194	0xbb84c0b0	-0.0040512905
195	0xbc5bb508	-0.01340986
196	0xbd2fe0b7	-0.042938914
197	0xbd695fdc	-0.056976184
198	0x3db4e813	0.08833327
199	0x3ca1048c	0.019655488
200	0x3d8a116f	0.067416064
201	0xbcef9348	-0.029245034
202	0xbd3edf55	-0.046599705
203	0x3c52fc58	0.012877546
204	0x3c9b36f4	0.018947102
205	0xb8dad000	-0.00010433793
206	0xbd67bec1	-0.0565784
207	0x3cd816c0	0.026378036
208	0xbc0b2570	-0.0084928125
209	0xbd52b14f	-0.051438626
210	0x3cfb0444	0.030641682
211	0x3da36a6b	0.07979282
212	0x3d9fa407	0.077949576
213	0xbca9bdf0	-0.020720452
214	0x3c3b8238	0.011444621
215	0xbd34c226	-0.044130467
216	0x3aee4e00	0.0018181205
217	0xbda10c44	-0.078636676
218	0x3d76a662	0.06021727
219	0x3d8d9485	0.069130935
220	0xbd0ce823	-0.03440107
221	0xbd18773e	-0.037223093
222	0xbd8e2cea	-0.069421604
223	0xbd73f192	-0.05955655
224	0x3d949fbd	0.0725703
225	0xbd922976	-0.07136814
226	0xbdb28c71	-0.08718193
227	0xbd178671	-0.036993448
228	0x3d9ef459	0.07761449
229	0x3d8d5fc7	0.06903034
230	0x3d483952	0.04888279
231	0xbad71980	-0.0016410798
232	0x3cc49e68	0.024001315
233	0xbc46ee10	-0.012141719
234	0xbc94dfe8	-0.018173173
235	0xbd84d5c1	-0.06486083
236	0xbc357718	-0.011075757
237	0xbd293f1e	-0.04131996
238	0x3d57a726	0.05264964
239	0xbc7268a8	-0.01479546
240	0x3d6412d2	0.05568201
241	0x3d880b11	0.06642736
242	0x3d988951	0.07448066
243	0xbd18db5b	-0.03731857
244	0xba18b280	-0.00058249384
245	0xbcc2aa4c	-0.023762845
246	0x3d8ca209	0.06866843
247	0x3da00e59	0.078152366
248	0xbc0ba798	-0.008523844
249	0x3cf31654	0.029673733
250	0xbcdcd38e	-0.026956346
251	0xbd90b36c	-0.07065472
252	0xbda75b9f	-0.08171772
253	0xbcbd2ab8	-0.023091659
254	0xbbbf97c0	-0.0058469474
255	0x3d9cd96d	0.07658658

encoder_layer.linear2.bias f4 [6]
0	0x3d2d1406	0.042255424
1	0x3bcda650	0.0062759295
2	0x3d52215e	0.051301353
3	0x3d65ad86	0.056073688
4	0x3d6a2ab2	0.057169624
5	0xbc042920	-0.008066446

encoder_layer.norm1.weight f4 [6]
0	0x3f800000	1.0
1	0x3f800000	1.0
2	0x3f800000	1.0
3	0x3f800000	1.0
4	0x3f800000	1.0
5	0x3f800000	1.0

encoder_layer.norm1.bias f4 [6]
0	0x00000000	0.0
1	0x00000000	0.0
2	0x00000000	0.0
3	0x00000000	0.0
4	0x00000000	0.0
5	0x00000000	0.0

encoder_layer.norm2.weight f4 [6]
0	0x3f800000	1.0
1	0x3f800000	1.0
2	0x3f800000	1.0
3	0x3f800000	1.0
4	0x3f800000	1.0
5	0x3f800000	1.0

encoder_layer.norm2.bias f4 [6]
0	0x00000000	0.0
1	0x00000000	0.0
2	0x00000000	0.0
3	0x00000000	0.0
4	0x00000000	0.0
5	0x00000000	0.0

transformer_encoder.layers.0.self_attn.in_proj_weight f4 [18, 6]
0	0x3dc5aaa0	0.09651685
1	0x3d4aa4e0	0.049473643
2	0xbe273220	-0.16327715
3	0xbedcc6f4	-0.4312054
4	0x3ea5ce1a	0.32383806
5	0x3e001170	0.12506652
6	0xbe39b950	-0.18137097
7	0xbea3ad52	-0.3196817
8	0x3e9e942e	0.30972427
9	0x3eae8f0c	0.3409351
10	0xbeb67f16	-0.35643834
11	0xbeeffb96	-0.46871632
12	0xbeadbe84	-0.33934414
13	0xbecb0998	-0.39655757
14	0xbef2c8f2	-0.47418934
15	0x3ee9739a	0.4559601
16	0xbd529ae0	-0.05141723
17	0xbd94cd78	-0.072657526
18	0x3eabe946	0.3357641
19	0x3e64ed60	0.22356176
20	0x3e75bcb0	0.2399776
21	0xbef30db4	-0.47471392
22	0xbeea6422	-0.4577952
23	0x3e35d64c	0.17757529
24	0xbe7eba38	-0.24875724
25	0x3eab8234	0.33497775
26	0xbe439070	-0.19098067
27	0x3e0967ec	0.1341855
28	0x3eb81966	0.35956877
29	0x3e845f0c	0.25853765
30	0x3ea8c9ee	0.3296656
31	0x3ecb0d36	0.39658517
32	0x3e76cb44	0.24100977
33	0x3e2336d8	0.1593889
34	0xbebf6cf4	-0.37387812
35	0xbdc918c0	-0.09819174
36	0x3ead1f8e	0.33813137
37	0x3e4ed03c	0.20196623
38	0xbee20998	-0.44147944
39	0xbee707a8	-0.4512303
40	0xbead8b10	-0.3389516
41	0x3dfa54e8	0.12223226
42	0x3ee33ed0	0.4438386
43	0x3df95b78	0.121756494
44	0xbeb3223e	-0.34987062
45	0x3ec26b9e	0.3797273
46	0x3e68878c	0.22707957
47	0x3eb87c1c	0.36032188
48	0xbee809cc	-0.45319974
49	0x3d464950	0.04840976
50	0xbe404758	-0.18777215
51	0x3e00757c	0.12544817
52	0x3d951128	0.07278663
53	0xbea0af8c	-0.31383932
54	0xbe9b8d6a	-0.30381328
55	0x3e1a6390	0.15077043
56	0x3ea689f6	0.3252713
57	0xbe9ae898	-0.3025558
58	0x3e11ae54	0.14226657
59	0x3effca92	0.49959236
60	0x3edeccf2	0.43515736
61	0x3ea22038	0.31665206
62	0x3d032610	0.03201872
63	0xbe78bf74	-0.24291784
64	0xbec37aca	-0.38179618
65	0xbeee518c	-0.4654659
66	0x3e9d0bfe	0.30673212
67	0x3df5dee0	0.12005401
68	0x3db477d8	0.08811921
69	0xbed22c6c	-0.41049516
70	0x3eafa4c0	0.34305382
71	0xbc2b0240	-0.010437548
72	0x3e6ee02c	0.23327702
73	0xbe03558a	-0.128256
74	0x3e34ac4a	0.17643848
75	0x3e423729	0.18966354
76	0xbe6cff4f	-0.23144267
77	0xbda1233c	-0.078680485
78	0x3e0a97ec	0.13534516
79	0xbe2fed1d	-0.17180295
80	0xbebd9ba1	-0.37032798
81	0xbd189a1a	-0.037256338
82	0x3cae81f4	0.0213022
83	0xbe84d9b0	-0.25947332
84	0xbe26e19a	-0.16296998
85	0xbc4bc4a8	-0.012437023
86	0xbce60c2b	-0.028081974
87	0x3e0a736c	0.13520592
88	0xbd606c10	-0.054790556
89	0xbe137015	-0.14398225
90	0x3e4843f9	0.1955718
91	0xbd85c1a4	-0.06531075
92	0xbe75e591	-0.24013354
93	0x3e034677	0.12819849
94	0x3d80b94b	0.06285342
95	0x3e0fe9b0	0.14053988
96	0x3e2a0e52	0.16607025
97	0x3d16dab4	0.036829665
98	0x3e7ec94e	0.24881479
99	0x3e066a70	0.1312654
100	0xbd990ef4	-0.07473555
101	0x3d1479b2	0.03624887
102	0x3dbf25f1	0.093334086
103	0xbce2be3a	-0.027678598
104	0x3e7b6406	0.24549875
105	0xbc1a0afd	-0.009402034
106	0xbe1af76b	-0.15133445
107	0x3dfe175d	0.124068

transformer_encoder.layers.0.self_attn.in_proj_bias f4 [18]
0	0x00000000	0.0
1	0x00000000	0.0
2	0x00000000	0.0
3	0x00000000	0.0
4	0x00000000	0.0
5	0x00000000	0.0
6	0x00000000	0.0
7	0x00000000	0.0
8	0x00000000	0.0
9	0x00000000	0.0
10	0x00000000	0.0
11	0x00000000	0.0
12	0xbd84e781	-0.06489468
13	0xbd042a7c	-0.03226708
14	0x3d473e7d	0.048643578
15	0x3dd57044	0.104218036
16	0xbe2346fd	-0.15945049
17	0xbcdc556c	-0.026896201

transformer_encoder.layers.0.self_attn.out_proj.weight f4 [6, 6]
0	0x3d918713	0.071058415
1	0xbd8158a9	-0.06315739
2	0xbc9b0d08	-0.018927112
3	0x3d02a449	0.031894956
4	0x3d986b58	0.07442349
5	0x3ceb9c48	0.028761044
6	0xbdb440d3	-0.08801427
7	0x3d506098	0.05087337
8	0x3d75c018	0.059997648
9	0xbd7267de	-0.059181087
10	0xbd9c60e4	-0.07635668
11	0xbe8c549c	-0.27408302
12	0x3ca9cf48	0.020728722
13	0xbd4fcb59	-0.050731037
14	0xba9b8d13	-0.0011867605
15	0xbc9aa2c4	-0.01887644
16	0xbd95460c	-0.07288751
17	0x3d57f220	0.052721143
18	0x3db17592	0.08665003
19	0xbe6e47a2	-0.23269513
20	0xbd475626	-0.048666142
21	0xbe26efd5	-0.16302426
22	0x3e2f3507	0.17110072
23	0xbd38bd48	-0.045102388
24	0x3d6bb034	0.057541087
25	0x3d8ea530	0.06965101
26	0x3d1fa4f9	0.03897569
27	0x3c03b6e6	0.008039212
28	0xbd8c468d	-0.06849394
29	0xbd311123	-0.043229233
30	0x3d4e760e	0.050405554
31	0xbe15e0c9	-0.1463653
32	0xbd9104ca	-0.070809916
33	0xbf0a78ce	-0.54090583
34	0x3e78aed7	0.24285446
35	0xbde45c4b	-0.11150416

transformer_encoder.layers.0.self_attn.out_proj.bias f4 [6]
0	0xbcfa5f19	-0.030562924
1	0x3ddbcbdf	0.10732245
2	0x3c8057ae	0.015666809
3	0xbbe75798	-0.0070600025
4	0xbcfca4a9	-0.030840235
5	0xbd91ca27	-0.071186356

transformer_encoder.layers.0.linear1.weight f4 [128, 6]
0	0x3ec9e4f6	0.39432496
1	0xbd206bb8	-0.03916523
2	0xbe837d4b	-0.25681528
3	0x3e8c35ab	0.27384695
4	0xbd80e8b5	-0.06294385
5	0xbdfda05e	-0.12384103
6	0xbcaa8f55	-0.0208203
7	0x3e9e1621	0.30876258
8	0xbf84c770	-1.0373363
9	0x3e589d47	0.21153747
10	0x3e099c7f	0.13438605
11	0x3d0d7ebc	0.03454469
12	0x3d37d49e	0.044880502
13	0x3d038b62	0.032115348
14	0xbf00d39b	-0.50322884
15	0xbe89c6de	-0.26909536
16	0xbc92a170	-0.017899245
17	0x3eced7b6	0.4039895
18	0xbebfe95a	-0.3748272
19	0x3eb7b455	0.3587977
20	0x3ebe3621	0.37150672
21	0x3e06639b	0.13123934
22	0x3f0d5929	0.5521417
23	0x3edebc0e	0.4350285
24	0xbf082bb6	-0.531917
25	0xbef0546c	-0.4693941
26	0xbeb9e232	-0.36305386
27	0x3cc63fbf	0.024200318
28	0x3e9c1048	0.30481172
29	0xbd82036b	-0.06348308
30	0x3e866d6d	0.2625536
31	0xbd7c8606	-0.061651252
32	0xbed79c0d	-0.42111245
33	0xbe392a08	-0.1808244
34	0x3eee33cc	0.46523893
35	0xbd558e2b	-0.052137535
36	0x3c57e30e	0.013176693
37	0xbdc21550	-0.09476721
38	0xbe6c31e9	-0.23065914
39	0xbdb5bc36	-0.08873789
40	0xbd9f4d02	-0.0777836
41	0x3e63bd2f	0.22240137
42	0x3e818162	0.25294024
43	0xbe1998af	-0.1499965
44	0x3e71d0de	0.23614833
45	0xbe18be40	-0.14916325
46	0xbd53d4cc	-0.05171661
47	0x3eae2a4d	0.34016648
48	0xbe590e70	-0.21196914
49	0x3edbf628	0.4296124
50	0x3f17c6d0	0.5928774
51	0xbc9acd1c	-0.018896632
52	0x3e8bd2a9	0.27309158
53	0x3ec6d384	0.3883325
54	0x3e91b503	0.28458413
55	0xbed67494	-0.41885817
56	0x3ea2189c	0.316594
57	0xbde6b05a	-0.11264105
58	0xbb9e388e	-0.004828519
59	0x3ae1abef	0.0017217378
60	0x3e645175	0.22296698
61	0x3e1e5f54	0.15466052
62	0xbf511b55	-0.8168233
63	0xbd0177f3	-0.031608533
64	0xbe47cb44	-0.19511133
65	0xbe51e16b	-0.20496146
66	0x3ecc98fa	0.39960462
67	0xbcc84e5e	-0.02445143
68	0x3dd04f0b	0.10171326
69	0x3e756458	0.2396406
70	0xbe0dcc77	-0.13847528
71	0xbd4bfa47	-0.04979923
72	0x3ee67681	0.45012286
73	0xbeae57dd	-0.3405141
74	0xbeedad57	-0.4642131
75	0x3e34311b	0.17596857
76	0x3d7385e5	0.059453864
77	0xbc7534a2	-0.014966162
78	0xbdbcf438	-0.092262685
79	0x3e427fa8	0.1899401
80	0xbdba5c2a	-0.0909961
81	0x3e19769e	0.14986655
82	0x3e8a1f6f	0.26977107
83	0x3e69c7b2	0.22830084
84	0xbe1b52af	-0.1516826
85	0xbb4e9ed9	-0.0031527786
86	0xbe673258	-0.22577798
87	0x3e153b11	0.14573313
88	0x3c390804	0.011293415
89	0xbeb44b90	-0.352139
90	0x3e3f2044	0.18664652
91	0x3ee4fa45	0.4472219
92	0xbea41dd2	-0.32054
93	0xbde0a0bf	-0.1096816
94	0x3dd2f026	0.10299711
95	0x3e8152d8	0.25258517
96	0x3e5db109	0.21649565
97	0xbefec78b	-0.49761614
98	0x3de7b492	0.11313738
99	0xbe0c7c6f	-0.13719343
100	0xbf0c94e8	-0.5491471
101	0xbdcc70b1	-0.09982432
102	0xbe6e029e	-0.23243186
103	0xbe08ef42	-0.1337252
104	0xbf0b7551	-0.54475886
105	0xbe853bc6	-0.26022166
106	0x3eb2fe1f	0.34959504
107	0x3ed68318	0.41896892
108	0x3c14c7f7	0.009080878
109	0x3e52ba5a	0.205789
110	0x39472797	0.00018992867
111	0x3eb07f9a	0.34472352
112	0x3e7b68ec	0.24551743
113	0x3cf2d2aa	0.029641468
114	0x3f0f55c0	0.5599022
115	0x3e408d2d	0.18803854
116	0x3e1c9d7c	0.1529445
117	0xbdd5e052	-0.10443176
118	0x3dd00ce4	0.10158709
119	0x3edcba25	0.43110767
120	0xbe55d5f5	-0.208824
121	0x3d4b34d8	0.049610943
122	0x3eaa7cd4	0.3329836
123	0xbd7792e7	-0.06044283
124	0xbeb40627	-0.35160944
125	0xbd6652ea	-0.056231417
126	0x3bc5dcaf	0.0060382704
127	0x3e58726a	0.21137396
128	0xbc024ed7	-0.007953367
129	0xbb654f09	-0.0034989736
130	0xbdd0867a	-0.10181899
131	0x3d53717a	0.05162189
132	0xbe9cfb87	-0.3066065
133	0x3ee42454	0.44558966
134	0x3f042465	0.51618034
135	0xbe45d361	-0.19318916
136	0x3ebd1b13	0.36934718
137	0x3ef38d1c	0.47568595
138	0x3eb11057	0.3458278
139	0xbdb21f81	-0.08697415
140	0xbf498883	-0.78723925
141	0x3df74a4b	0.12074717
142	0x3df43e5b	0.11925956
143	0x3b1db0ff	0.0024061797
144	0xbdc6201c	-0.09674093
145	0xbde9402e	-0.113891944
146	0xbea273d9	-0.3172901
147	0xbefc3379	-0.4925802
148	0x3eb6ed3f	0.3572788
149	0x3c76299c	0.015024569
150	0x3b9c24c0	0.004765123
151	0xbe2490af	-0.16070817
152	0xbe215b20	-0.15757418
153	0xbe1fd2eb	-0.15607803
154	0xbe5ff37f	-0.2187023
155	0xbd2d5b0d	-0.04232316
156	0x3efcf96e	0.4940905
157	0x3dfaba86	0.12242608
158	0xbc3933e3	-0.011303875
159	0x3ebbe8a8	0.3670094
160	0x3ca3dab4	0.020001747
161	0xbe86e69d	-0.2634782
162	0x3e79da96	0.2439979
163	0x3e978bd9	0.29598883
164	0xbef5aec1	-0.4798489
165	0x3ecd7748	0.40130067
166	0x3c9c30b1	0.019066187
167	0xbd3c1271	-0.045916025
168	0xbeec0c2c	-0.46103036
169	0xbf0acb9c	-0.54216933
170	0xbe2123f9	-0.15736379
171	0x3e64b56b	0.2233483
172	0xbdac8902	-0.0842457
173	0xbe0abaa8	-0.13547766
174	0xbebf0951	-0.37311795
175	0xbe83cb66	-0.25741118
176	0x3e3e8941	0.18607046
177	0x3d84d990	0.06486809
178	0xbdd99573	-0.10624208
179	0xbe6e030e	-0.23243353
180	0xbe8b54af	-0.27213046
181	0x3dbd4156	0.092409775
182	0x3df46f45	0.119352855
183	0xbdcf8b57	-0.10133999
184	0x3cb8b81a	0.022548724
185	0xbde8f13d	-0.113741376
186	0xbe60a711	-0.21938731
187	0x3e70edfd	0.23528285
188	0x3e962e3a	0.29332143
189	0xbf19733d	-0.59941465
190	0xbc4d6a40	-0.012537539
191	0x3eab4478	0.33450675
192	0xbd758501	-0.059941296
193	0x3e40978b	0.18807809
194	0x3d74e6e0	0.059790492
195	0xbee3285c	-0.4436673
196	0x3daa0818	0.08302325
197	0x3ecb7cbd	0.39743605
198	0x3def9002	0.11697389
199	0xbeaee38b	-0.34157977
200	0x3d9f04f7	0.07764619
201	0x3ee8104d	0.45324937
202	0xbe0ab8af	-0.13547014
203	0x3da51949	0.080614634
204	0xbea0edb4	-0.31431353
205	0xbe237479	-0.159624
206	0xbec3b0ee	-0.38220924
207	0xbddaf236	-0.10690729
208	0xbbcdd352	-0.006281295
209	0xbed39a54	-0.4132868
210	0xbf219272	-0.6311408
211	0x3e6128bb	0.21988194
212	0x3e951785	0.29119506
213	0xbdc57e21	-0.09643198
214	0xbe25b05d	-0.16180559
215	0x3eb5c97d	0.35505286
216	0x3d05f431	0.032703582
217	0xbed5a987	-0.41730902
218	0xbee29023	-0.44250593
219	0x3d8faf83	0.07015898
220	0x3e71abe1	0.23600723
221	0xbe21655d	-0.15761323
222	0xbe86472e	-0.2622618
223	0xbe278a2e	-0.16361305
224	0xbe0a34d8	-0.13496721
225	0xbe5b9b3b	-0.21445934
226	0xbe90d01f	-0.28283784
227	0xbe071110	-0.13190103
228	0xbd6fc233	-0.058534812
229	0xbc077e79	-0.0082698995
230	0x3e637697	0.22213207
231	0x3e1f3b20	0.15549898
232	0x3d9db776	0.07701008
233	0xbc2f76ee	-0.010709507
234	0xbc5489be	-0.012972293
235	0x3eba5962	0.3639632
236	0xbdb22c13	-0.08699813
237	0xbc6d0e0d	-0.014468682
238	0xbe656937	-0.22403418
239	0xbca9798e	-0.020687845
240	0x3f05f957	0.5233359
241	0xbe9cc8a9	-0.30621842
242	0xbd8d0213	-0.06885161
243	0xbe9ee74d	-0.31035843
244	0xbdad4d3f	-0.08461999
245	0x3ef5e970	0.4802966
246	0xbedcf5d5	-0.43156305
247	0x3eb6516d	0.35608998
248	0x3e2c7a01	0.16843416
249	0x3d70eb38	0.058818072
250	0x3d4d63ff	0.05014419
251	0x3e8077de	0.2509145
252	0xbf1bfa3a	-0.6092869
253	0xbd6ed515	-0.05830868
254	0xbd26b396	-0.04069861
255	0xbeadf2ef	-0.33974406

transformer_encoder.layers.0.linear1.bias f4 [128]
0	0x3ccea69d	0.025225932
1	0xbeebb2d6	-0.46034878
2	0xbf0f7f17	-0.560533
3	0xbeaf4ff0	-0.34240675
4	0xbe8112c7	-0.25209638
5	0xbec6d08f	-0.38830993
6	0x3e8088f6	0.25104493
7	0xbc27feeb	-0.010253648
8	0x3c1d15d1	0.009587721
9	0xbee716af	-0.45134494
10	0xbf09438a	-0.5361868
11	0x3bb2d321	0.0054572974
12	0xbc8e9188	-0.01740338
13	0x3dd09f23	0.10186603
14	0xbdef5cd1	-0.11687625
15	0xbe9d90a2	-0.3077441
16	0xbeb951bb	-0.36195168
17	0xbe910f4c	-0.28331983
18	0x3d0aae08	0.033857375
19	0xbeaf8ace	-0.34285587
20	0x3c896626	0.016772341
21	0xbe03450b	-0.12819307
22	0xbedb9203	-0.42884836
23	0x3da69ba8	0.08135158
24	0xbeb6cf49	-0.3570502
25	0xbd8e06d7	-0.06934898
26	0xbeaf4fa7	-0.34240457
27	0xbf1644c9	-0.5869871
28	0xbcb7fee4	-0.022460409
29	0xbdabab40	-0.08382273
30	0xbe23b356	-0.1598638
31	0xbebc7e48	-0.36815095
32	0xbdb1a2bd	-0.08673618
33	0xbd935836	-0.07194559
34	0xbd97d09f	-0.07412838
35	0xbf09e0d8	-0.5385871
36	0x3d7d61f7	0.061861005
37	0xbd8db00a	-0.069183424
38	0xbde7a931	-0.113115676
39	0xbe3b69da	-0.18302098
40	0xbf16e872	-0.58948433
41	0xbe7fecea	-0.2499272
42	0xbeb3c1b6	-0.35108727
43	0xbf09868e	-0.5372094
44	0xbf06b2b6	-0.5261644
45	0x3d939e96	0.07207982
46	0x3d69332f	0.056933578
47	0xbebf827b	-0.37404236
48	0xbf39e051	-0.72607905
49	0xbf023d59	-0.5087486
50	0xbf023be6	-0.5087265
51	0xbf12d879	-0.5736156
52	0xbef56255	-0.47926584
53	0xbee9ee73	-0.45689735
54	0xbf238a3b	-0.638828
55	0x3d70fc62	0.05883444
56	0x3e302047	0.17199813
57	0xbe339b38	-0.1753968
58	0x3cd7aedf	0.026328502
59	0xbe90c39a	-0.28274232
60	0xbd933b47	-0.07189041
61	0xbea9b502	-0.3314591
62	0xbcc7b2d3	-0.024377262
63	0xbefdaff0	-0.49548292
64	0xbe581d58	-0.21104944
65	0xbf08be2c	-0.5341518
66	0xbf277937	-0.65419334
67	0x3cb3d329	0.021951275
68	0xbe45a808	-0.1930238
69	0xbdc0612d	-0.09393535
70	0xbec7e1e2	-0.39039522
71	0xbef4ef34	-0.47838748
72	0x3dadacbe	0.084802136
73	0xbd0e9a91	-0.034815375
74	0xbeb36bcb	-0.35043177
75	0xbf00df3e	-0.5034064
76	0xbeb89ef2	-0.36058766
77	0xbdfd4b12	-0.12367834
78	0xbe153a9d	-0.1457314
79	0xba869cdc	-0.0010270136
80	0xbe88145b	-0.2657803
81	0xbe08ced9	-0.13360156
82	0x3db8b4a2	0.09018828
83	0xbec2bfad	-0.38036862
84	0xbf197d8e	-0.59957206
85	0xbe22d1d5	-0.15900357
86	0xbecae8f7	-0.39630863
87	0xbda8db3e	-0.08244942
88	0xbf54b90d	-0.83094865
89	0x3c9c408e	0.01907375
90	0xbeeba268	-0.46022344
91	0xbef7411a	-0.48291856
92	0xbe82ea8c	-0.2556957
93	0xbea16648	-0.31523347
94	0xbd77d7b6	-0.060508452
95	0xbddd4c27	-0.108055405
96	0xbdabd1cd	-0.08389626
97	0xbebd2b8d	-0.3694729
98	0xbea459e4	-0.3209983
99	0x3d14c3bf	0.03631949
100	0x3eeaad9d	0.4583558
101	0xbf27daa3	-0.6556799
102	0xbed1fe60	-0.41014385
103	0xbe99b7d9	-0.30023077
104	0xbe092b35	-0.13395388
105	0xbec880a8	-0.39160657
106	0xbc62f33d	-0.013851938
107	0xbf05b8fa	-0.52235377
108	0xbca61ec6	-0.020278346
109	0x3d4cbf00	0.04998684
110	0xbdbc39cb	-0.09190711
111	0xbf31f34c	-0.69511867
112	0xbf08e077	-0.53467506
113	0x3da9cf1a	0.082914546
114	0xbeae1e02	-0.3400727
115	0x3e1e2e0e	0.15447256
116	0xbe0740c6	-0.13208303
117	0xbf2c220f	-0.6723947
118	0xbdea3830	-0.11436498
119	0xbe40e340	-0.18836689
120	0xbe79d6c6	-0.24398336
121	0xbe6ab62a	-0.22921053
122	0xbe401f4f	-0.18761943
123	0xbef60205	-0.48048416
124	0xbec70a0e	-0.3887486
125	0xbe913478	-0.28360343
126	0xbea5b200	-0.32362366
127	0xbc031b8f	-0.008002176

transformer_encoder.layers.0.linear2.weight f4 [6, 128]
0	0x3e05d4ed	0.13069506
1	0xbd4f8466	-0.050663374
2	0xbd5ea6c1	-0.054358248
3	0x3ef77284	0.48329556
4	0xbeb46fe4	-0.35241616
5	0x3e031ac7	0.12803183
6	0x3d68d6cf	0.056845482
7	0x3e365e5b	0.17809431
8	0xbdc04c68	-0.09389573
9	0x3ae83465	0.001771581
10	0x3e4fe4d1	0.2030213
11	0x3cb4f0e7	0.022087527
12	0x3da7c398	0.081916034
13	0xbd3e9cb4	-0.046536162
14	0x3db7bee4	0.08971956
15	0xbdab5666	-0.083660886
16	0xbd34cd48	-0.044141084
17	0xbd5a96da	-0.05336652
18	0x3cc469ec	0.023976289
19	0x3e942751	0.28936246
20	0xbd133cf4	-0.0359468
21	0x3c43f561	0.011960358
22	0x3ec89aff	0.39180753
23	0x3d939d1a	0.07207699
24	0x3d6f62de	0.058443896
25	0x3c8ec294	0.017426766
26	0x3ccb9b58	0.024854347
27	0x3f28944f	0.658513
28	0x3e2df784	0.16988951
29	0x3c7863b1	0.015160487
30	0xbda75721	-0.081709154
31	0xbd851494	-0.064980656
32	0x3d63e747	0.055640485
33	0x3e17598e	0.14780256
34	0x3e0daf25	0.13836344
35	0xbe98ee5e	-0.2986936
36	0xbe0946b6	-0.1340588
37	0xbc45af2b	-0.012065689
38	0xbd53e9cb	-0.051736634
39	0x3d45cea4	0.04829277
40	0x3e6a6a9d	0.22892232
41	0xbcef3276	-0.029198866
42	0xbeb1648e	-0.3464703
43	0x3bc89548	0.0061213113
44	0xbe1a6120	-0.15076113
45	0x3e0be115	0.1366008
46	0x3d9c8dc4	0.07644227
47	0x3bddd577	0.0067698318
48	0xbe3018a4	-0.171969
49	0xbdc95b2d	-0.098318435
50	0xbe75a1db	-0.23987524
51	0x3e5656ef	0.209316
52	0xbe3cb738	-0.18429267
53	0x3d98aee6	0.07455234
54	0xbdc18a60	-0.09450221
55	0x3d21097b	0.039315682
56	0xbddf092f	-0.108904235
57	0x3d12b353	0.03581555
58	0xbc86b3b0	-0.016443104
59	0x3e4ea5d9	0.20180453
60	0xbb8d9943	-0.0043212487
61	0xbdbda073	-0.09259119
62	0xbe11b93c	-0.14230818
63	0x3c998f46	0.018745076
64	0x3e000291	0.12500979
65	0xbdcbb8b1	-0.099473365
66	0xbecddd6f	-0.40208003
67	0xbda724ae	-0.08161293
68	0x3da60842	0.08107044
69	0x3cd2347e	0.025659796
70	0x3cbca5c1	0.023028256
71	0xbd284797	-0.0410839
72	0x3cd961cb	0.02653589
73	0x3c874920	0.01651436
74	0x3eab794a	0.33490974
75	0xbf0fc05f	-0.5615291
76	0x3ea8bd8d	0.32957116
77	0xbd326fbd	-0.043563593
78	0xbe1ff73e	-0.15621659
79	0x3dbd42ac	0.09241232
80	0xbe00a34d	-0.12562294
81	0x3e173ebf	0.1477003
82	0x3d94ae48	0.07259804
83	0x3de001d8	0.10937852
84	0xbd7610d2	-0.060074635
85	0x3ec40901	0.3828812
86	0xbe975ce5	-0.2956306
87	0xbe4200f4	-0.18945676
88	0xbeb9e540	-0.36307716
89	0x3deb56d6	0.11491172
90	0xbe888a98	-0.2666824
91	0xbd31e316	-0.043429457
92	0xbe822972	-0.25422245
93	0xbe92bbfe	-0.28659052
94	0xbe864fa6	-0.26232642
95	0xbddb2c7d	-0.10701845
96	0x3e57dbf9	0.21080007
97	0x3da7d900	0.08195686
98	0xbe135be3	-0.14390521
99	0x3d9f52ce	0.077794656
100	0x3caa9fd6	0.020828169
101	0xbe5539ce	-0.20822832
102	0xbb6fcdc5	-0.0036591154
103	0xba517c3d	-0.000799123
104	0x3e8d84e0	0.27640438
105	0xbc98cbe8	-0.018651918
106	0x3dc8fb58	0.09813565
107	0x3e1ecdee	0.15508243
108	0x3d68e090	0.056854784
109	0xbe0505a6	-0.12990436
110	0x3e43c309	0.19117369
111	0x3faf2161	1.3682061
112	0x3e87e7eb	0.26544127
113	0xbd85cdaf	-0.06533372
114	0xbe0cf841	-0.13766576
115	0x3e1101fc	0.14160913
116	0x3e3e99c5	0.18613346
117	0x3df30245	0.11865667
118	0x3ce3bbd1	0.027799519
119	0x3e55e9df	0.20889996
120	0x3e479be8	0.19493067
121	0x3c8ff3c7	0.017572297
122	0xbe1e8f2d	-0.15484305
123	0x3df2cd37	0.11855548
124	0xbe56e971	-0.20987488
125	0xbde245ef	-0.11048495
126	0xbd6f5053	-0.058426213
127	0xbd5c1c9e	-0.05373823
128	0x390ec644	0.00013616035
129	0x3e017ea7	0.1264597
130	0x3b7edf77	0.003889052
131	0x3dc7a4ff	0.097482674
132	0xbde30624	-0.110851556
133	0x3e992e39	0.29918078
134	0x3d231a2f	0.039819892
135	0xbd97a6ef	-0.07404887
136	0x3c85a65b	0.016314676
137	0xbd0c0137	-0.034180846
138	0xbe5b1679	-0.21395291
139	0xbd9eb329	-0.07749016
140	0x3d7312f8	0.059344262
141	0x3cb3524e	0.021889832
142	0xbde8d28d	-0.113682844
143	0x3e83402b	0.25634894
144	0xbe4a5ab9	-0.1976117
145	0xbe0285b5	-0.12746318
146	0xbe2bc1c0	-0.16773129
147	0xbe89aaa8	-0.26888013
148	0x3e208bf4	0.15678388
149	0x3df28e45	0.11843542
150	0x3d16d34a	0.036822595
151	0xbe2a6155	-0.16638692
152	0x3db84440	0.08997393
153	0x3db1dc11	0.086845525
154	0xbe0ad04a	-0.13556018
155	0xbe657683	-0.2240849
156	0x3ba5f39e	0.005064442
157	0x3ca7e944	0.020496972
158	0x3d3304df	0.043705817
159	0xbdaf2e9a	-0.085538104
160	0xbe103900	-0.14084244
161	0xbd873edc	-0.06603786
162	0xbe0300d0	-0.12793279
163	0x3ce61926	0.028088164
164	0x3c716b25	0.014735018
165	0x3de339f5	0.11095039
166	0xbcdc8470	-0.02691862
167	0x3e73d8c4	0.23813158
168	0xbe8cf152	-0.27527863
169	0xbb09a646	-0.0021003648
170	0xbd8dde94	-0.06927219
171	0x3e307266	0.1723114
172	0x3e755213	0.2395709
173	0xbc1f37b9	-0.009717875
174	0xbdaab98f	-0.08336174
175	0xbe2fb41e	-0.17158553
176	0xbd496e11	-0.049177233
177	0x3d733062	0.059372313
178	0x3e056da9	0.13030113
179	0xbdb22c50	-0.08699858
180	0xbf0215a7	-0.5081429
181	0xbdad3e29	-0.08459122
182	0xbe53ce7f	-0.20684241
183	0xbd94814d	-0.07251225
184	0xbbeaf148	-0.0071698762
185	0x3d3ab348	0.045581132
186	0x3e020450	0.12696958
187	0xbe515fca	-0.20446697
188	0xbda0241d	-0.07819388
189	0xbe4920d1	-0.19641425
190	0x3d46f374	0.04857202
191	0x3ea83541	0.3285313
192	0x3c706639	0.014672809
193	0x3eb72664	0.35771477
194	0xbf42b30e	-0.76054466
195	0x3cabb486	0.020960104
196	0x3df8e8bc	0.121537656
197	0xbb1d349c	-0.0023987656
198	0xbb27b784	-0.0025591562
199	0x3ee2b140	0.44275856
200	0x3e02cb38	0.12772834
201	0xbd0d01e4	-0.03442563
202	0x3dacd8fd	0.08439825
203	0x3d0f5402	0.034992225
204	0x3c54398a	0.0129531715
205	0x3cc9e117	0.024643464
206	0x3cb041bf	0.021515725
207	0x3e07d20b	0.13263719
208	0xbd5d8948	-0.054086
209	0x3c2e28cb	0.010629843
210	0xbe0e4340	-0.13892841
211	0xbd98811e	-0.07446502
212	0x3eeb7886	0.4599039
213	0x3cba0165	0.022705743
214	0x3cf55ef8	0.029952511
215	0xbd8ecb2c	-0.06972346
216	0xbe7b2b1c	-0.24528164
217	0xbdbb4750	-0.09144461
218	0x3d011ba2	0.031520493
219	0x3eb46e55	0.35240427
220	0xbdca9723	-0.09892108
221	0x3ce27b25	0.02764661
222	0xbafc42bf	-0.0019245966
223	0x3e5da129	0.21643509
224	0x3b8cc802	0.0042963037
225	0xbe86319b	-0.2620972
226	0xbd9442f6	-0.07239334
227	0xbd8fb9ac	-0.07017836
228	0x3d545427	0.051838066
229	0x3ed27802	0.41107184
230	0x3e8a40db	0.27002606
231	0x3b98435f	0.004646703
232	0x3c75af94	0.014995474
233	0x3def4a49	0.11684091
234	0xbc629531	-0.013829515
235	0xbe49d825	-0.19711359
236	0x3e4b0917	0.19827686
237	0xbc4bae59	-0.012431704
238	0xbdab1496	-0.08353536
239	0xbeb1c70e	-0.3472218
240	0xbe5bef32	-0.21477965
241	0xbe35633b	-0.17713635
242	0x3f3998b4	0.7249863
243	0xbda71d17	-0.08159845
244	0x3dd91a57	0.10600727
245	0xbe0ee608	-0.13954937
246	0xbd877ea3	-0.06615951
247	0x3bdab869	0.0066748154
248	0xbdef914d	-0.11697636
249	0x3e71c29d	0.23609395
250	0x3cd560d6	0.026047152
251	0xbefda435	-0.49539343
252	0xbe299617	-0.16561161
253	0x3d612605	0.0549679
254	0xbce2eb1f	-0.027700005
255	0x3d94c5b6	0.07264273

transformer_encoder.layers.0.linear2.bias f4 [6]
0	0xbdf135d9	-0.11777849
1	0x3e12182e	0.14267036
2	0xbcf65449	-0.030069487
3	0x3c0dd72f	0.008657261
4	0x3db4fd3c	0.08837363
5	0xbd300969	-0.042977724

transformer_encoder.layers.0.norm1.weight f4 [6]
0	0x3f8dbd82	1.1073458
1	0x3f730a67	0.9493775
2	0x3f865da7	1.049733
3	0x3f526972	0.82192147
4	0x3f6b1cfb	0.91841096
5	0x3f4816be	0.781597

transformer_encoder.layers.0.norm1.bias f4 [6]
0	0xbd2ae9ca	-0.041726865
1	0x3ca8309a	0.020530988
2	0x3e1852f5	0.14875396
3	0xbd01a8cb	-0.031655114
4	0xbde98400	-0.1140213
5	0xbd9a2594	-0.07526699

transformer_encoder.layers.0.norm2.weight f4 [6]
0	0x3f8d7bf2	1.105345
1	0x3f88e486	1.069474
2	0x3f934eaa	1.1508381
3	0x3f8d05a3	1.1017345
4	0x3f7e30b2	0.99293053
5	0x3f7781c8	0.96682405

transformer_encoder.layers.0.norm2.bias f4 [6]
0	0xbe805af4	-0.25069392
1	0x3c829b6f	0.015943257
2	0x3d56688c	0.052345797
3	0x3d1660c9	0.036713395
4	0xbcb2a458	-0.02180688
5	0x3bdf719e	0.006818964

transformer_encoder.layers.1.self_attn.in_proj_weight f4 [18, 6]
0	0x3dc5aaa0	0.09651685
1	0x3d4aa4e0	0.049473643
2	0xbe273220	-0.16327715
3	0xbedcc6f4	-0.4312054
4	0x3ea5ce1a	0.32383806
5	0x3e001170	0.12506652
6	0xbe39b950	-0.18137097
7	0xbea3ad52	-0.3196817
8	0x3e9e942e	0.30972427
9	0x3eae8f0c	0.3409351
10	0xbeb67f16	-0.35643834
11	0xbeeffb96	-0.46871632
12	0xbeadbe84	-0.33934414
13	0xbecb0998	-0.39655757
14	0xbef2c8f2	-0.47418934
15	0x3ee9739a	0.4559601
16	0xbd529ae0	-0.05141723
17	0xbd94cd78	-0.072657526
18	0x3eabe946	0.3357641
19	0x3e64ed60	0.22356176
20	0x3e75bcb0	0.2399776
21	0xbef30db4	-0.47471392
22	0xbeea6422	-0.4577952
23	0x3e35d64c	0.17757529
24	0xbe7eba38	-0.24875724
25	0x3eab8234	0.33497775
26	0xbe439070	-0.19098067
27	0x3e0967ec	0.1341855
28	0x3eb81966	0.35956877
29	0x3e845f0c	0.25853765
30	0x3ea8c9ee	0.3296656
31	0x3ecb0d36	0.39658517
32	0x3e76cb44	0.24100977
33	0x3e2336d8	0.1593889
34	0xbebf6cf4	-0.37387812
35	0xbdc918c0	-0.09819174
36	0x3ead1f8e	0.33813137
37	0x3e4ed03c	0.20196623
38	0xbee20998	-0.44147944
39	0xbee707a8	-0.4512303
40	0xbead8b10	-0.3389516
41	0x3dfa54e8	0.12223226
42	0x3ee33ed0	0.4438386
43	0x3df95b78	0.121756494
44	0xbeb3223e	-0.34987062
45	0x3ec26b9e	0.3797273
46	0x3e68878c	0.22707957
47	0x3eb87c1c	0.36032188
48	0xbee809cc	-0.45319974
49	0x3d464950	0.04840976
50	0xbe404758	-0.18777215
51	0x3e00757c	0.12544817
52	0x3d951128	0.07278663
53	0xbea0af8c	-0.31383932
54	0xbe9b8d6a	-0.30381328
55	0x3e1a6390	0.15077043
56	0x3ea689f6	0.3252713
57	0xbe9ae898	-0.3025558
58	0x3e11ae54	0.14226657
59	0x3effca92	0.49959236
60	0x3edeccf2	0.43515736
61	0x3ea22038	0.31665206
62	0x3d032610	0.03201872
63	0xbe78bf74	-0.24291784
64	0xbec37aca	-0.38179618
65	0xbeee518c	-0.4654659
66	0x3e9d0bfe	0.30673212
67	0x3df5dee0	0.12005401
68	0x3db477d8	0.08811921
69	0xbed22c6c	-0.41049516
70	0x3eafa4c0	0.34305382
71	0xbc2b0240	-0.010437548
72	0x3daa0cbb	0.083032094
73	0x3c5be6fa	0.013421768
74	0xbcde2f01	-0.027122023
75	0x3d54b01a	0.051925756
76	0xbe044fc5	-0.12921055
77	0xbe382934	-0.17984468
78	0xbd87ef6b	-0.06637462
79	0xbe4d7d71	-0.20067383
80	0xbea1b9ec	-0.3158716
81	0xbe0c2f4a	-0.13689914
82	0xbd75ff65	-0.060058016
83	0xbe62bbde	-0.22141978
84	0xbe0cdc2f	-0.13755868
85	0x3c619eb5	0.013770749
86	0x3d5da382	0.05411101
87	0x3d4487c3	0.047981035
88	0xbd9f4d9a	-0.07778473
89	0xbe07b045	-0.13250835
90	0x3df9a3c0	0.12189436
91	0x3deb2448	0.114815295
92	0xbd11c3d5	-0.03558715
93	0x3e33af22	0.17547277
94	0x3e5b486e	0.21414348
95	0x3dd85f40	0.105650425
96	0x3d4baf6f	0.049727853
97	0x3d074cb6	0.03303214
98	0x3de99148	0.11404663
99	0x3d517991	0.051141325
100	0x3d87603f	0.06610154
101	0x3e20021e	0.15625808
102	0x3e1ceb2d	0.15324087
103	0x3e36bd82	0.17845729
104	0x3e84fc50	0.2597375
105	0x3dd245db	0.1026723
106	0x3d29cca3	0.041454922
107	0x3e33359d	0.1750092

transformer_encoder.layers.1.self_attn.in_proj_bias f4 [18]
0	0x00000000	0.0
1	0x00000000	0.0
2	0x00000000	0.0
3	0x00000000	0.0
4	0x00000000	0.0
5	0x00000000	0.0
6	0x00000000	0.0
7	0x00000000	0.0
8	0x00000000	0.0
9	0x00000000	0.0
10	0x00000000	0.0
11	0x00000000	0.0
12	0xbdf68c08	-0.120384276
13	0x3ae48eab	0.0017437538
14	0xbdb42cbf	-0.08797597
15	0x3db6b6fa	0.08921619
16	0x3d5db0ec	0.054123804
17	0xbd954289	-0.07288081

transformer_encoder.layers.1.self_attn.out_proj.weight f4 [6, 6]
0	0x3d629ec5	0.055327196
1	0x3d5b83ef	0.05359262
2	0xbdca8758	-0.09889096
3	0x3d8c9d5e	0.06865953
4	0xbcf61b4a	-0.03004231
5	0xbe23140a	-0.15925613
6	0x3b631aba	0.0034653381
7	0xbd8a267f	-0.06745624
8	0xbcf5fae9	-0.03002687
9	0xbe213cd5	-0.15745862
10	0x3b396f53	0.0028295114
11	0xbe3454fb	-0.17610542
12	0x3dd96a43	0.10615971
13	0xbd105ff4	-0.035247758
14	0xbd3a1a99	-0.04543552
15	0x3a92532e	0.0011163705
16	0xbc9d2323	-0.019181794
17	0x3d8b7b23	0.06810596
18	0x3dea3990	0.114367604
19	0xbdb1efcd	-0.086883165
20	0x3d158c09	0.0365105
21	0xbe76b212	-0.24091366
22	0xbd96262a	-0.07331498
23	0xbde11ff0	-0.1099242
24	0x3d1a9c7a	0.037746884
25	0xbcb55675	-0.022135952
26	0x3d2b2940	0.041787386
27	0x3d2493f3	0.040180158
28	0xbd2f5c0c	-0.042812392
29	0xbb4dcf6f	-0.0031404158
30	0xbc2e453b	-0.010636623
31	0xbdb9511a	-0.09048672
32	0xbd987e3f	-0.074459545
33	0xbe7f6fc7	-0.24944983
34	0x3cda3b2d	0.026639545
35	0xbe2f4042	-0.17114356

transformer_encoder.layers.1.self_attn.out_proj.bias f4 [6]
0	0x3bb64d19	0.00556339
1	0xbc53e873	-0.012933838
2	0x3c1fbc02	0.009749414
3	0xbc904210	-0.017609626
4	0x3c36596f	0.011129721
5	0xbd1502ca	-0.036379613
