MediaPipe_Operation/model_4class/gesture_classifier_with_unclass_data2.pth (torch, 133556 bytes, 6 tensors)

fc1.weight f4 [126, 180]
-0.09555669 0.026119448 -0.14921989 -0.030423677 -0.22871505 0.08170336 -0.09148311 0.014760914
-0.12960191 -0.022893876 -0.22070536 0.06886727 -0.08502757 0.013973596 -0.12439219 -0.033970095
-0.21220395 0.064854704 -0.072132334 0.0073273415 -0.10449906 -0.042790983 -0.18580744 0.051985025
-0.05812774 0.005752718 -0.092045724 -0.060168467 -0.16990654 0.048239514 -0.052994907 0.0022162958
-0.0739249 -0.068317674 -0.14776061 0.035728887 -0.03631151 0.0030472076 -0.052711837 -0.07361948
-0.12331566 0.021570113 -0.028213756 -0.004095597 -0.03622281 -0.082315296 -0.099928685 0.0061449637
-0.013694146 -0.0027955351 -0.02344587 -0.071713135 -0.06928804 -0.015146435 -0.010850575 -0.0038757836
-0.010935177 -0.045242626 -0.046475064 -0.016875897 -0.0036169705 -0.0021650584 -0.0029498485 -0.032394078
-0.025441898 -0.03520766 0.010831802 -0.0054860306 0.009344754 -0.032337673 -0.0018041508 -0.045123573
0.013685952 -0.0061800214 0.017195161 -0.023160871 0.011997141 -0.0482666 0.02535945 0.0015479879
0.020331541 -0.026258163 0.02549909 -0.056143664 0.031435587 -0.004836622 0.029999977 -0.015794994
0.04876506 -0.061807714 0.033046402 -0.0024350875 0.037775975 -0.002787148 0.07463608 -0.06785221
0.03867893 -0.003624203 0.047672022 -0.004064398 0.0957275 -0.069829494 0.046484094 -0.012851813
0.05832087 0.008607857 0.11291522 -0.07108059 0.048690446 -0.01344227 0.06355703 0.019309862
0.12691967 -0.07202066 0.04564162 -0.015014465 0.0710346 0.03779865 0.13373597 -0.06742669
0.048533775 -0.01680425 0.07158839 0.040203158 0.13899757 -0.058790825 0.047026604 -0.020025382
0.07280456 0.040888842 0.14123687 -0.047041662 0.04378125 -0.012868716 0.06876963 0.050570916
0.13015416 -0.03134321 0.035849396 -0.009789368 0.065275975 0.05997794 0.120013125 -0.013156421
0.032830346 -0.003440538 0.057333484 0.07040616 0.1078664 0.00809752 0.027035452 -0.0015907263
0.046898153 0.07059257 0.090828985 0.031510208 0.01615494 0.0019479382 0.03710343 0.072452426
0.07636546 0.050596774 0.0063343984 0.009697005 0.025914123 0.068729505 0.056019902 0.08251853
-0.0028333443 0.018961424 0.009250621 0.06601442 0.031105764 0.09754937 -0.017749477 0.032836504
-0.00752018 0.06607272 0.0031109548 0.12390384 -0.007985515 0.003815716 -0.010932705 0.004646402
-0.013758013 0.0010764028 -0.0066068424 0.003502034 -0.009396718 0.0035294057 -0.012007103 0.0010004728
-0.0054093073 0.0033439698 -0.008151739 0.0028479951 -0.010773553 0.0008454271 -0.0043896786 0.0036352745
-0.006985985 0.0031930031 -0.009780066 0.0003131302 -0.0037353982 0.0037704392 -0.005910198 0.0021766932
-0.008710076 -0.0004587796 -0.0033910545 0.0042533083 -0.0047253147 0.0012183567 -0.007799289 -0.0007963047
-0.0035420188 0.0044152085 -0.003962386 0.0011428731 -0.007609926 -0.0012009679 -0.004020941 0.00479914
-0.0033744061 0.0014494818 -0.0072895656 -0.00095072546 -0.0041365917 0.0051602544 -0.003088974 0.0016759085
-0.0075966837 -0.00053348095 -0.003672717 0.005234517 -0.0026454153 0.00022096223 -0.0077204863 -0.0018608193
-0.003852002 0.005425999 -0.002048938 0.000844973 -0.007961235 -0.0018357231 -0.004025692 0.0059492784
-0.0018420375 0.00176398 -0.007993962 -0.0018730755 -0.004077396 0.0060409303 -0.0016517041 0.0024259938
00000000: 3ab3 c3bd 74f8 d53c 19cd 18be 133b f9bc
00000010: 4734 6abe 1754 a73d 7f5b bbbd c3d7 713c
00000020: 5db6 04be f08b bbbc 9600 62be 490a 8d3d
00000030: ef22 aebd 82f1 643c 55c1 febd 3a24 0bbd
00000040: fe4b 59be 8bd2 843d 1eba 93bd 321a f03b
00000050: 9a03 d6bd 9945 2fbd 4e44 3ebe 40ee 543d
00000060: 5a17 6ebd 4c81 bc3b 7882 bcbd 3673 76bd
00000070: fbfb 2dbe cc96 453d 3011 59bd 463f 113b
00000080: f065 97bd 23ea 8bbd 8f4e 17be 7458 123d
00000090: 61bb 14bd a9b3 473b 5ee8 57bd cfc5 96bd
000000a0: ec8c fcbd ceb3 b03c 8920 e7bc 5c34 86bb
000000b0: 5f5e 14bd ec94 a8bd 69a7 ccbd b15b c93b
000000c0: 695d 60bc 4c35 37bb 8e11 c0bc 56de 92bd
000000d0: e3e6 8dbd c128 78bc 9cc6 31bc dc00 7ebb
000000e0: 7529 33bc 5550 39bd a35c 3ebd 523f 8abc
000000f0: b20a 6dbb a7e3 0dbb 3f52 41bb a7af 04bd
00000100: 876b d0bc e835 10bd df77 313c 29c4 b3bb
00000110: bd1a 193c 8274 04bd 4179 ecba 7fd3 38bd
00000120: 0b3b 603c c781 cabb dedc 8c3c debb bdbc
00000130: a88f 443c 33b3 45bd 9fbe cf3c dbe5 ca3a
00000140: 558e a63c 5c1b d7bc 78e3 d03c e6f6 65bd
00000150: 9ac2 003d 877c 9ebb 83c2 f53c 8164 81bc
00000160: dfbd 473d 162a 7dbd aa5b 073d fd95 1fbb
00000170: fbba 1a3d 96a8 36bb cdda 983d 19f6 8abd
00000180: cc6d 1e3d 0984 6dbb bd43 433d a42e 85bb
00000190: c80c c43d c402 8fbd 1b66 3e3d 6990 52bc
000001a0: dde1 6e3d f807 0d3c 1840 e73d b392 91bd
000001b0: a26f 473d f83c 5cbc 302a 823d b72f 9e3c
000001c0: 3bf7 013e 917f 93bd b5f2 3a3d 3bff 75bc
000001d0: 977a 913d c2d2 1a3d 15f2 083e 0117 8abd
000001e0: 5acb 463d 11a9 89bc ef9c 923d 11ac 243d
000001f0: 6155 0e3e a6ce 70bd f89e 403d 450c a4bc
00000200: 8f1a 953d 0f7b 273d 66a0 103e c2ae 40bd
00000210: f853 333d 4fd7 52bc 17d7 8c3d 7323 4f3d
00000220: 2247 053e bd61 00bd d1d6 123d 9663 20bc
00000230: 69af 853d 6eab 753d 71c9 f53d 078e 57bc
00000240: 1d79 063d a67a 61bb 84d6 6a3d 1b31 903d
00000250: 0fe9 dc3d 76ab 043c 7479 dd3c eb7f d0ba
00000260: 4718 403d d692 903d 8c04 ba3d d910 013d
00000270: 5d57 843c f651 ff3a c4f9 173d f061 943d
00000280: 7f65 9c3d 903e 4f3d c990 cf3b 30e0 1e3c
00000290: db49 d43c 0ec2 8c3d 2075 653d 7aff a83d
000002a0: a1af 39bb fd54 9b3c eb8f 173c 9132 873d
000002b0: 84d1 fe3c f7c7 c73d 5a67 91bc 927f 063d
000002c0: d86b f6bb 2251 873d 29e1 4b3b 4cc1 fd3d
000002d0: add5 02bc 1711 7a3b 171f 33bc d840 983b
000002e0: 4a69 61bc 1616 8d3a 367e d8bb 6182 653b
000002f0: b1f4 19bc 9a4d 673b 71b9 44bc 4c22 833a
00000300: 8f40 b1bb 8126 5b3b df8e 05bc 6ea5 3a3b
00000310: 8e83 30bc a79f 5d3a 4bd7 8fbb c93d 6e3b
00000320: b1ea e4bb b441 513b 923c 20bc a02b a439
00000330: 95cd 74bb 7919 773b 56aa c1bb daa6 0e3b
00000340: b5b4 0ebc 5b88 f0b9 743c 5ebb 565f 8b3b
00000350: d0d6 9abb 44b1 9f3a 2e91 ffbb 1bbf 50ba
00000360: 3721 68bb 74ad 903b e7d6 81bb 75cc 953a
00000370: b05c f9bb cc69 9dba 19c2 83bb 1b42 9d3b
00000380: 2425 5dbb 8afc bd3a 4fdd eebb 1b3a 79ba
00000390: 3f8c 87bb 5a17 a93b 6270 4abb 28aa db3a
000003a0: 9aed f8bb 4dd9 0bba f7b1 70bb 5086 ab3b
000003b0: b45e 2dbb 19b2 6739 22fc fcbb bce6 f3ba
000003c0: df71 7cbb 94cc b13b 7a47 06bb 2e81 5d3a
000003d0: d76f 02bc a59c f0ba f4e9 83bb 2af2 c23b
000003e0: 8670 f1ba 5935 e73a 1bf9 02bc fc81 f5ba
000003f0: ad9b 85bb fff2 c53b fe7d d8ba 6cfd 1e3b

fc1.bias f4 [126]
0.008755612 0.01470519 -0.041915435 0.005490523 -0.0010118694 -0.090313576 -0.008603164 3.630727e-06
0.0005427592 -0.009348975 0.00014515055 0.061460838 0.0017463353 -3.905535e-05 0.039447855 0.004491704
0.00065511686 -0.0117929485 -0.07706247 -0.15170048 0.022573408 0.03651603 -0.09724773 4.5743676e-05
-0.024665069 0.008328354 -0.08296047 0.013790386 0.017893596 -0.0014576569 0.16564855 -0.05805797
-0.025817014 -0.08615937 0.007118821 0.0579415 -0.030785844 -0.029875714 4.2610856e-05 0.030454678
0.03916292 0.081306994 -0.0656228 0.0799077 -0.050701294 0.000104634746 0.0024672248 -0.1324273
-0.0042396137 0.054975003 -0.073499404 4.4010514e-05 -0.02877301 -0.11424022 -0.025260651 -0.007988494
0.09628724 -0.01900449 0.096976355 0.007939074 0.0024010504 0.035860162 0.009880594 5.205244e-05
-0.02042137 -0.025662132 -0.014709346 -0.07890249 0.000151561 0.028261367 0.052281965 -0.002242983
0.10447599 0.009821382 -0.02428362 -0.017487084 -0.0024931887 0.048412733 0.0073897685 -0.02433736
0.010881222 0.04755032 -0.026100807 -0.10660875 0.03136788 0.0072986837 -0.070893206 -0.00010062232
5.585788e-05 0.00048385584 0.0022271809 0.00020288985 -0.09237036 -0.14669266 0.009895181 0.016121946
0.023883644 0.00033151836 0.0013563195 0.021850716 0.034609053 0.015264551 0.03694903 -9.198577e-05
0.023283532 0.017388703 0.058925506 -0.0026985893 0.015793052 0.03823579 -0.020057963 0.040594503
0.038977295 -6.0727572e-05 0.0243194 -0.041250512 0.008517532 0.004177102 0.113732085 -0.09456994
0.13928221 -0.0088405935 0.0055989716 -0.033043906 2.968042e-05 0.016604716
00000000: b373 0f3c 0aee 703c 85af 2bbd d8e9 b33b
00000010: b4a0 84ba 53f6 b8bd 49f4 0cbc 6aa7 7336
00000020: f447 0e3a 712c 19bc 8e33 1839 5cbe 7b3d
00000030: 4ae5 e43a 5dcf 23b8 1394 213d 252f 933b
00000040: 26bc 2b3a 3637 41bc eed2 9dbd 5f57 1bbe
00000050: deeb b83c d591 153d d129 c7bd e6dc 3f38
00000060: 660e cabc a673 083c 2ee7 a9bd 12f1 613c
00000070: 9795 923c d90e bfba c69f 293e 32ce 6dbd
00000080: 347e d3bc 5374 b0bd 0045 e93b 1154 6d3d
00000090: 9832 fcbc eabd f4bc 0fb9 3238 177c f93c
000000a0: 4c69 203d 4884 a63d 3f65 86bd a6a6 a33d
000000b0: 29ac 4fbd 5a6f db38 2ab1 213b 069b 07be
000000c0: 75ec 8abb 782d 613d db86 96bd ee97 3838
000000d0: 60b5 ebbc c7f6 e9bd 6def cebc 2ce2 02bc
000000e0: 3f32 c53d 4eaf 9bbc 8a9b c63d e412 023c
000000f0: f15a 1d3b 1be2 123d 37e2 213c e252 5a38
00000100: b84a a7bc 6439 d2bc 78ff 70bc a197 a1bd
00000110: 59ec 1e39 6284 e73c 9d25 563d 03ff 12bb
00000120: 82f7 d53d dde9 203c 71ee c6bc 1341 8fbc
00000130: c464 23bb 6e4c 463d df25 f23b 255f c7bc
00000140: 2747 323c 20c4 423d 5cd1 d5bc b055 dabd
00000150: 9b7b 003d cc29 ef3b 7530 91bd 3205 d3b8
00000160: f148 6a38 08ae fd39 e5f5 113b d4be 5439
00000170: ac2c bdbd 9a36 16be 661f 223c 2c12 843c
00000180: a2a7 c33c a4cf ad39 88c6 b13a 4600 b33c
00000190: 39c2 0d3d 2b18 7a3c de57 173d 7ce8 c0b8
000001a0: 1bbd be3c c172 8e3c df5b 713d d1da 30bb
000001b0: 6e60 813c 229d 1c3d 9950 a4bc 6c46 263d
000001c0: a8a6 1f3d bcb5 7eb8 7a39 c73c 4cf6 28bd
000001d0: 1e8d 0b3c 12e0 883b 5eec e83d e2ad c1bd
000001e0: ff9f 0e3e 23d8 10bc 9477 b73b 0c59 07bd
000001f0: 37fa f837 9d06 883c

fc2.weight f4 [75, 126]
-0.075364284 0.00731817 0.0017833798 -0.06544721 -0.049002223 0.0010046957 0.0016048034 2.4220157e-05
0.030212874 0.004244875 0.020240774 0.03241444 0.0023615798 -5.9018614e-05 0.059912667 0.02259532
0.0012902592 0.036268324 0.011988296 0.0042923065 0.0056646112 -0.0054654363 -0.0066224225 6.2460414e-05
-0.070418924 0.006324303 -0.00060467795 0.010798445 -0.069773555 -9.1920876e-05 0.020994866 0.008904253
-0.0010279232 -0.0019006204 0.012144847 0.041136824 0.0032957194 0.005510541 0.000790163 0.020157117
0.06970625 0.04085675 0.006057795 0.008277451 0.0018948207 0.00012445592 0.0045635286 -0.017547492
0.010214679 0.029469011 0.0074932617 0.00025878157 0.037705004 -0.01808675 -0.06936413 -0.05711507
0.02045537 -0.04621311 0.051807005 -0.031995215 0.018540876 0.05365287 -0.050837565 6.309621e-05
0.017922362 0.0030270724 0.0040828916 0.0032660682 0.00013880928 0.057556603 0.029274696 0.0012524574
-0.014404182 0.008801088 0.004190917 0.0029710077 0.044052903 0.056118477 0.0052237175 0.0064261067
0.009181249 0.038458478 -0.059133142 -0.016286012 0.03993296 0.0055270563 0.0017013733 0.00065319537
3.794336e-05 0.0005259739 0.027110234 0.00040449257 0.004798112 -0.010487617 0.016798975 0.024662402
0.017601766 0.00038430086 0.014073587 0.0267471 0.0065865573 0.040888052 0.035299525 0.00038999793
0.033254452 0.018384201 0.042755064 0.026305556 0.037831888 0.07400691 -0.069879495 0.03176996
0.06311749 7.648021e-05 0.021242483 0.02191023 0.008851427 0.023392253 0.018168 -0.0008354819
-0.02335018 -0.06869623 0.003864009 0.036694124 4.4991426e-05 0.012201108 0.00568814 -8.107954e-05
0.03139443 0.0064673778 0.008783143 0.031822 0.006217361 1.6617666e-06 0.012298527 0.0040832767
0.021645494 -0.037805263 -0.000845786 3.4345776e-05 0.0014864691 -0.010002252 -0.00017569093 0.032169983
0.06262112 0.07091041 -0.02431395 -0.003434386 0.057727538 1.670524e-05 0.026305487 -0.00021814326
0.048419863 0.0027982066 0.013224656 0.0014627123 -0.062491942 0.026493965 0.019954482 0.04634293
-0.004050737 -0.033028215 0.026552426 0.01930825 0.0006336609 -0.006706997 -0.010879222 -0.024949502
0.02259491 -0.017644929 0.035609215 5.5690492e-05 0.0019599907 0.086084105 -0.0021332807 -0.014190136
0.024449492 -0.00025463165 -0.025977276 0.08833681 0.01681311 -0.0031871938 -0.049623102 0.05262104
-0.03455878 0.02554232 0.017435791 0.002754797 0.008004048 4.8913753e-05 0.027896183 0.017502634
0.009285314 0.022193873 -6.566793e-05 0.006635242 -0.03171468 0.004392038 -0.024364257 0.0015080041
0.01708098 0.011975249 0.009731134 -0.005952625 -0.0036814595 0.012042068 0.0012706673 -0.01662722
0.0036437176 0.07314286 -0.003206853 -0.005220347 0.029892264 -0.00050463877 -1.927465e-05 -0.00013839743
0.009779367 -0.0001597637 0.029353388 0.08290315 0.00043836696 0.0046417345 -0.010125387 0.00042360462
-0.0054533836 -0.00906432 -0.033973098 -0.0015836757 -0.01942687 0.0004920797 -6.566682e-05 0.016086292
-0.029544206 0.020760013 -0.0019763745 -0.0034943053 0.007397611 -0.021054726 -0.00688222 0.00012413647
-0.018632997 0.0235815 0.023721544 0.020113053 -0.053274415 0.031726044 -0.0006104091 0.016176654
0.0010053741 0.034395993 -1.7570706e-05 0.003491014 0.2452044 -0.0021059008 0.0051412736 0.22292492
00000000: 9758 9abd 42cd ef3b 4cc0 e93a 3009 86bd
00000010: 8eb6 48bd feaf 833a 4458 d23a 642c cb37
00000020: fd80 f73c 9818 8b3b fbcf a53c 01c5 043d
00000030: bcc4 1a3b c18a 77b8 fc66 753d d219 b93c
00000040: ea1d a93a 188e 143d 8f6a 443c 7aa6 8c3b
00000050: 349e b93b 6717 b3bb e800 d9bb 2efd 8238
00000060: cc37 90bd 193c cf3b 4083 1eba f6eb 303c
00000070: 70e5 8ebd a5c5 c0b8 6dfd ab3c 25e3 113c
00000080: 61bb 86ba 3d1e f9ba 2efb 463c 167f 283d
00000090: fffc 573b c591 b43b f122 4f3a 8a20 a53c
000000a0: 27c2 8e3d 6859 273d 7880 c63b 259e 073c
000000b0: a25b f83a 6280 0239 a789 953b c2bf 8fbc
000000c0: 785b 273c ff68 f13c 098a f53b 13ad 8739
000000d0: 9070 1a3d aa2a 94bc c80e 8ebd 7ef1 69bd
000000e0: 0592 a73c f549 3dbd 9533 543d 6a0d 03bd
000000f0: 09e3 973c 1dc3 5b3d 0d3b 50bd 8552 8438
00000100: ebd1 923c d961 463b c7c9 853b 880b 563b
00000110: 558d 1139 79c0 6b3d 7dd1 ef3c 7f29 a43a
00000120: 85ff 6bbc 7032 103c f653 893b 3db5 423b
00000130: d170 343d 7ddc 653d b82b ab3b 1792 d23b
00000140: f36c 163c a386 1d3d 9835 72bd 3e6a 85bc
00000150: be90 233d 4f1c b53b 9d00 df3a 333b 2b3a
00000160: 5f25 1f38 83e1 093a 4816 de3c 1312 d439
00000170: 7b39 9d3b 41d4 2bbc 019e 893c ce08 ca3c
00000180: 9431 903c fd7b c939 e794 663c bc1c db3c
00000190: 0cd4 d73b 3b7a 273d 3c96 103d a378 cc39
000001a0: d235 083d 779a 963c ef1f 2f3d c07e d73c
000001b0: 9cf5 1a3d ef90 973d fb1c 8fbd 3821 023d
000001c0: be43 813d 0064 a038 b704 ae3c 157d b33c
000001d0: 9305 113c 1ca1 bf3c 0fd5 943c 3e04 5bba
000001e0: e048 bfbc 9cb0 8cbd 503b 7d3b 944c 163d
000001f0: 2db5 3c38 28e7 473c 9463 ba3b 3f09 aab8
00000200: 7297 003d 4cec d33b 2ce7 0f3c c957 023d
00000210: 01bb cb3b de09 df35 c37f 493c 02cd 853b
00000220: e451 b13c b1d9 1abd bdb7 5dba 7f0e 1038
00000230: a0d5 c23a 7ce0 23bc ad39 38b9 acc4 033d
00000240: 803f 803d 7a39 913d 0d2e c7bc 7013 61bb
00000250: b673 6c3d 3b22 8c37 9b7e d73c 63bd 64b9
00000260: e853 463d 1e62 373b 3aac 583c 7bb8 bf3a
00000270: 8df7 7fbd df09 d93c 9577 a33c 16d2 3d3d
00000280: 0bbc 84bb 9848 07bd 7984 d93c 562c 9e3c
00000290: 431c 263a 5ec6 dbbb c43e 32bc e662 ccbc
000002a0: f618 b93c 198c 90bc f8da 113d 3695 6938
000002b0: 3073 003b dd4c b03d 83ce 0bbb bf7d 68bc
000002c0: 4d4a c83c 1580 85b9 4cce d4bc eee9 b43d
000002d0: a6bb 893c 3de0 50bb 9841 4bbd 2989 573d
000002e0: 828d 0dbd 213e d13c 81d5 8e3c d389 343b
000002f0: 6923 033c be28 4d38 8986 e43c af61 8f3c
00000300: 6e21 183c edcf b53c 34b7 89b8 726c d93b
00000310: 41e7 01bd 16eb 8f3b 8d97 c7bc 39a8 c53a
00000320: 69ed 8b3c d633 443c 566f 1f3c 3d0e c3bb
00000330: a444 71bb 184c 453c 858c a63a cf35 88bc
00000340: 70cb 6e3b eccb 953d 112a 52bb 720f abbb
00000350: 9fe0 f43c bc49 04ba ffaf a1b7 c71e 11b9
00000360: a339 203c 3e86 27b9 8476 f03c 20c9 a93d
00000370: 9ed4 e539 b119 983b f4e4 25bc 4017 de39
00000380: 4cb2 b2bb 8382 14bc 6027 0bbd 5793 cfba
00000390: 1925 9fbc e9fe 003a 9bb6 89b8 66c7 833c
000003a0: b106 f2bc e710 aa3c 1086 01bb b700 65bb
000003b0: a967 f23b f67a acbc 3f84 e1bb a12a 0239
000003c0: 3aa4 98bc fd2d c13c af53 c23c 21c4 a43c
000003d0: 4636 5abd 2bf3 013d dc03 20ba e784 843c
000003e0: c2c6 833a d0e2 0c3d ce64 93b7 7fc9 643b
000003f0: dd16 7b3e 2703 0abb 2178 a83b 6e46 643e

fc2.bias f4 [75]
0.085917175 -0.06939478 -0.00040252495 0.07949218 0.08143458 0.00045432983 -0.0686939 0.08589601
0.12985745 -0.015245923 0.0020802403 0.14297386 0.055882227 0.00034898793 -0.0016234281 -0.0013912277
-0.06912117 -0.06354027 0.10820168 0.08514023 -0.07212456 0.10636794 0.10152402 0.06796728
-0.015783038 0.0049752365 0.1360457 0.08291886 0.082289584 0.012524639 0.06808917 -0.06996037
0.1424359 0.102385685 -0.064535454 0.019154398 -0.0014675215 0.0010084461 -0.050516307 0.08005364
-0.07236919 0.0847695 0.087687016 0.10264434 0.11100229 0.09384585 -0.07148984 0.0143416
-0.07354446 0.08767813 0.002544782 0.008925246 0.1052267 0.10449836 -0.066853456 0.12409914
0.09923453 0.08522653 0.08847631 0.14306891 0.020782216 9.1977316e-05 0.12532367 0.07835972
0.0069325604 0.10540886 0.048924167 0.13498734 -0.06806976 -0.0682025 0.0218866 -0.06894951
0.14720184 -0.071757294 0.084852725
00000000: 58f5 af3d da1e 8ebd fc09 d3b9 cccc a23d
00000010: 2cc7 a63d 1e33 ee39 63af 8cbd 3fea af3d
00000020: 5af9 043e 09ca 79bc a454 083b bd67 123e
00000030: c3e4 643d 5ef8 b639 35c9 d4ba db59 b6ba
00000040: 668f 8dbd 6721 82bd d898 dd3d 005e ae3d
00000050: 0bb6 93bd 6fd7 d93d d3eb cf3d 6e32 8b3d
00000060: 6e4b 81bc 4f07 a33b 904f 0b3e 5dd1 a93d
00000070: 7187 a83d 2534 4d3c 5672 8b3d 6247 8fbd
00000080: b7da 113e 96af d13d 2a2b 84bd afe9 9c3c
00000090: da59 c0ba d62d 843a 30ea 4ebd 2af3 a33d
000000a0: 4c36 94bd a29b ad3d 4095 b33d 3237 d23d
000000b0: 2b55 e33d 4132 c03d 4469 92bd 08f9 6a3c
000000c0: 7a9e 96bd 9790 b33d 5bc6 263b 323b 123c
000000d0: 1981 d73d 3c03 d63d 77ea 88bd b127 fe3d
000000e0: 793b cb3d 3f8b ae3d 1133 b53d a880 123e
000000f0: 773f aa3c f2e3 c038 d954 003e 107b a03d
00000100: 882a e33b 9ae0 d73d b564 483d 1f3a 0a3e
00000110: 2968 8bbd c1ad 8bbd 874b b33c 6735 8dbd
00000120: 14bc 163e 7df5 92bd 44c7 ad3d

fc3.weight f4 [4, 75]
-0.108434185 0.19793999 0.2149734 -0.101952404 -0.10816615 0.21234636 0.19200553 -0.11179697
-0.2958276 0.118127614 0.16161673 -0.31460804 -0.0824182 0.16892196 0.21780671 0.21452872
0.19744316 0.18366951 -0.05407008 -0.108149365 0.20134051 -0.0500955 -0.16255575 -0.08997238
0.10393137 0.07309648 -0.3077821 -0.11085533 -0.106611006 -0.054900605 -0.08901249 0.19333738
-0.31097376 -0.056870166 0.17854995 0.13041317 0.21852309 0.21494982 0.18133096 -0.10413826
0.1973855 -0.056023385 -0.10957226 -0.1615877 -0.053734757 -0.10923973 0.19772059 0.12810948
0.21077336 -0.114558145 0.16365042 0.14289792 -0.15915729 -0.05759983 0.18790904 -0.29507264
-0.15782295 -0.10502685 -0.10785803 -0.31413296 0.11291978 -0.00050861546 -0.15182094 -0.10570089
-0.04079941 -0.054545715 -0.17916211 -0.3104644 0.19507529 0.19643386 -0.09972489 0.20654175
-0.31930813 0.20258878 -0.10902165 -0.22351924 -0.16728681 0.21402355 -0.2152136 -0.2183927
0.21740961 -0.15714966 -0.22600336 0.13803986 -0.2603659 0.15048105 0.1327449 -0.16355495
0.1586437 0.21532898 0.21983004 -0.16696002 -0.15488814 -0.05800846 -0.22495133 -0.16406323
-0.06044474 0.24443612 -0.2073674 -0.24388582 0.08077173 0.122507654 -0.2224805 -0.2210552
0.030631013 -0.205191 -0.15763287 0.13031031 -0.06235165 -0.15536216 0.10725135 0.2151524
0.21481898 -0.19973315 -0.21970877 -0.16257606 -0.064519286 -0.22245489 0.24651118 -0.063850135
-0.23116486 -0.16502772 0.11377723 -0.16724876 -0.22138453 0.15642641 0.12606652 0.23646082
-0.06312082 -0.1599121 0.12763996 0.24325648 -0.22167574 -0.22303396 0.12473818 0.08826035
-7.3281255e-05 0.21154927 -0.21649778 0.009921143 -0.061416905 0.19229135 0.12759408 -0.16050042
-0.1586084 0.054271698 -0.16478318 0.12837681 -0.1642623 -0.22448072 0.1714527 -0.097519666
0.15463044 0.14079243 0.16656539 0.15507835 -0.09546261 0.15295655 0.08671313 0.08766014
-0.26665205 0.10884595 0.07737022 -0.2491929 0.15563354 0.15957195 -0.0960961 -0.09814672
-0.363071 0.15920523 -0.0863318 -0.3682925 -0.14327814 0.1289395 0.09972653 0.09525295
0.10068207 0.15665172 0.15029553 0.0820347 0.13398638 -0.095210224 0.1026533 -0.35056838
-0.104267456 -0.30698553 0.15244143 0.1628687 0.038418688 0.14516737 -0.095208116 -0.30051678
0.1617095 -0.14002419 -0.36468217 0.16202953 -0.095872074 -0.3112246 -0.09824778 0.16320613
-0.2534623 -0.2989529 -0.14802857 -0.36203104 -0.09075497 0.09544123 -0.13658747 0.17038126
0.16773233 0.108308494 -0.3213993 0.0013552394 -0.184621 0.15388411 0.08518867 -0.34918782
0.051793464 0.10273437 -0.09081803 -0.09352509 0.116050206 -0.09943654 0.105535515 -0.102040164
0.14968343 0.17869055 0.06479815 -0.6605742 0.13970987 0.17372017 -0.6617548 0.06041162
0.16998439 0.051118933 0.05032606 -0.0434745 0.062912725 0.081846625 -0.058911048 -0.659644
-0.6561072 0.0623325 0.06565745 0.47702596 0.17417155 0.05127001 0.47894862 0.058199987
0.11400691 0.04135329 -0.37561083 0.07409621 0.16232528 0.16370593 -0.07430499 0.12887345
00000000: be12 debd c8b0 4a3e fd21 5c3e 6ccc d0bd
00000010: 3786 ddbd 5371 593e 199d 443e cff5 e4bd
00000020: b776 97be e4ec f13d db7e 253e 4e14 a1be
00000030: e0ca a8bd e1f9 2c3e b908 5f3e 6bad 5b3e
00000040: 8a2e 4a3e dc13 3c3e 9778 5dbd 6a7d ddbd
00000050: 352c 4e3e f030 4dbd 0475 26be 7043 b8bd
00000060: f8d9 d43d 9bb3 953d 9e95 9dbe 1f08 e3bd
00000070: df56 dabd 75df 60bd 2e4c b6bd 3cfa 453e
00000080: f437 9fbe b1f0 68bd ccd5 363e 088b 053e
00000090: 84c4 5f3e ce1b 5c3e d3ae 393e 7146 d5bd
000000a0: 6d1f 4a3e c778 65bd 6c67 e0bd 3f77 25be
000000b0: fa18 5cbd 14b9 dfbd 4477 4a3e 222f 033e
000000c0: f9d4 573e 769d eabd fa93 273e d553 123e
000000d0: 21fa 22be cded 6bbd 3a6b 403e c313 97be
000000e0: 579c 21be 5118 d7bd ace4 dcbd 09d6 a0be
000000f0: 7c42 e73d 9b54 05ba f376 1bbe b579 d8bd
00000100: 481d 27bd 546b 5fbd 4676 37be 31f5 9ebe
00000110: d1c1 473e f525 493e 903c ccbd ae7f 533e
00000120: 5b7c a3be 6f73 4f3e be46 dfbd 3ae2 64be
00000130: 3c4d 2bbe fd28 5b3e f460 5cbe 56a2 5fbe
00000140: a0a0 5e3e d7eb 20be 6d6d 67be 525a 0d3e
00000150: ae4e 85be b417 1a3e 47ee 073e f37a 27be
00000160: 7e73 223e 337f 5c3e 201b 613e 91f7 2abe
00000170: ff9a 1ebe 479a 6dbd a459 66be 3100 28be
00000180: e794 77bd 764d 7a3e 1f58 54be 34bd 79be
00000190: a66b a53d 4be5 fa3d eed1 63be 4b5c 62be
000001a0: e4ed fa3c 971d 52be 836a 21be 1170 053e
000001b0: 7264 7fbd 4217 1fbe 99a6 db3d e950 5c3e
000001c0: 82f9 5b3e d986 4cbe 56fb 60be 577a 26be
000001d0: b022 84bd 37cb 63be 6d6d 7c3e dcc3 82bd
000001e0: 7bb6 6cbe 07fd 28be 0904 e93d 4243 2bbe
000001f0: a0b2 62be 3f2e 203e 9517 013e c922 723e
00000200: 7d45 81bd ffbf 23be 0db4 023e 3a18 793e
00000210: f7fe 62be 0463 64be bb76 ff3d d8c1 b43d
00000220: 93ae 99b8 5fa0 583e 98b1 5dbe 4a8c 223c
00000230: 4b90 7bbd 06e8 443e 06a8 023e 395a 24be
00000240: 3e6a 22be 004c 5e3d ecbc 28be 3675 033e
00000250: 6034 28be 46de 65be 4c91 2f3e 64b8 c7bd
00000260: 7157 1e3e e42b 103e 1e90 2a3e dccc 1e3e
00000270: e781 c3bd a4a0 1c3e a796 b13d 2987 b33d
00000280: 9e86 88be a0ea de3d 4774 9e3d 6c2c 7fbe
00000290: 665e 1f3e d466 233e 08ce c4bd 2601 c9bd
000002a0: 71e4 b9be b206 233e bace b0bd d690 bcbe
000002b0: 81b7 12be b708 043e 6c3d cc3d fb13 c33d
000002c0: 6732 ce3d 4f69 203e 12e7 193e cf01 a83d
000002d0: ba33 093e 94fd c2bd e53b d23d b37d b3be
000002e0: 2d8a d5bd 352d 9dbe 9b19 1c3e 0dc7 263e
000002f0: ea5c 1d3d c1a6 143e 79fc c2bd 56dd 99be
00000300: 2d97 253e 8062 0fbe 9fb7 babe 12eb 253e
00000310: 9458 c4bd d558 9fbe 2236 c9bd 821f 273e
00000320: d0c5 81be 5b10 99be cd94 17be 225c b9be
00000330: bedd b9bd b176 c33d 96dd 0bbe 6d78 2e3e
00000340: 06c2 2b3e d8d0 dd3d 738e a4be 4aa2 b13a
00000350: 4a0d 3dbe cc93 1d3e 6677 ae3d bfc8 b2be
00000360: 6225 543d 6666 d23d cefe b9bd 158a bfbd
00000370: bbab ed3d 62a5 cbbd 0123 d83d 6ffa d0bd
00000380: 9d46 193e a8fa 363e e4b4 843d 641b 29bf
00000390: 1b10 0f3e b3e3 313e c368 29bf 2d72 773d
000003a0: 6310 2e3e 1662 513d b322 4e3d 5112 32bd
000003b0: 63d8 803d 349f a73d b64c 71bd 6ede 28bf
000003c0: a4f6 27bf 5d50 7f3d 6a77 863d bf3c f43e
000003d0: 075a 323e 8100 523d c138 f53e 1c63 6e3d
000003e0: 747c e93d 1162 293d 1050 c0be c1bf 973d
000003f0: 9938 263e 87a2 273e 372d 98bd 67f7 033e

fc3.bias f4 [4]
-0.38146818 0.1414025 0.1106902 0.14861672
00000000: cc4f c3be d1cb 103e 8bb1 e23d fb2e 183e
