MediaPipe_Operation/model_4class/gesture_classifier_with_unclass_data2.pth (torch, 156584 bytes, 8 tensors)

fc1.weight f4 [130, 180]
-2.41915e-40 -2.41326e-40 -2.47485e-40 -2.5006e-40 -2.41936e-40 -2.51469e-40 -2.39525e-40 -2.41288e-40
-2.47598e-40 -2.46851e-40 -2.43368e-40 -2.42859e-40 -2.43463e-40 -2.39266e-40 -2.40632e-40 -2.3853e-40
-2.41651e-40 2.48781e-40 2.42789e-40 2.37289e-40 2.43257e-40 2.34081e-40 2.34702e-40 2.33912e-40
2.32729e-40 2.33816e-40 2.35555e-40 2.27386e-40 2.34982e-40 2.32785e-40 1.5791e-41 2.6441e-41
2.775e-42 -7.665e-42 6.552e-42 8.8023e-41 1.39113e-40 4.4067e-41 1.6181e-41 2.6616e-41
-3.5873e-41 -3.6469e-41 -5.5413e-41 -1.23295e-40 -1.695e-40 -1.60552e-40 -1.51794e-40 -9.4131e-41
-1.46489e-40 -7.8092e-41 1.4901e-41 -1.39e-43 2.8934e-41 1.4788e-41 2.5424e-41 2.716e-41
4.452e-42 -2.2362e-41 -2.6913e-41 -2.9123e-41 -3.2193e-41 -1.5475e-41 3.2234e-41 -6.397e-42
3.3981e-41 3.6352e-41 2.8903e-41 -9.771e-42 -9.0029e-41 -1.28334e-40 6.4747e-41 8.8485e-41
5.6094e-41 4.244e-41 8.356e-42 -3.4728e-41 4.397e-42 2.0347e-41 -1.0524e-41 -9.041e-42
6.151e-41 8.3255e-41 -3.1822e-41 -1.0422e-40 -1.43538e-40 2.866e-41 1.44728e-40 4.0216e-41
-1.3338e-41 -2.2983e-41 -2.33189e-40 -2.36084e-40 -2.29118e-40 -2.30179e-40 -2.3519e-40 -2.25113e-40
-2.21215e-40 -2.24233e-40 -2.33947e-40 -2.24679e-40 -2.22668e-40 -2.24348e-40 -2.27275e-40 -2.24606e-40
-2.21713e-40 -2.23042e-40 -3.18682e-40 -3.19607e-40 -2.26528e-40 4.61334e-40 5.87427e-40 5.85163e-40
-2.2883e-40 -2.2888e-40 -2.41791e-40 -2.25667e-40 -2.34583e-40 -2.2844e-40 -2.29429e-40 2.35867e-40
-1.76381e-40 -1.66403e-40 -1.21383e-40 4.0343e-41 9.606e-42 -6.73e-42 7.1178e-41 -5.3332e-41
-2.488e-41 3.0232e-41 2.3772e-41 -6.506e-42 -1.365e-41 9.8637e-41 1.75473e-40 -1.1939e-41
6.6902e-41 4.622e-41 6.415e-41 5.2525e-41 -3.1407e-41 3.9933e-41 5.2379e-41 4.0206e-41
4.2953e-41 4.2553e-41 4.1958e-41 4.5736e-41 5.0839e-41 6.7365e-41 3.3164015e-38 1.7080182e-38
1.3128777e-38 1.5833078e-38 1.1637485e-38 8.231683e-39 5.527576e-39 3.60772e-39 2.516795e-39 2.518046e-39
3.491013e-39 2.852374e-39 4.185154e-39 5.461377e-39 3.060301e-39 2.537152e-39 2.547451e-39 2.58013e-39
1.153563e-39 2.194628e-39 2.531498e-39 2.531698e-39 2.517287e-39 1.0013904e-38 2.2870025e-38 4.4494298e-38
6.0592757e-38 8.1077386e-38 6.1326667e-38 5.2267816e-38 -0.108466685 -0.09708424 -0.085988335 -0.075388014
-0.06924281 -0.06369658 -0.061831705 -0.05967041 -0.063078746 -0.059703063 -0.042808168 -0.04061538
-0.037391033 -0.033515487 -0.03104761 -0.030433677 -0.029419748 -0.029034665 -0.030663546 -0.030934056
-0.0367531 -0.039151326 -0.037892517 -0.03872351 -0.040204097 -0.052430034 -0.059761323 -0.066840254
-0.075400084 -0.08627726 -0.1675573 -0.1494709 -0.1358576 -0.12861025 -0.11869633 -0.10680865
-0.098726906 -0.08597022 -0.07858699 -0.07379762 -0.05252838 -0.05012646 -0.047673523 -0.04782135
-0.04717844 -0.049990118 -0.04849976 -0.050557844 -0.049705546 -0.05241869 -0.03986087 -0.04225857
-0.039086625 -0.045638416 -0.053902175 -0.058296233 -0.06421512 -0.07071725 -0.08072557 -0.09038723
0.0029232 0.007940787 0.024260933 0.032201342 0.041337278 0.048651934 0.045677464 0.040085953
0.025995297 0.01858363 0.019609077 0.016618282 0.01757082 0.019774344 0.019729076 0.015857091
00000000: 5ca2 0280 b8a0 0280 e3b1 0280 11b9 0280
00000010: 6ba2 0280 febc 0280 b39b 0280 9da0 0280
00000020: 34b2 0280 1fb0 0280 69a6 0280 fea4 0280
00000030: ada6 0280 fa9a 0280 c99e 0280 ed98 0280
00000040: a0a1 0280 80b5 0200 cca4 0200 7795 0200
00000050: 1aa6 0200 868c 0200 418e 0200 0d8c 0200
00000060: c188 0200 c98b 0200 a290 0200 dc79 0200
00000070: 098f 0200 e988 0200 052c 0000 b549 0000
00000080: bc07 0000 5e15 0080 4412 0000 5ff5 0000
00000090: ca83 0100 d77a 0000 1b2d 0000 324a 0000
000000a0: 0064 0080 a965 0080 789a 0080 b257 0180
000000b0: 7fd8 0180 8ebf 0180 24a7 0180 6606 0180
000000c0: 5a98 0180 b0d9 0080 8a29 0000 6300 0080
000000d0: a850 0000 3929 0000 df46 0000 b64b 0000
000000e0: 690c 0000 563e 0080 064b 0080 2f51 0080
000000f0: be59 0080 232b 0080 db59 0000 d511 0080
00000100: ba5e 0000 5665 0000 9250 0000 3d1b 0080
00000110: f7fa 0080 be65 0180 7db4 0000 a9f6 0000
00000120: 5e9c 0000 4e76 0000 4b17 0000 cf60 0080
00000130: 420c 0000 b838 0000 561d 0080 3419 0080
00000140: 77ab 0000 15e8 0000 b558 0080 8622 0180
00000150: 2090 0180 e44f 0000 7193 0100 1b70 0000
00000160: 2e25 0080 1140 0080 098a 0280 1b92 0280
00000170: b07e 0280 a581 0280 9d8f 0280 8673 0280
00000180: a868 0280 1271 0280 268c 0280 5072 0280
00000190: b56c 0280 6471 0280 8d79 0280 1c72 0280
000001a0: 0c6a 0280 c06d 0280 5b78 0380 ef7a 0380
000001b0: 7877 0280 0306 0500 8265 0600 325f 0600
000001c0: e37d 0280 067e 0280 04a2 0280 1175 0280
000001d0: ec8d 0280 cc7c 0280 8e7f 0280 8091 0200
000001e0: aeeb 0180 ddcf 0180 5e52 0180 7670 0000
000001f0: c71a 0000 c312 0080 6ac6 0000 ab94 0080
00000200: 5b45 0080 4654 0000 4442 0000 2312 0080
00000210: 0d26 0080 f612 0100 26e9 0100 4821 0080
00000220: 7fba 0000 d880 0000 d3b2 0000 6b92 0000
00000230: 8d57 0080 516f 0000 0392 0000 1470 0000
00000240: bc77 0000 9f76 0000 f674 0000 7e7f 0000
00000250: b88d 0000 c9bb 0000 e48f 3401 99fc b900
00000260: b0f5 8e00 2e68 ac00 93b8 7e00 95a2 5900
00000270: a230 3c00 db48 2700 cd67 1b00 4a6b 1b00
00000280: 8603 2600 420f 1f00 8292 2d00 1978 3b00
00000290: e052 2100 8ca0 1b00 42bd 1b00 5a18 1c00
000002a0: aa8f 0c00 bbe5 1700 c990 1b00 5891 1b00
000002b0: 2c69 1b00 b10a 6d00 5308 f900 0040 7201
000002c0: fdf2 a401 b1b6 dc01 73f2 a601 5a49 8e01
000002d0: c823 debd 1ad4 c6bd a71a b0bd 0865 9abd
000002e0: 2dcf 8dbd 5a73 82bd 3e43 7dbd f668 74bd
000002f0: 6e2f 81bd 338b 74bd 9e57 2fbd 505c 26bd
00000300: 5727 19bd 8947 09bd 8f57 febc 0c50 f9bc
00000310: af01 f1bc 1bda edbc 1e32 fbbc 6b69 fdbc
00000320: 6b8a 16bd 245d 20bd 2f35 1bbd 8b9c 1ebd
00000330: 0dad 24bd e0c0 56bd 4ac8 74bd 8be3 88bd
00000340: 5c6b 9abd 22b2 b0bd 2494 2bbe e60e 19be
00000350: 411e 0bbe 68b2 03be 1017 f3bd 7ebe dabd
00000360: 5531 cabd 2811 b0bd 37f2 a0bd 3523 97bd
00000370: 0028 57bd 6751 4dbd 5045 43bd 52e0 43bd
00000380: 2e3e 41bd 70c2 4cbd afa7 46bd be15 4fbd
00000390: 0b98 4bbd fbb4 56bd 2745 23bd 5317 2dbd
000003a0: 4c19 20bd 59ef 3abd 87c8 5cbd 08c8 6ebd
000003b0: 3883 83bd 35d4 90bd 7353 a5bd f11c b9bd
000003c0: 2893 3f3b 131a 023c ddbe c63c 8ee5 033d
000003d0: 4751 293d 4047 473d 4b18 3b3d 2b31 243d
000003e0: 17f4 d43c b23c 983c 37a3 a03c 1023 883c
000003f0: aef0 8f3c cefd a13c df9e a13c bbe6 813c

fc1.bias f4 [130]
-4.6163565e-32 0.19676362 -3.9627395e-15 -8.278465e-11 -3.0798827e-23 -8.346279e-23 -1.46785e-40 -3.3686143e-25
-1.3004039e-21 -2.0293941e-21 -3.5085906e-27 -2.7390787e-17 0.19022846 -0.06637061 -2.6838875e-36 -2.873419e-19
-8.554084e-19 -0.09799015 -8.42821e-37 -0.00033116742 -5.23949e-08 -4.8158802e-33 -2.2157503e-15 -1.07570105e-26
-1.880267e-17 -5.9078987e-12 -8.677812e-18 -4.483406e-32 -2.7304878e-08 -1.811338e-09 -1.0772984e-25 -8.301722e-20
-1.0148251e-08 -2.0847422e-20 -8.797314e-07 -5.6214407e-21 -6.334528e-33 0.1675797 -4.7237018e-27 -3.304994e-32
0.31938988 -6.252711e-08 -1.6283283e-22 0.16643873 -6.0547855e-24 -1.041528e-39 -1.0756e-41 0.00040364955
-1.1816663e-09 -2.920633e-17 -3.1231422e-12 -1.0599099e-12 -4.557636e-07 -3.089048e-13 6.309792e-14 -0.022831658
-3.50364e-39 -6.152928e-09 -7.9928774e-33 -1.00172615e-25 -1.0149936e-24 -0.10121141 -6.1112546e-15 -7.9290674e-10
0.18756527 -3.6940102e-05 -2.3445091e-14 -2.5643199e-21 -1.176764e-39 -1.5939376e-33 -1.5906808e-09 2.3505985e-05
-2.914858e-10 -1.7455797e-34 -8.700749e-19 -8.963561e-14 2.569815e-06 -7.7701666e-30 -3.1822295e-19 -0.11496605
-1.0035526e-24 -3.576853e-17 0.055366714 -0.00024781987 -2.8579033e-28 -5.8331555e-20 0.17666315 -3.0066854e-14
-2.3160051e-28 -6.016413e-22 -6.967806e-37 -7.787966e-17 -1.113322e-38 -3.2863265e-10 -5.098229e-13 -1.0195861e-37
-7.2696055e-28 -7.1420404e-29 -2.4907372e-37 -0.1569524 -1.7381333e-29 -2.0406e-41 -4.1021802e-23 -5.0200225e-13
-7.841542e-23 -1.1996465e-37 -0.027608164 -1.4271389e-30 -1.6843952e-26 -2.30385e-40 -6.886423e-21 -8.982738e-32
-1.056747e-39 -1.7106557e-20 -2.3619528e-18 -6.4584e-41 -1.4447631e-23 -0.12482975 -1.2528175e-27 -8.816349e-25
-1.1174986e-22 -1.467554e-20 0.16126926 -8.606501e-27 -4.0829318e-25 -2.1517881e-18 -2.5689398e-25 -5.218479e-24
-1.5539282e-25 -1.6849466e-15
00000000: e7b1 6f8b 677c 493e d2c5 8ea7 9d0b b6ae
00000010: 1aef 149a f7cc c99a 2d99 0180 d381 d096
00000020: f082 c49c 3156 199d 56fd 8a93 aba2 fca3
00000030: 40cb 423e 50ed 87bd e551 6484 e19d a9a0
00000040: d578 7ca1 0faf c8bd 0866 8f83 8aa0 adb9
00000050: cd08 61b3 390b c889 61a9 1fa7 8610 5594
00000060: 8d6c ada3 9fdd cfac cf13 20a3 b0ca 688b
00000070: 108c eab2 caf2 f8b0 f35c 0596 d504 c49f
00000080: 7b58 2eb2 f9e5 c49e ae26 6cb5 3d5f d49d
00000090: 2190 038a 039a 2b3e 0720 bb93 e89a 2b8b
000000a0: 1287 a33e a446 86b3 52da 449b ea6e 2a3e
000000b0: b13b ea98 5b57 0b80 fc1d 0080 eda0 d339
000000c0: 3068 a2b0 c0b0 06a4 87c5 5bac 472b 95ab
000000d0: acaf f4b4 e0e5 adaa 7915 8e29 7509 bbbc
000000e0: b926 2680 ba69 d3b1 6d01 268a f003 f895
000000f0: 0a10 9d97 ed47 cfbd 602e dca7 daf3 59b0
00000100: 1c11 403e 22f0 1ab8 b32c d3a8 29c1 419d
00000110: 57d0 0c80 4e6b 0489 1b9f dab0 b82e c537
00000120: fb3e a0af 0007 6887 8066 80a1 69d7 c9a9
00000130: 1675 2c36 0399 1d8f 7ed8 bba0 5273 ebbd
00000140: d04a 9b97 07f4 24a4 35c8 623d d2ed 81b9
00000150: 2224 b591 43bb 899f 2fe7 343e b968 07a9
00000160: 55cb 9291 bed5 359c 271a 6d83 0994 b3a4
00000170: e33a 7980 efaa b4af 9d80 0fab 64c7 0a82
00000180: 0c62 6692 7e12 b590 c382 a982 21b8 20be
00000190: 8544 b08f e238 0080 885e 469a 134d 0dab
000001a0: cb98 bd9a 9449 2382 842a e2bc 0891 e78d
000001b0: 7ed0 a694 3882 0280 b314 029e 8934 e98b
000001c0: c881 0b80 1e91 a19e 0748 2ea2 09b4 0080
000001d0: 9aba 8b99 bda6 ffbd 5184 c692 286d 8897
000001e0: e818 079b 479b 8a9e c523 253e 2578 2a94
000001f0: a3b8 fc96 21c6 1ea2 7a02 9f96 50e1 c998
00000200: f35d 4096 8fd3 f2a6

fc2.weight f4 [80, 130]
5.5112116e-18 -0.001302919 3.2255368e-15 -5.4216826e-12 5.3040054e-23 1.4668473e-22 2.11403e-40 -9.1549234e-27
-4.4924263e-22 2.1333735e-21 3.5541697e-27 -6.0635286e-19 0.002409242 0.08884786 6.5296024e-37 8.0999676e-19
2.8891535e-18 0.042083338 3.7005521e-31 0.009385699 3.3780896e-08 -1.1758007e-34 2.4086666e-18 -4.80176e-40
-1.3355793e-18 1.0798269e-11 1.1430687e-18 -1.7204175e-33 1.5076433e-09 8.6931173e-10 7.679121e-26 9.7678115e-21
2.3915446e-08 -1.7224923e-20 -2.184906e-08 -1.2029912e-20 -3.6264614e-26 0.015503438 1.884087e-27 9.873643e-30
-0.014162445 -8.1013134e-08 1.3408477e-23 -0.13242467 2.2545685e-26 1.000187e-39 -3.191e-42 0.024964707
5.575624e-12 2.519551e-17 3.3036907e-10 8.787473e-15 -5.94115e-06 -1.0565493e-26 1.3486716e-13 0.072742596
1.006708e-39 3.3250678e-09 -1.190965e-33 -7.660287e-30 2.451795e-25 -0.13240165 5.0772904e-15 8.117824e-10
-0.0021144808 0.0074310987 9.1676485e-18 1.2887557e-22 1.22196e-39 1.2323888e-33 7.522901e-10 -4.8835873e-06
6.495807e-10 -4.84325e-40 1.0903065e-18 2.8195488e-13 0.013816605 9.4551304e-30 1.9149596e-15 -0.1259366
1.1260957e-28 1.4271014e-18 0.013438973 0.010194126 -9.7119315e-31 1.345545e-20 -0.12673642 -2.971014e-14
-1.673876e-39 -6.1179575e-17 5.2979126e-37 -2.759944e-20 -1.546794e-39 -1.9379692e-11 -1.1586927e-10 -3.278905e-39
6.41888e-29 2.3443657e-25 -1.1641468e-38 -0.13068293 -1.5656364e-28 -4.89e-43 1.5334926e-24 6.0523524e-11
-2.154368e-23 5.2173996e-37 -0.03707666 4.0468075e-27 -2.1679101e-21 -1.99951e-40 5.5401633e-21 -8.710341e-33
2.59327e-40 5.056602e-19 1.9524619e-19 -6.7806e-41 8.100708e-24 -0.12765984 -3.3089352e-28 1.487611e-24
4.2785506e-23 -1.2845313e-21 0.009500541 3.8942966e-27 1.3025957e-25 1.1853172e-18 7.7282174e-25 -8.212129e-25
-1.2979291e-25 1.697508e-15 1.4372e-41 5.0927e-41 2.453791e-39 3.13597e-40 6.37109e-40 1.74872e-40
-7.4754e-41 2.89644e-40 5.89797e-40 -1.29082e-40 1.7192e-40 1.14946e-40 1.15288e-40 -1.36649e-40
3.23188e-40 -7.08383e-40 2.88e-41 -1.31663e-40 1.5071e-41 -2.4214157e-37 1.28966e-40 -2.7632e-41
-7.487258e-39 1.3292e-40 -1.431173e-39 -6.74005e-40 -1.31252e-39 6.69463e-40 -1.64203e-40 1.74306e-40
2.56611e-40 -4.111369e-39 -3.37018e-40 -2.589503e-39 7.3123e-41 -5.6023e-41 -2.698154e-39 1.0089e-40
1.75123e-40 1.32046e-40 -7.57e-43 -1.45309e-40 -1.78933e-40 1.6305e-40 -7.802e-41 1.34724e-40
-2.468e-42 -1.54429e-40 2.95823e-40 -5.05408e-40 1.4991e-41 5.8349e-41 -8.74e-43 2.856471e-39
-1.70153e-40 -9.027881e-39 -1.384388e-39 1.1046994e-38 -1.02019e-40 -6.1995e-41 -1.68722e-40 -7.6259e-41
-1.960475e-39 1.37914e-40 1.39254e-40 -2.556734e-39 -2.52145e-40 -4.8498e-41 4.3757e-41 5.5291e-41
-6.28806e-40 2.13437e-39 -1.844203e-39 2.66374e-40 1.35339e-40 -6.36698e-40 -5.52362e-40 2.6331e-40
-5.5305e-41 1.3525e-41 6.294e-41 2.696831e-39 -5.2491e-41 -2.5765473e-31 4.867173e-39 9.181285e-39
-1.4181e-41 -6.4252e-41 -5.29685e-40 -3.06e-41 1.3022e-41 2.1345e-41 1.59003e-40 -2.86253e-40
1.57146e-40 2.1015e-41 1.1811183e-38 2.29872e-39 -6.4104e-41 1.33172e-40 -1.74103e-40 -3.9748e-41
6.2227e-41 -3.52761e-40 -2.55957e-40 4.864119e-39 -1.22807e-40 8.4438e-41 -1.18446e-40 -6.450203e-39
-8.571e-41 -4.467847e-39 -3.58023e-40 -4.253e-42 1.52328e-40 1.347127e-39 4.89867e-40 8.656e-42
2.508268e-39 -2.721479e-39 8.062e-42 1.386638e-39 7.2463e-41 3.7828e-41 -5.971715e-39 -1.896782e-39
00000000: ec53 cb22 b5c6 aaba a76c 6827 2dc2 beac
00000010: 343e 801a ba54 311b 4e4d 0200 fa54 3594
00000020: 77c6 079c 7231 211d 90cb 8c13 baf6 32a1
00000030: 60e4 1d3b def5 b53d dc30 5e03 a011 6f21
00000040: 912e 5522 945f 2c3d f82d f00c 7ac6 193c
00000050: 7d16 1133 6d4a 1c87 6dba 3122 893a 0580
00000060: c218 c5a1 15f7 3d2d eaaf a821 3ced 0e89
00000070: 7c35 cf30 60f4 6e30 3620 be15 3d82 381e
00000080: 9f6e cd32 4faf a29e 97ae bbb2 163d 639e
00000090: dc92 3395 2202 7e3c d345 1513 e342 480f
000000a0: 9a09 68bc 71f9 adb3 c8ad 8119 559a 07be
000000b0: 1a48 df14 1de4 0a00 e508 0080 c982 cc3c
000000c0: c22c c42c 3763 e823 509f b52f 114d 1e28
000000d0: 175a c7b6 6a45 5194 d0d8 172a 12fa 943d
000000e0: 4bf6 0a00 367f 6431 0ce2 c588 7c5e 1b8f
000000f0: 3ec2 9716 4c94 07be bded b627 1c24 5f30
00000100: 1a93 0abb 9380 f33b ff1c 2923 0fcd 1b1b
00000110: 544e 0d00 06c4 cc08 b6c9 4e30 b2dd a3b6
00000120: 2e8e 3230 1a46 0580 9de6 a021 fbb9 9e2a
00000130: 0b5f 623c d8c5 3f0f c5fc 0927 86f5 00be
00000140: e5bf 0e11 5e9a d221 232f 5c3c 4305 273c
00000150: c995 9d8d 902a 7e1e 31c7 01be 76cd 05a9
00000160: 163a 1280 0c12 8da4 5447 3403 ad55 029f
00000170: d5d7 1080 3077 aaad 9acc feae 41b4 2380
00000180: eabc a210 f51b 9116 adc3 7e80 bfd1 05be
00000190: ce77 4691 5d01 0080 e74b ed17 b717 852e
000001a0: 915b d099 f689 3103 b2dd 17bd 814f a013
000001b0: 7bcd 239d 622d 0280 2c4d d11d 1ee8 348a
000001c0: e6d2 0200 9b3e 1521 8a81 6620 04bd 0080
000001d0: c3b0 1c19 43b9 02be 8bba d191 5832 e617
000001e0: e4e5 4e1a e61c c29c 28a8 1b3c dc44 9a13
000001f0: e840 2116 05ec ae21 3f2d 6f17 3027 7e97
00000200: 04ad 2096 fea2 f426 1028 0000 f78d 0000
00000210: 2cb8 1a00 2e6a 0300 00f0 0600 79e7 0100
00000220: 62d0 0080 6927 0300 1d6c 0600 d467 0180
00000230: 3edf 0100 6c40 0100 6041 0100 ec7c 0180
00000240: eb84 0300 afb6 0780 4850 0000 066f 0180
00000250: 032a 0000 03cb a482 8167 0100 074d 0080
00000260: 6e87 5180 8772 0100 8795 0f80 da56 0780
00000270: c64a 0e80 314a 0700 bbc9 0180 e5e5 0100
00000280: 54cb 0200 d3c4 2c80 78ab 0380 7b32 1c80
00000290: d6cb 0000 2b9c 0080 5b61 1d80 3e19 0100
000002a0: 2ce8 0100 1770 0100 1c02 0080 1095 0180
000002b0: cbf2 0180 84c6 0100 7dd9 0080 8e77 0100
000002c0: e106 0080 7cae 0180 a238 0300 df80 0580
000002d0: ca29 0000 a7a2 0000 7002 0080 ae1a 1f00
000002e0: 51da 0180 0f4e 6280 1c13 0f80 864a 7800
000002f0: 631c 0180 d1ac 0080 54d6 0180 94d4 0080
00000300: 0259 1580 7380 0100 2f84 0100 22d7 1b80
00000310: e1be 0280 3187 0080 fa79 0000 219a 0000
00000320: dbd8 0680 c13d 1700 e314 1480 8be6 0200
00000330: 4579 0100 dbee 0680 c303 0680 00de 0200
00000340: 2b9a 0080 b425 0000 73af 0000 ab5d 1d00
00000350: 5392 0080 3c3a a78c b3ff 3400 b0f9 6300
00000360: 8827 0080 1cb3 0080 8cc4 0580 4d55 0080
00000370: 4d24 0000 803b 0000 3cbb 0100 f51d 0380
00000380: 0fb6 0100 953a 0000 c69c 8000 e507 1900
00000390: b2b2 0080 3b73 0100 54e5 0180 cd6e 0080
000003a0: 77ad 0000 5bd7 0380 81c9 0280 2ff7 3400
000003b0: 5656 0180 61eb 0000 2e4a 0180 8b3c 4680
000003c0: edee 0080 8aa6 3080 06e6 0380 db0b 0080
000003d0: a1a8 0100 3eab 0e00 8d55 0500 2118 0000
000003e0: 0850 1b00 60a2 1d80 7916 0000 6219 0f00
000003f0: ffc9 0000 7369 0000 b606 4180 75a7 1480

fc2.bias f4 [80]
0.07926138 -5.39796e-40 0.0044174846 0.0006457263 0.029679224 0.0008768734 -2.65838e-40 -0.0018727526
0.0035816717 0.08383094 0.06763866 0.031564955 -0.00012851234 -3.20094e-40 0.08081271 0.084128
0.0313961 0.07907128 0.0034250468 -6.92386e-40 0.028925963 0.08632704 0.06579817 0.0016006373
-2.89213e-40 0.002547997 0.00068399444 0.07136683 0.07182482 -1.320944e-38 0.07572842 0.002885388
-1.23034e-39 0.06375389 0.0011033645 0.001410976 0.005347237 -2.84539e-40 -4.038184e-19 0.03260601
0.08358142 0.00071021094 0.07132204 -5.572e-42 0.07522399 0.033751614 0.07427757 -1.168809e-39
0.0844269 -5.9678e-41 0.08781192 0.08284893 0.0030081198 -0.0015310189 0.031038225 0.0028025566
0.03191929 0.0025950368 0.0005432643 0.06390602 0.003443255 0.03331739 -0.002459478 0.083163396
0.0026122548 0.07986563 -1.855421e-39 0.10466803 0.0034725922 0.06956349 -1.5253923e-08 0.030176744
0.0003110296 0.077558205 -9.48619e-40 0.0017359935 -0.00019884396 -8.070568e-38 0.0032651508 0.0016645489
00000000: ca53 a23d bbe0 0580 8cc0 903b f545 293a
00000010: d821 f33c fadd 653a 0ce5 0280 2677 f5ba
00000020: 7bba 6a3b 8eaf ab3d 2386 8a3d 414a 013d
00000030: 45c1 06b9 4b7c 0380 2281 a53d 4d4b ac3d
00000040: 3299 003d 20f0 a13d c076 603b 178a 0780
00000050: 24f6 ec3c 3bcc b03d 31c1 863d 7acc d13a
00000060: 3526 0380 4cfc 263b 174e 333a c628 923d
00000070: e418 933d 8bd6 8f80 8017 9b3d c718 3d3b
00000080: b065 0d80 6691 823d c59e 903a 80f0 b83a
00000090: e037 af3b 2e19 0380 505f eea0 e18d 053d
000000a0: bc2c ab3d 732d 3a3a 4a11 923d 880f 0080
000000b0: 090f 9a3d 223f 0a3d d71e 983d 2aba 0c80
000000c0: 03e8 ac3d 5ca6 0080 bcd6 b33d b3ac a93d
000000d0: e023 453b 78ac c8ba e043 fe3c 19ab 373b
000000e0: cdbd 023d 7e11 2a3b da69 0e3a 29e1 823d
000000f0: 3ca8 613b d177 083d 322f 21bb 9251 aa3d
00000100: 5d32 2b3b 9790 a33d 2934 1480 315c d63d
00000110: 6e94 633b 4e77 8e3d bb07 83b2 3835 f73c
00000120: b011 a339 d6d6 9e3d 5d54 0a80 478a e33a
00000130: c580 50b9 a6b3 db81 24fc 553b fe2c da3a

fc3.weight f4 [50, 80]
0.02810618 4.4708e-41 0.0021566092 -0.0013362897 0.111449674 0.00057592517 1.59712e-39 0.002600909
0.0022448942 0.027162923 -0.018161885 0.1086732 0.00054190966 -5.77394e-40 0.02802178 0.025327424
0.1101475 0.027539145 -0.0047305953 1.13167e-40 0.1099447 0.024977649 -0.016738936 0.006450923
4.7145e-41 -0.005559516 0.0014420851 -0.020276643 -0.01632543 1.36331e-40 -0.016490985 -0.0043137977
2.8182e-41 -0.016988685 0.00022706248 -0.004748882 -0.0075808605 2.29737e-40 -7.7359e-41 0.11194886
0.026008897 -0.0014491207 -0.014680803 -1.1126e-41 -0.01948722 0.11324279 -0.01829772 6.1789e-41
0.025115173 1.9809e-41 0.02600387 0.024879493 -0.0064588427 0.002394665 0.110629 -0.0070875655
0.11181973 -0.005344489 0.0023372406 -0.016872264 -0.0056492765 0.10921632 0.0016842664 0.02710519
-0.0044871103 0.028074142 -1.588345e-39 0.018409578 -0.008490228 -0.015268563 3.0882892e-13 0.10970191
0.0045863194 -0.01510208 -8.24359e-40 0.0042540743 -0.0013519026 -4.83297e-40 -0.0059399423 0.0025452247
0.08764689 -1.39222e-40 0.0012857595 0.0037635462 0.008736652 0.00010497646 6.89631e-40 0.0026764285
-0.00041316779 0.09069236 0.0027271796 0.008274952 0.0050432207 -5.37059e-40 0.08687581 0.090905935
0.009126058 0.08602626 -0.09707471 1.130991e-39 0.005708137 0.08907104 -0.0015368579 0.00463084
1.58679e-40 -0.099139675 0.0014059482 -0.0001510124 0.004044368 1.7054e-41 0.00016113081 -0.09396281
1.4667e-41 0.0031351752 0.0039495686 -0.09720569 -0.09011581 -6.0018e-41 -2.64298e-40 0.01672749
0.08509198 0.00035081868 0.0026243604 -2.7251e-41 0.0027096733 0.0047524953 0.0005135316 -1.86792e-40
0.08834177 -2.45117e-40 0.08895185 0.08868491 -0.09594111 0.0051757055 0.0062830183 -0.09583465
0.007763977 -0.09638349 0.0024403592 0.002966312 -0.094711505 0.008822663 0.0016623806 0.09239806
-0.09598328 0.08623262 9.316e-41 0.09311443 -0.09659208 0.0057449853 2.0785526e-12 0.009626427
0.005286642 0.0022158343 -9.10449e-40 -0.0025284458 0.0065767043 1.997035e-39 -0.096325085 0.0090245195
0.029016469 -9.2203e-41 0.0032195179 0.00017452762 0.107817054 0.0019357562 5.89155e-40 0.0025561666
0.0012478264 0.02644134 -0.01850689 0.10740736 0.0016997806 -9.92897e-40 0.026719468 0.028726878
0.110391736 0.027088292 -0.0037352021 8.1571e-40 0.10749446 0.02493296 -0.017352045 0.0033805403
1.99458e-40 -0.005199936 -0.0021722168 -0.018000009 -0.015901554 3.8028e-41 -0.016371436 -0.0037966298
1.5323e-41 -0.014077346 0.0015936341 -0.0068297805 -0.004975016 1.73828e-40 8.4479e-41 0.106067926
0.026631724 -0.00044188814 -0.01612069 -2.619e-41 -0.019145155 0.10506172 -0.022140095 -3.746e-41
0.026304027 5.5786e-41 0.026142322 0.026735311 -0.008352043 -0.00035831708 0.11075264 -0.0035196163
0.10494807 -0.0046898895 -0.00034708154 -0.016557094 -0.0044626957 0.10633571 0.0016439827 0.029038928
-0.005192592 0.02733541 5.0168e-40 0.020388164 -0.003521204 -0.014710738 4.9859894e-13 0.10865276
0.0049139154 -0.018954296 1.68212e-40 0.0046214974 -0.00053697196 -5.41103e-40 -0.0061283605 0.0012883199
0.0048225103 -9.6873e-41 0.11580396 0.121760614 0.0009098654 0.12131114 -5.84825e-40 0.11953906
0.122179806 0.010143604 0.034491982 0.00040507814 0.115476936 -1.71375e-40 0.0036232972 0.010050876
00000000: ee3e e63c a17c 0000 e655 0d3b 7126 afba
00000010: ba3f e43d aff9 163a 1f64 1100 0374 2a3b
00000020: 131f 133b c784 de3c 3cc8 94bc 0e90 de3d
00000030: f10e 0e3a 8a49 0680 ef8d e53c 757b cf3c
00000040: 0395 e13d c699 e13c 1c03 9bbb 773b 0100
00000050: b02a e13d ed9d cc3c 1820 89bc 4462 d33b
00000060: 6c83 0000 9a2c b6bb 5904 bd3a 341b a6bc
00000070: e8bc 85bc 097c 0100 1a18 87bc c25a 8dbb
00000080: 8f4e 0000 db2b 8bbc 9f17 6e39 829c 9bbb
00000090: de68 f8bb 6a80 0200 a5d7 0080 7245 e53d
000000a0: 9c10 d53c 6cf0 bdba c087 70bc 041f 0080
000000b0: aaa3 9fbc d6eb e73d 1ae5 95bc 3eac 0000
000000c0: 56be cd3c 3837 0000 1106 d53c 14d0 cb3c
000000d0: b3a4 d3bb d0ef 1c3b 7591 e23d cf3e e8bb
000000e0: be01 e53d d320 afbb 642c 193b b437 8abc
000000f0: 911d b9bb ceac df3d 9ac2 dc3a b40b de3c
00000100: 9c08 93bb befb e53c a94b 1180 afcf 963c
00000110: 991a 0bbc ff28 7abc f0da ad2a 65ab e03d
00000120: d648 963b b76e 77bc faf9 0880 c365 8b3b
00000130: 5332 b1ba 3c43 0580 d9a3 c2bb c9cd 263b
00000140: 3680 b33d 1884 0180 ee86 a83a d4a5 763b
00000150: 2d24 0f3c cf26 dc38 6982 0700 0567 2f3b
00000160: 719e d8b9 ebbc b93d 7bba 323b aa93 073c
00000170: 9a41 a53b 1ad9 0580 f2eb b13d e42c ba3d
00000180: 7685 153c 892e b03d 1bcf c6bd be50 0c00
00000190: 530b bb3b e16a b63d 6570 c9ba 4dbe 973b
000001a0: 55ba 0100 be09 cbbd cb47 b83a 1559 1eb9
000001b0: 9e86 843b 8a2f 0000 39f5 2839 936f c0bd
000001c0: e328 0000 8377 4d3b 626b 813b c713 c7bd
000001d0: a38e b8bd 4ea7 0080 c1e0 0280 1708 893c
000001e0: b444 ae3d 16ee b739 76fd 2b3b f74b 0080
000001f0: c694 313b d2ba 9b3b 869e 063a b308 0280
00000200: 88ec b43d 49ab 0280 632c b63d 6fa0 b53d
00000210: c67c c4bd f798 a93b c7e1 cd3b f544 c4bd
00000220: f668 fe3b b564 c5bd 6fee 1f3b 7566 423b
00000230: 1bf8 c1bd ee8c 103c 3de4 d93a 323b bd3d
00000240: e292 c4bd ba9a b03d b103 0100 c7b2 be3d
00000250: 12d2 c5bd 6e40 bc3b e043 122c 29b8 1d3c
00000260: 913b ad3b 8837 113b f6e9 0980 48b4 25bb
00000270: 6581 d73b ecbe 1500 1646 c5bd 94db 133c
00000280: f2b3 ed3c 0601 0180 8cfe 523b 6701 3739
00000290: 30cf dc3d 33b9 fd3a 536a 0600 5c85 273b
000002a0: 1b8e a33a 829b d83c c39b 97bc 64f8 db3d
000002b0: 2ccb de3a cbcf 0a80 c9e2 da3c a154 eb3c
000002c0: 1015 e23d 44e8 dd3c 4bca 74bb dee1 0800
000002d0: 0e26 dc3d 3540 cc3c e025 8ebc 0e8c 5d3b
000002e0: 022c 0200 3a64 aabb c05b 0ebb c174 93bc
000002f0: fa43 82bc 026a 0000 641d 86bc e1d0 78bb
00000300: b72a 0000 aba4 66bc 7de1 d03a 5acc dfbb
00000310: 7605 a3bb 90e4 0100 7eeb 0000 243a d93d
00000320: c62a da3c 39ad e7b9 8a0f 84bc 0249 0080
00000330: 4dd6 9cbc 992a d73d 255f b5bc 6c68 0080
00000340: 8b7b d73c 829b 0000 6c28 d63c 0304 db3c
00000350: 02d7 08bc 81dc bbb9 48d2 e23d 5da9 66bb
00000360: 04ef d63d a5ad 99bb 7ff8 b5b9 bea2 87bc
00000370: ce3b 92bb 89c6 d93d e87a d73a 0ce3 ed3c
00000380: 9e26 aabb 82ee df3c 7b76 0500 1405 a73c
00000390: 00c4 66bb 4f05 71bc d757 0c2b 5785 de3d
000003a0: e904 a13b 0a46 9bbc e8d4 0100 ee6f 973b
000003b0: 94c3 0cba 60e4 0580 6ad0 c8bb d8dc a83a
000003c0: 2606 9e3b 0b0e 0180 a02a ed3d a15d f93d
000003d0: 0984 6e3a fa71 f83d 415e 0680 e5d0 f43d
000003e0: 6839 fa3d 5c31 263c 7747 0d3d ab60 d439
000003f0: 2c7f ec3d b9dd 0180 d774 6d3b 6eac 243c

fc3.bias f4 [50]
0.07166176 0.15301968 0.07343589 -0.020364668 0.07064481 0.08236118 -0.01886685 -0.021629566
0.1465585 0.069386356 -0.022450434 0.03986613 -0.020846408 -0.021910578 -0.022424653 -0.020525528
0.07351686 0.07533316 0.15534954 0.15311775 -0.02000136 0.15081963 0.07614361 0.15493707
0.14977722 0.06869811 0.06788458 0.07759445 -0.021916458 0.07458176 0.07174926 -1.2318496e-20
0.077762194 0.15833132 -0.020793237 -0.022770124 0.08097567 -0.023182904 0.1576905 0.14899991
0.074240394 0.039899092 0.07166783 -7.792003e-12 0.07620731 0.07460169 -0.019902503 0.06986265
0.07563681 0.07130433
00000000: 67c3 923d 31b1 1c3e 8e65 963d ced3 a6bc
00000010: 3aae 903d faac a83d a78e 9abc 7d30 b1bc
00000020: 6e13 163e 6f1a 8e3d f9e9 b7bc ab4a 233d
00000030: 16c6 aabc d07d b3bc e8b3 b7bc 2725 a8bc
00000040: 0290 963d 4648 9a3d f313 1f3e e6ca 1c3e
00000050: e4d9 a3bc 7670 1a3e 2ef1 9b3d d3a7 1e3e
00000060: 335f 193e 98b1 8c3d 1207 8b3d d7e9 9e3d
00000070: 258a b3bc 52be 983d 47f1 923d 97b0 689e
00000080: c941 9f3d 9b21 223e 9456 aabc 6988 babc
00000090: 92d6 a53d 13ea bdbc 9e79 213e 6f93 183e
000000a0: 590b 983d 3b6d 233d 95c6 923d 1014 09ad
000000b0: 9412 9c3d c5c8 983d 930a a3bc 2614 8f3d
000000c0: 79e7 9a3d 0108 923d

fc4.weight f4 [4, 50]
-0.32231364 -0.16474101 -0.3158049 0.22263333 -0.31946203 -0.30491015 0.21884385 0.22584534
-0.15991488 -0.31884956 0.22402653 0.18266505 0.22781368 0.22483136 0.21979189 0.22217162
0.26111725 0.2613446 -0.16447471 -0.15717629 0.22373463 -0.16478407 0.25601798 -0.1551825
-0.16224793 -0.30885774 -0.32404017 0.25688922 0.22541222 0.25863728 0.24904062 -6.6106297e-15
-0.32169458 -0.15706868 0.22619978 0.21711211 -0.32469836 0.23367076 -0.15864876 -0.1596545
0.26784897 0.18424341 -0.3085561 5.5162e-11 0.25418806 0.2566531 0.22780399 -0.31051287
0.26019213 0.25567383 0.113575615 -0.30920804 0.107463054 -0.12607743 0.10997856 0.11842159
-0.12823342 -0.119107716 -0.30216235 0.106673375 -0.12144222 -0.14572543 -0.115644045 -0.11826278
-0.12074693 -0.11482344 0.31611365 0.32081574 -0.3039903 -0.30336258 -0.116032355 -0.3016424
0.31821594 -0.30318263 -0.30407348 0.11171145 0.1047099 0.33011547 -0.12046885 0.3150588
0.31956184 1.5500495e-21 0.11875896 -0.30800524 -0.10543536 -0.124599494 0.11711703 -0.1178496
-0.3096351 -0.3016375 0.32236022 -0.14927432 0.10628795 -2.4091807e-11 0.32050896 0.32723248
-0.11752217 0.11684474 0.31975114 0.31700793 0.11952442 0.24272369 0.11968977 -0.36358386
0.11861775 0.11708033 -0.35101098 -0.3666404 0.23578677 0.12365193 -0.37453523 -0.019620981
-0.37316796 -0.36086366 -0.35836342 -0.36495635 -0.29194847 -0.2882826 0.25017726 0.24086916
-0.36719334 0.24068636 -0.28511745 0.24170706 0.24441889 0.1176434 0.116973355 -0.29868758
-0.35412744 -0.29081708 -0.28643158 5.7400797e-18 0.11843643 0.24068189 -0.35843813 -0.3571928
0.11886988 -0.37443516 0.24130988 0.23929004 -0.29154417 -0.021033812 0.11832025 2.3607494e-11
-0.28990683 -0.2915603 -0.35340643 0.11942332 -0.28848118 -0.28738365 0.10680817 0.212888
0.10319761 0.22829914 0.10655726 0.09735741 0.23264322 0.23210476 0.21266691 0.10775428
0.23812324 -0.01448323 0.23244558 0.23314637 0.23106539 0.22626644 -0.29724583 -0.3001665
0.20566416 0.20541945 0.23351212 0.20891888 -0.29646108 0.2030478 0.21233155 0.10098397
0.107745275 -0.2996267 0.23396367 -0.29600826 -0.2946895 1.0904298e-14 0.10104134 0.20758764
0.2266556 0.23280308 0.10250412 0.23733336 0.20828125 0.20552279 -0.30861735 -0.009270691
0.102213524 -7.491522e-11 -0.29509512 -0.29966387 0.21993381 0.10121449 -0.30067688 -0.28912312
00000000: 4b06 a5be deb1 28be 2eb1 a1be fef9 633e
00000010: 8790 a3be 2f1d 9cbe 9a18 603e 0044 673e
00000020: bac0 23be 4040 a3be 3667 653e 8c0c 3b3e
00000030: fd47 693e 313a 663e 2011 613e f580 633e
00000040: 29b1 853e f6ce 853e 0f6c 28be d2f2 20be
00000050: b11a 653e 28bd 28be ca14 833e 29e8 1ebe
00000060: 5224 26be 9a22 9ebe 98e8 a5be fc86 833e
00000070: 76d2 663e 1b6c 843e 8104 7f3e 4c2c eea7
00000080: 27b5 a4be 9dd6 20be eaa0 673e a352 5e3e
00000090: dd3e a6be 6347 6f3e d274 22be 787c 23be
000000a0: 8023 893e 4eaa 3c3e 11fb 9dbe e49a 722e
000000b0: f024 823e 0968 833e 7345 693e 8bfb 9ebe
000000c0: e737 853e aee7 823e 559a e83d 8450 9ebe
000000d0: 9715 dc3d 711a 01be 703c e13d 0587 f23d
000000e0: 9f4f 03be bfee f3bd 06b5 9abe 9277 da3d
000000f0: b3b6 f8bd 0c39 15be c9d6 ecbd c233 f2bd
00000100: 2b4a f7bd 8d28 ebbd a6d9 a13e f641 a43e
00000110: 9ea4 9bbe 5752 9bbe 5fa2 edbd df70 9abe
00000120: 33ed a23e c13a 9bbe 85af 9bbe f9c8 e43d
00000130: 2572 d63d e504 a93e 5fb8 f6bd 634f a13e
00000140: 9c9d a33e a33c ea1c e637 f33d ddb2 9dbe
00000150: 7eee d7bd 052e ffbd 0edb ef3d 225b f1bd
00000160: 7e88 9ebe 3b70 9abe 660c a53e 5edb 18be
00000170: 7fad d93d ede9 d3ad c019 a43e 048b a73e
00000180: 77af f0bd 4c4c ef3d 6cb6 a33e dd4e a23e
00000190: 38c9 f43d 8f8c 783e e91f f53d aa27 babe
000001a0: dded f23d d0c7 ef3d b6b7 b3be 4ab8 bbbe
000001b0: 1672 713e 393d fd3d 15c3 bfbe 2ebc a0bc
000001c0: df0f bfbe 1fc3 b8be 697b b7be 8fdb babe
000001d0: 457a 95be c799 93be 3c17 803e 68a6 763e
000001e0: c400 bcbe 7c76 763e eafa 91be 0e82 773e
000001f0: f248 7a3e 06ef f03d ba8f ef3d 94ed 98be
00000200: 3150 b5be fae5 94be 29a7 92be 85c5 d322
00000210: cd8e f23d 5075 763e 3485 b7be fae1 b6be
00000220: 0d72 f33d f7b5 bfbe f019 773e 7308 753e
00000230: 4745 95be 1a4f acbc e351 f23d 5aa7 cf2d
00000240: ab6e 94be 6447 95be b0f1 b4be 3794 f43d
00000250: ceb3 93be f323 93be 3ebe da3d 50ff 593e
00000260: 4559 d33d 40c7 693e b13a da3d 5263 c73d
00000270: 063a 6e3e dfac 6d3e 5bc5 593e 47ae dc3d
00000280: 94d6 733e 124b 6dbc 3706 6e3e ecbd 6e3e
00000290: 689c 6c3e 64b2 673e 9b30 98be 6caf 99be
000002a0: a099 523e 7a59 523e cd1d 6f3e d5ee 553e
000002b0: bfc9 97be c3eb 4f3e 716d 593e afd0 ce3d
000002c0: 8ea9 dc3d ac68 99be 2c94 6f3e 658e 97be
000002d0: 8be1 96be 336f 4428 c3ee ce3d db91 543e
000002e0: 6818 683e ee63 6e3e aeed d13d 8407 733e
000002f0: ae47 553e 9174 523e 1803 9ebe 19e4 17bc
00000300: 5355 d13d 85bd a4ae b516 97be 8b6d 99be
00000310: 5436 613e 8b49 cf3d 52f2 99be f207 94be

fc4.bias f4 [4]
-0.07704613 -0.07832712 0.49098504 -0.33016053
00000000: 5dca 9dbd f869 a0bd 6462 fb3e cd0a a9be
