MediaPipe_Operation/model_4class/gesture_classifier9.pth (torch, 118016 bytes, 6 tensors)

fc1.weight f4 [126, 150]
00000000: 454e 953c c20a 4f3d c91e c7bb b5da 46bc
00000010: 4cb4 5a3c 9650 84bc 1c72 d9b9 8087 263d
00000020: d5c7 83bc 3bb8 c23c 8cdd c1bc 54e0 22bc
00000030: cf00 1ebc 86f5 193d d0f0 d1bc fb80 cb3c
00000040: b6df 72bd 2b77 80bb ca03 f8bc 6aac 253d
00000050: 296b 2cbd 863b e93c 404b a6bd 1817 a4bb
00000060: 802f bbbc 135a 183d ea1c 6cbd b7f8 bf3c
00000070: c493 dfbd fed3 8b39 bf74 08bd 8fb6 0c3d
00000080: 9cf4 8cbd 74aa 0c3d 3d0a 13be 957c 6a3c
00000090: b310 0bbd 22c5 0c3d 81ae 9cbd 067b 7b3d
000000a0: 1ce7 2abe 283a 3c3d 3b8f bfbc a74b 073d
000000b0: 2dc4 a3bd 7444 a53d d776 2dbe c7c6 4a3d
000000c0: 04b7 c3bc fea2 053d 0387 7dbd 8ab4 6d3d
000000d0: 9202 20be 4538 a03c 9487 49bc 8595 3b3d
000000e0: 51e2 34bd 5cab 673d 2e2f d8bd a041 afbb
000000f0: e219 0cbc c9fa 9b3c 617c 9abc a7e5 523d
00000100: ff91 50bd b0e8 9cbc 1220 2ebc 5116 7f3c
00000110: f7b0 7d3b aefa 393d 3d1b a43b 007b 33bd
00000120: 5ffa e43a 058d 82ba 4bf2 013d d32a 323c
00000130: 5232 863d 56cd 6bbd a0e2 703c ab06 91bc
00000140: 9f14 463d 9eed a8bc ee13 023e 3fa9 8dbd
00000150: 9937 a73c a5a5 fdbc 0d46 933d 840c fabc
00000160: 8c7b 403e 749c 8ebd 7dd8 df3c ee21 e9bc
00000170: 6095 a83d 8798 1cbd 2183 673e fbb2 60bd
00000180: d36a 0d3d a752 2cbd 9348 b43d 4c2d 90bd
00000190: 5476 603e bdd6 0bbd 9e74 243d 8615 52bd
000001a0: 847d 973d 0abd c2bd e915 573e 671a 80bc
000001b0: fd0d 4f3d 875e 4bbd 713d 663d ef09 95bd
000001c0: 16d2 3a3e 4ebc 683b 5df1 fd3c 177e 42bd
000001d0: d563 123d 1b05 73bd 3e05 e43d 4b85 913c
000001e0: faf3 8d3c a28e 16bd 02a6 8c3c ff36 2bbd
000001f0: 6430 243d 7934 e03c a53e 053b 9e1a 13bd
00000200: dd80 d63b 9741 f0bc d32c e3bc cd67 343d
00000210: f779 20bb 7a23 0cbd e206 d4ba 5759 94bc
00000220: c632 9cbd 9e31 7a3d 762b 5dbc f960 d6bc
00000230: b330 ccbb 66a2 4abc 002b d1bd f0af 8e3d
00000240: fd56 09bd af20 9fbc 5fb8 64bc d1f9 653a
00000250: babd e1bd 17b6 483d 51f1 65bd 8c63 67bd
00000260: 4d48 40bb e523 4b3c dfc1 573c dae8 a33c
00000270: 03ab 46bd a3ac 57bd ad41 dc3b 6ee2 4d3c
00000280: f6f2 203d 6852 d13b 4274 3fbd 74fa 5ebd
00000290: b59c fbba 0711 9cba 164a 073d 891f 003c
000002a0: fd84 02bd e48d 29bd 489b 103c 76bd 253c
000002b0: ff27 193d ad25 c33b fc43 01bd f13e 2bbd
000002c0: d628 663c ca82 003c 12ce f43c bacd e13b
000002d0: 9b3a ebbc 1401 ebbc 690a a73c 1b26 ab3b
000002e0: d3c1 2f3d 017a 913b 44df e5bc 69e4 cabc
000002f0: b578 a33c c130 ee3a 991b f23c b578 e8b9
00000300: f3b9 c7bc 83c9 dabc 55b3 9d3c 9145 8ebc
00000310: 85e4 a23c 2771 0c3c 2b22 81bc 34ac b8bc
00000320: ef2b 803c 6a6f 64bc c8f2 813c f4d7 7a3c
00000330: aa18 a5bb 746b a5bc 0cd2 c23b 2293 87bc
00000340: 1bad 433b 90d8 c33a 21fa 2b3a 0a8a 2cbc
00000350: 0ea3 613c 655b a8bc 5316 003b 1311 d6bb
00000360: f05f 573c 0a14 2fbc 55ea 793c 5c94 eabc
00000370: 0b8b 983c 9b23 43bc 2134 9a3c 5b12 0bbc
00000380: 996f 943c 841b 21bd 0d43 b63c bd1d 43bc
00000390: ceeb 9b3c b66c 91ba 627f bc3c cc59 1cbd
000003a0: 0ace a33c aa7f 5ebc d88e b73c f683 ebba
000003b0: 358f d73c 1d78 38bd 14ca a73b c667 83bc
000003c0: 7603 c63c ea3e 1c3a 974d bf3c 8321 03bd
000003d0: c947 98bc fd52 a0bc cf9f e03c 7065 4a3a
000003e0: fdea c93c ebdd eabc 734f babc 30ee 82bc
000003f0: 1cf8 e03c 1d6b d83a 04b9 fc3c 9dea 09bd
0.018225798 0.05054737 -0.006076668 -0.012137105 0.01334865 -0.016151708 -0.00041474483 0.040656567
-0.016086498 0.023769489 -0.023665212 -0.009941179 -0.0096437475 0.037587665 -0.025627524 0.024841776
-0.05929538 -0.003920456 -0.030275244 0.04044763 -0.042094383 0.028470766 -0.081198215 -0.005007636
-0.022849798 0.037195276 -0.057644762 0.023434026 -0.10916856 0.00026670092 -0.033314463 0.03435379
-0.06882593 0.034342244 -0.14359374 0.014311929 -0.033951472 0.034367688 -0.076504715 0.06139662
-0.16689724 0.0459539 -0.023383727 0.033031132 -0.07996402 0.08069697 -0.16939865 0.049505975
-0.02389098 0.032626145 -0.061896335 0.058033504 -0.1562598 0.019558081 -0.012300391 0.04579689
-0.044161145 0.056559905 -0.10555874 -0.0053483993 -0.008551093 0.019040482 -0.018858137 0.051488545
-0.050920483 -0.019153923 -0.010627763 0.0155692855 0.0038710216 0.045405082 0.00500813 -0.043818474
0.0017469636 -0.000996024 0.03172521 0.010874468 0.065525666 -0.05756887 0.014702469 -0.017703375
0.04835951 -0.020621117 0.12702915 -0.06917047 0.020412253 -0.030962775 0.071910955 -0.030523546
0.1879713 -0.06963435 0.02732491 -0.028458562 0.08231616 -0.0382314 0.22608615 -0.05485819
0.034525704 -0.04207101 0.08802905 -0.0703989 0.21920139 -0.034140337 0.040150277 -0.051290058
0.07396987 -0.095087126 0.21004452 -0.01563759 0.05055045 -0.049650695 0.05621094 -0.07277285
0.18244204 0.003551263 0.03099888 -0.04748353 0.03573974 -0.05933104 0.11133812 0.017763754
0.017328251 -0.03675712 0.017169002 -0.041800495 0.04008521 0.02736877 0.0020331529 -0.035914056
0.0065461234 -0.02932815 -0.027731335 0.044044305 -0.002448676 -0.03421352 -0.0016176368 -0.018109007
-0.07626872 0.061082475 -0.013499131 -0.026169287 -0.0062313913 -0.01236782 -0.1021328 0.06967151
-0.033530224 -0.019424764 -0.013959973 0.0008772882 -0.110225156 0.04900178 -0.05613834 -0.05649142
-0.002933997 0.012398695 0.013168781 0.020008493 -0.048502933 -0.052654874 0.0067216964 0.012566192
0.039294206 0.0063879974 -0.04674173 -0.05443807 -0.0019196483 -0.001190693 0.03302964 0.007820019
-0.03186511 -0.041395083 0.008826084 0.010115972 0.03739166 0.005955419 -0.031558976 -0.041808072
0.014047822 0.007843683 0.029883418 0.0068909796 -0.028714469 -0.028687038 0.020390706 0.0052230484
0.042909455 0.004439593 -0.028060563 -0.024767118 0.019955019 0.0018172489 0.029554175 -0.00044340422
-0.02438066 -0.026707416 0.019250551 -0.017367156 0.019884357 0.0085718995 -0.015763363 -0.02254305
0.01564595 -0.013942579 0.015862837 0.015310276 -0.0050383406 -0.02019284 0.0059454497 -0.01654965
0.0029857818 0.001494186 0.00065604044 -0.010530958 0.013771785 -0.020551393 0.0019544556 -0.006532797
0.013145432 -0.01068593 0.015253623 -0.028635196 0.018620988 -0.0119103445 0.018823685 -0.008488263
0.01811962 -0.03933288 0.02224877 -0.011908946 0.019033339 -0.001109502 0.02300996 -0.038171574
0.019995708 -0.013580242 0.02240698 -0.0017968405 0.026313404 -0.045036424 0.005120525 -0.016040694
0.024171572 0.00059603027 0.023352427 -0.03201438 -0.018588917 -0.019570822 0.027419953 0.0007720804
0.024648184 -0.028670272 -0.022742962 -0.015982717 0.027462058 0.0016511414 0.030849941 -0.03367101

fc1.bias f4 [126]
00000000: bfe5 a7bc a028 d9bc 10e8 3f3d 9e2d 64bd
00000010: aa2d 11b8 6d8e 933c 3719 253e 7371 7d3c
00000020: 0381 b3bd ea02 733d a24e 143b 247f 003a
00000030: 61dc 3a3d 68b0 cd3b fe25 433d 523f 0ebe
00000040: fe63 a9bb 5e13 8b3b 2872 323b 21f6 e439
00000050: 2cdb 3abd 5fab 9eba 980a d2b9 d936 2e3c
00000060: 0921 dcbc 28a9 033d 503c 51b9 a7ec d83c
00000070: 2257 52bc 7523 02be 8165 003e cd7a 123d
00000080: 7897 f23c 40ed c0bb 7205 1dbc e9f0 5b3c
00000090: 77b5 473d fb44 a6bd ed5b 02bd f0c0 513c
000000a0: ac11 5e3c e26c 0f3d b82b 2a3d 81b2 393d
000000b0: 3ad0 15bb f08f 4e3c 0d8b 4e3b dbbe 6a3b
000000c0: 18f9 e53d 0068 8f3c 8afd dd3c b7ef 2cbd
000000d0: ebb7 93bd a6cc e738 2cae 51bd f999 5d3c
000000e0: 4890 093d 2669 26bc d524 2abc 7a6d 363a
000000f0: d282 9c3d e9af a13b 1ccd 1e3d 3d6f 6f3c
00000100: df0c 0e3d 2cf0 0a3d 5b0b 96bd e6cf 813a
00000110: 5a00 1438 e792 61bc 0146 f23c 6148 543c
00000120: ef4c 45bd fbfd a6bc 562a 2c3c d7eb 02bd
00000130: adb0 62bd 83df cd3d 4bb4 a1bd f765 17bd
00000140: d99b ab3d 1aef f83c 50e3 833c b0ec 313c
00000150: b567 ccbc dc5f abbd 976f ed3c 970f fdbb
00000160: c018 b4bd 06bd 3c3d 93ed 01bc 5c51 693a
00000170: 15b3 f8bc b9a4 8e3d 150a 3e3d 3855 c23c
00000180: 984c 8ebb 98ff 123d 2024 a63d d510 943c
00000190: 3e06 34bc d7eb 823d dabd d53c 771e 8cbd
000001a0: 30d1 343c 9c9e acb9 e8b2 ec39 f8ef 93bd
000001b0: 5b4a 5c3c d259 05bc d2c7 4a3c d388 523c
000001c0: 7305 04be 71b0 f739 1faa 8fbd e04d 313b
000001d0: 043e 103a f7d7 d1bd 75b0 973b fbc7 003c
000001e0: 9bca 9d3d d375 42bd 58d8 c03a 2d89 6fbd
000001f0: 2c68 07be e6a8 643c
-0.020495294 -0.02650863 0.04685217 -0.055707566 -3.4613222e-05 0.01801225 0.161229 0.015468943
-0.087648414 0.05932895 0.0022629877 0.0004901758 0.045620326 0.006277133 0.047643654 -0.13891342
-0.0051693907 0.004244252 0.0027228687 0.0004367093 -0.045619175 -0.0012105516 -0.00040062214 0.010633194
-0.026871221 0.03214374 -0.00019954261 0.026480032 -0.012838157 -0.12708838 0.1253872 0.035761643
0.029613242 -0.0058876574 -0.009583818 0.013424137 0.048757043 -0.08118626 -0.03182595 0.012802348
0.013554018 0.035015948 0.0415456 0.04533625 -0.0022859708 0.01260756 0.0031515986 0.0035819325
0.112291515 0.017505646 0.027098436 -0.042220797 -0.07212814 0.00011053057 -0.051191494 0.0135254795
0.033584863 -0.010156905 -0.010384758 0.00069590623 0.076421395 0.0049343 0.038769826 0.014613924
0.034680244 0.033920452 -0.07326385 0.0009903878 3.5286277e-05 -0.013767934 0.029574396 0.01295671
-0.048169073 -0.02038478 0.010508141 -0.031963196 -0.055344272 0.10052397 -0.07895716 -0.036962476
0.08379335 0.03038745 0.016099602 0.010859653 -0.024951795 -0.08367893 0.028983874 -0.0077228057
-0.08793783 0.046078704 -0.007930177 0.0008900368 -0.03035883 0.06965012 0.046396334 0.023722276
-0.004342627 0.035888284 0.08112359 0.018074432 -0.010987816 0.06392639 0.026091505 -0.06841748
0.011036202 -0.0003292457 0.00045146723 -0.07223505 0.013445462 -0.008139091 0.012376742 0.012850004
-0.12892704 0.0004724297 -0.0701487 0.0027054474 0.0005502405 -0.1024627 0.0046291896 0.007860179
0.077046596 -0.047475647 0.0014712913 -0.05848043 -0.13223332 0.013956284

fc2.weight f4 [75, 126]
00000000: 9bc1 af3b 0763 253d b9ad aa3b fe09 283d
00000010: 78d4 8e38 1977 2b3c 2c94 e8bc 0d15 543c
00000020: 602c f23c 853a f9bc 8a78 563b 4043 3e3b
00000030: da4a 48bc 5ce8 223c 45ca 45bc 50fa 2d3d
00000040: 210f 4e3c 7c2d 593a dbcd ae39 fed7 293a
00000050: 1084 313c 9082 ea3c f92a a13b 0845 4b3b
00000060: 1693 0a3d a2c0 333c d1c6 853b f24d f13c
00000070: 2957 153d 0754 553d b2ff 2fbd bd29 56bc
00000080: 2f24 8a3c e6b9 103c 0166 30bc 6fb6 5a3b
00000090: e4a3 89bc e74c 283d a99f df3c af8e 933c
000000a0: 7842 003c c1bb 663c a5bd f4bc 0718 9dbc
000000b0: 24b7 ad3a 7473 603b 7147 ca3c f578 113c
000000c0: ec1a 1dbd b344 183c 3413 973c e654 cf3c
000000d0: 90fb 223d e641 2138 a190 563c e48c 0c3c
000000e0: cdd5 45bc 7403 043d c611 aa3c 4599 a639
000000f0: 3bbf c6bc caeb fe3a 70d2 77bc 1a7b 263c
00000100: 74ba ddbc 24ce 8abc b218 2b3d 49b4 dd39
00000110: 9974 5837 745f a3bc 1539 c23b d53f 2c3b
00000120: feb6 bd3c 7412 b03c 8e72 4f3a aecc a23b
00000130: 0d6a 2a3d 65c1 31bb 0363 c53c 672c 283d
00000140: 9947 febc ab20 833b 7e8f d4ba 0948 bd3b
00000150: 1941 8a3d c5d7 df3c 0de5 1e3c 4294 f4bb
00000160: 87eb 3c3d 0170 32bc 99a8 d33b e899 ecb7
00000170: 116c f33c 0e28 b3bc d10f ebbc be1f 6abc
00000180: 1b8c 783b 8215 97bc 1048 7ebc 450f 2e3c
00000190: 23dd 3f3c 2cdb d4bc d81c 0f3c 6338 223d
000001a0: 0372 c9b9 cf13 3f39 446d 8b38 5411 343d
000001b0: 1aba 543b 1122 9e3b 0c20 803c a8d8 253b
000001c0: 9c4b 3c3d e84d 3339 6b26 553d ea4a 963a
000001d0: 8c35 0c38 3665 2a3d b39c 2a3b 0138 343b
000001e0: 53c5 02bd d2e6 513c 56dc 353a 48c5 273d
000001f0: ca02 3d3d 7edd 033c a38f 8a3d 56db 953b
00000200: 5438 6ebc f649 1a3c 9d20 e3b7 976b 253c
00000210: ad89 343d f33f 1ebb 2739 7e3c c428 eabb
00000220: 7a59 4abb 5667 c0bb 17d6 13bd 62ab f539
00000230: 4251 d1bc 43f0 503c a748 133c c877 a73a
00000240: bda9 403a 8bc7 95ba a44c 723d 857d b03b
00000250: bc34 1bbc 872b e4bc bf2e bb3b d7ed ac3d
00000260: 630f aabb 6e83 873a a20f 783b c239 6c3c
00000270: e61d 0dbb 4716 12bd 3251 c33d d361 8a3b
00000280: 7e87 323d eead 523b 3bc3 3fbd 6b01 3c3c
00000290: 9f45 b03d 02e1 52ba b760 13bd 9487 2c3c
000002a0: d3f2 74bc 8817 6a3c a110 2d3a 52b0 913b
000002b0: a7b1 acbc 4de1 993d 6580 293d 80c7 41bb
000002c0: 9d0d c33d 7158 233c b4a4 263c 749c 6d38
000002d0: b99e e13c f0dd e83b 195e 12bd 9db9 723b
000002e0: bf7b 983d ae28 9eb8 3bb3 11bd 9020 1b3b
000002f0: 7c97 b6bc 41a7 023c 5808 a9bc 0692 4ebd
00000300: f86d 2a3c 16bc 013a 74fa 6d37 fffe 563d
00000310: c28b e33b e861 d4ba 3d40 583c a26c 813c
00000320: 22d3 413b 01fa 8d3d bea8 df3b 49e4 0a3d
00000330: c0c3 9b3c 609d b53b 011a 81bb dc36 313d
00000340: 8d60 4fbd 51b8 c23b 3f59 5e3d c6bc a73c
00000350: 48ca ac3d 2fdb 103d 6de0 a63c 3f35 0abd
00000360: 7e2b 283b 8ca7 4639 aef1 133c 8238 43bd
00000370: 7199 6abc cbc6 6c3c a4d6 dd3a f548 36bd
00000380: f4be 8a3d caea 2b3c 9701 a83b 4d7d f6ba
00000390: 1342 df3c fc07 2e3c 16f3 d6bc 96f3 f338
000003a0: 20b8 9139 88b5 813c 743f b73b 513a 713b
000003b0: a246 c7bc edf4 623b 482a 283c fce6 0839
000003c0: 2d01 073d cdb8 ae3a c079 2d39 cdf1 603c
000003d0: 7d84 353b 9db2 a63b 1739 30bc 3b7d 853d
000003e0: 48be 3d3a 0777 ba3b 4565 253c 3c42 bd3d
000003f0: 5bb6 02be c1a2 c93a 7682 c03b 026e 303b
0.0053636557 0.040377643 0.0052086976 0.041025154 6.810663e-05 0.010465407 -0.028390966 0.012944472
0.029562175 -0.030423412 0.0032725655 0.0029031783 -0.012224877 0.009943094 -0.012072151 0.042475045
0.012576849 0.0008284671 0.0003334124 0.0006479024 0.010834709 0.02862671 0.004918453 0.0031016488
0.03383168 0.01097122 0.0040825387 0.029456113 0.036460076 0.052082088 -0.04296846 -0.013071475
0.016862957 0.008833384 -0.010766507 0.00333729 -0.016801782 0.041088965 0.027297812 0.018012373
0.007828347 0.01408285 -0.029875586 -0.019176496 0.0013253433 0.0034248503 0.024692269 0.008878936
-0.038355753 0.009293723 0.018441774 0.025309037 0.03979069 3.8446764e-05 0.013096006 0.008578513
-0.0120749 0.032229856 0.020760428 0.00031776182 -0.024261108 0.0019448933 -0.015125856 0.010161186
-0.027066447 -0.016943999 0.0417716 0.00042286728 1.2901751e-05 -0.019942977 0.005927215 0.0026283164
0.023158547 0.021493174 0.00079134933 0.0049682474 0.041605044 -0.0027123329 0.024095064 0.04105797
-0.03104 0.004001697 -0.001621708 0.0057764095 0.06750698 0.027324567 0.009698165 -0.007463963
0.046123054 -0.010890962 0.0064593074 -2.820506e-05 0.029714616 -0.021869686 -0.028694065 -0.0142897945
0.0037925306 -0.018442873 -0.015520111 0.010623758 0.011710438 -0.025983416 0.008734904 0.039604556
-0.00038422653 0.00018222559 6.648389e-05 0.043961838 0.0032459558 0.0048258384 0.015640281 0.002530614
0.045970544 0.00017099793 0.05203859 0.0011466418 3.342847e-05 0.04160043 0.0026033341 0.0027499201
-0.031926464 0.0128113795 0.00069374347 0.040959626 0.046145238 0.008048413 0.06765678 0.004573266
-0.014539797 0.009417048 -2.7075695e-05 0.010096452 0.04407661 -0.0024147003 0.015516556 -0.007145973
-0.0030876086 -0.0058716936 -0.036092844 0.00046857732 -0.025551442 0.012752595 0.00898949 0.0012776786
0.0007349512 -0.0011427266 0.05915512 0.005386057 -0.009473022 -0.027852787 0.0057123597 0.08443802
-0.0051898225 0.0010338852 0.0037851115 0.014418067 -0.0021532713 -0.035665777 0.09536971 0.0042230873
0.043586247 0.0032147127 -0.046817046 0.011474947 0.08607029 -0.0008044393 -0.035980906 0.010530371
-0.014950472 0.014287837 0.0006601904 0.004446068 -0.021080805 0.07513676 0.041382212 -0.0029568374
0.09524081 0.009969817 0.010171104 5.665091e-05 0.027541505 0.007106535 -0.03573427 0.0037036904
0.07445478 -7.541604e-05 -0.035571318 0.0023670532 -0.02228903 0.007974447 -0.020633861 -0.050432228
0.010402195 0.00049489865 1.4184614e-05 0.052489277 0.0069441507 -0.0016203495 0.013198909 0.01579887
0.0029575308 0.0693245 0.0068255356 0.033909116 0.01901424 0.005542442 -0.0039398675 0.04326521
-0.050629187 0.0059423824 0.05428433 0.020475756 0.084370196 0.03536528 0.020370686 -0.033742186
0.002566069 0.00018945168 0.009029789 -0.047661312 -0.01431881 0.014451693 0.001692493 -0.04450317
0.06774703 0.01049299 0.0051271426 -0.0018805653 0.027253186 0.010622021 -0.02623896 0.00011632514
0.0002779374 0.015833631 0.005592281 0.003680844 -0.024325673 0.003463085 0.010263987 0.00013056019
0.032960106 0.0013330221 0.00016543921 0.013729525 0.0027697377 0.0050872103 -0.010755799 0.065180264
0.0007238132 0.0056904587 0.010094945 0.09241149 -0.12764876 0.0015383587 0.005874927 0.0026921039

fc2.bias f4 [75]
00000000: f7be 60bd a8d6 593c 03e5 8e3d 5dd4 80bd
00000010: 553b 64bd c16b 6b9d 48e9 9d3d 90e3 65bd
00000020: a925 973d c426 ba3d 7a21 a33d 6955 a33d
00000030: 7ef4 b23d cd9f 81bd 46a2 6e09 7c9e a33d
00000040: 5b5e ab3d be77 c83d 6a80 b13d 48e1 81bd
00000050: 02d4 9e3c a0d2 8e3c 9b61 543d 010a 9b3d
00000060: a88b 9f3d 5436 a53d c180 82bd c946 923d
00000070: 069b b03c b3f6 a03d 55c1 653d 7d9c 75bd
00000080: d0a0 7abd c89f 72bd 5aa7 1f3c 3099 78bd
00000090: a8b4 a33d 92d6 2c3c 087e 9a3d de26 f73d
000000a0: 6967 003c 8c4d 9e3d c4f4 97bb 8336 7abd
000000b0: 2e03 093e f654 6c3d 0ac5 883c 44dd 0f9a
000000c0: a334 a53d 69cf a33d 8337 813c 5d35 7abd
000000d0: 9ee0 023c 72e1 74bc ab05 9f3d beb8 a43d
000000e0: 45e1 a83d 224c d13d 9ebe 1994 189b a03d
000000f0: 9ba6 7cbd c02a 5d3d b099 713d 77ae a63d
00000100: fba2 ac3d a2c0 993d d945 0e3b d363 603d
00000110: 4abc 083c 5347 973d 6a94 77bd 246e 78bd
00000120: 480f fa3b eba8 ff3d 97eb 073e
-0.05486962 0.013295807 0.06977274 -0.06290505 -0.055720646 -3.1157698e-21 0.077105105 -0.056125224
0.0738023 0.09089425 0.079653695 0.07975275 0.087380394 -0.06329308 2.8724509e-33 0.07989213
0.08367606 0.09788464 0.08667071 -0.06341797 0.019388203 0.017434418 0.051850896 0.075702675
0.07790309 0.08067003 -0.06372214 0.071424074 0.021558296 0.07859554 0.05609258 -0.059963692
-0.06118852 -0.05923441 0.00974449 -0.060692966 0.07993442 0.010549204 0.0754357 0.1206796
0.007837155 0.07729635 -0.0046373326 -0.061087143 0.13380119 0.057698213 0.016695518 -2.9750444e-23
0.0806668 0.07998545 0.01577354 -0.061086047 0.007988123 -0.0149463285 0.07764753 0.08043049
0.08246092 0.10219599 -7.7621186e-27 0.07842082 -0.061682325 0.053995848 0.05898446 0.08138745
0.084295236 0.07507445 0.0021709113 0.0547827 0.008345673 0.07386651 -0.060444273 -0.060651913
0.007631216 0.124833904 0.13273464

fc3.weight f4 [4, 75]
00000000: f95e 303e c90c 2a3e e21d 65bd 24f3 363e
00000010: a093 333e 2dfa cfb7 8ab4 49bd 3214 333e
00000020: c6c9 04be ef47 2fbe 1e82 55bd b970 08be
00000030: 0b64 0dbe c50a 333e c18d f639 a63a 05be
00000040: dafc 08be a1b8 39be ed1e 10be 0f75 3d3e
00000050: 8428 083e 93ba 173e 1e87 48be 5610 67bd
00000060: 9fda 57bd e0f9 0bbe 2a64 393e 4439 5dbd
00000070: 0bdb 103e 67c6 5fbd a926 4bbe e001 3d3e
00000080: be7c 3a3e 5259 393e 57d0 513e b81e 3a3e
00000090: b730 0cbe 47df 543e f81c 08be e172 9abe
000000a0: 76e9 513e 638e 06be 86e6 ae3d e81c 3f3e
000000b0: 5752 a1be fad2 50be cfa3 203e 0e3d 8d38
000000c0: 6cb0 04be c519 52bd 36e6 173e a4f7 383e
000000d0: 3e96 593e cb51 cd3d 39cc 5bbd 347f 48bd
000000e0: 95fd 08be 71c6 2abe ca2e 8c33 089d 50bd
000000f0: 3225 383e 9363 3ebe ef9b 4abe afdb 0dbe
00000100: 1da1 0bbe 6ace 04be 3544 b13d 59be 48be
00000110: eb84 573e ccd7 03be b96c 393e 2f82 3b3e
00000120: 877d 0f3e 3989 9cbe 71dc a1be 79e2 1fbe
00000130: 8b85 253e 4387 3dbd f4fa 2dbe 34ff 20be
00000140: a4f0 eeb6 3434 4fbd d66e 1cbe 7f48 50be
00000150: b696 903e 0dd1 4bbd 30bd 56be d0c1 62be
00000160: 0353 2abe b80a 5735 de5a 5abe c76e 56be
00000170: 58a1 8e3e 023f 61be 8cc7 2bbe c2d0 073e
00000180: 6887 0b3e 5074 723e 9c37 58bd ae4c 5bbd
00000190: 4db5 56be 6ff4 28be 78c7 6cbd a43a 163e
000001a0: 6ccb 55bd 21ee 6e3e b013 24be 88ec 27be
000001b0: 9332 27be 6e88 593e 9b2d 28be 2051 5abe
000001c0: b5e0 5d3e 1599 52be 9228 1b3e 1f58 5a3e
000001d0: cd23 58be 9b36 8dbe 69af 19be 8499 0a3e
000001e0: 855b 693e be0c 263e 7126 e335 c5a5 58be
000001f0: 0b89 56bd 5408 f93d 9094 29be 2616 5d3e
00000200: 8d60 83be 9b0e 49bd 6217 57bd 4c36 59be
00000210: cbb7 8c3e 2b52 45b0 f454 50bd c6fb 21be
00000220: 9b7f 7d3e cf80 743e 5374 5ebe 2d87 5abe
00000230: 7ba6 4fbe 72c8 90be 0aa7 7e3e d3f7 5b3e
00000240: b494 4ebe 01f6 27be 5ebb 26be 68d1 163e
00000250: 3d73 0f3e e2c6 073e f8f2 91bd bec4 8bbe
00000260: 618e 9dbe ae0c 69bd f7b5 87bd a846 da37
00000270: 611b adbe 0abc 7abd 07cd 313e 2bc6 11be
00000280: db2e b3be a63b 293e 8e63 463e 2451 9dbd
00000290: 1562 7db6 4319 1e3e 64de 3f3e 0c53 15be
000002a0: ae22 4b3e 67cb 8dbd 8db4 90be 78b1 8fbe
000002b0: 54dc 613d 2d30 afbe b5c8 96be da57 313e
000002c0: 08e4 89bd bdd6 9bbe 3b15 8fbe 35e9 b0be
000002d0: 03e2 4a3d 930d 8abd 6b1b 90bd 6e64 7fbd
000002e0: 0b9e 153e 9456 84bd ae59 373e 8fd7 083e
000002f0: f809 2a3e 76c9 d43d c45e 0c3e 1013 233e
00000300: 5f76 e53d b061 93bd 9726 f43d 89b1 333d
00000310: f73a 88be 2cac 84b7 8479 363e 7cc8 b6be
00000320: 595a 96be f6e7 83bd ee64 123e 8f5a d13d
00000330: 4413 b4be c453 b4be 9eec 483e c297 27be
00000340: 28b6 1739 2ae1 adbe 1cfc 8cbd 21b8 1f3d
00000350: 58f8 f63c 3a3d 493e c09c 443e e5de 203e
00000360: 4a68 043e 4e9b 323d 6eb6 0e3e 986c 2f3e
00000370: c428 80bd 136c 8abd 9cde cc3d 1ef8 f03d
00000380: 415f 003e 704b 463d dd3c 05bd 00e8 c53e
00000390: 7529 1b3d 2d35 473d 8d8b 6ab7 1c39 de3e
000003a0: 0e19 fe3c b9f4 103e 4d61 fe3c c128 eb3e
000003b0: 1ab1 1e3e 0c01 413e 7096 633d 1d07 47b8
000003c0: 3cd0 173e 20e0 3a3e a1f1 2b3d 38b2 373e
000003d0: 33f7 403d cd16 fabb 02a5 20bc 5a4b b8bd
000003e0: c28d d03e b291 da3e 9e63 273e 8f2e 483d
000003f0: 1f79 c63e 2543 eabb c039 e23e ca4a afbd
0.17223729 0.1660644 -0.0559367 0.17866188 0.17536783 -2.479282e-05 -0.04924444 0.17488173
-0.12967595 -0.17117284 -0.052126043 -0.1332425 -0.13807695 0.17484577 0.0004702639 -0.13010654
-0.13377705 -0.18136837 -0.14074297 0.18501686 0.13296705 0.14817266 -0.19582793 -0.056412064
-0.052698728 -0.13669538 0.18104616 -0.05400969 0.14146058 -0.05463257 -0.19838966 0.18457747
0.18211648 0.18100479 0.20489632 0.18175781 -0.13690458 0.20788299 -0.132923 -0.3016577
0.20499215 -0.13140254 0.085400626 0.1866337 -0.31508133 -0.20392981 0.15687488 6.734776e-05
-0.12957925 -0.051294107 0.14833912 0.18063217 0.21248719 0.100253664 -0.05366156 -0.048949435
-0.13377984 -0.16677262 6.527769e-08 -0.050931007 0.17982939 -0.18592672 -0.19786046 -0.13853334
-0.13635679 -0.12969366 0.086555876 -0.19603862 0.21046798 -0.12875289 0.1810788 0.1831138
0.14012729 -0.30573443 -0.31613496 -0.15613736 0.16164224 -0.046271574 -0.16990262 -0.15722352
-7.120967e-06 -0.050586894 -0.15276656 -0.20340155 0.28239983 -0.049759913 -0.20970607 -0.22144246
-0.16633229 8.010934e-07 -0.21323726 -0.20940696 0.2785747 -0.21996692 -0.1677534 0.13263229
0.13625872 0.23677182 -0.05278741 -0.053539924 -0.20967598 -0.16499494 -0.057807416 0.14670807
-0.05219595 0.23333026 -0.16023135 -0.16398823 -0.16327886 0.2124345 -0.16423647 -0.21320009
0.2166775 -0.20566209 0.15152195 0.21322678 -0.21107407 -0.27580723 -0.1500832 0.13535124
0.22788818 0.16215798 1.6924006e-06 -0.21156986 -0.052376788 0.121597916 -0.16560578 0.2159048
-0.256596 -0.049086194 -0.052512534 -0.21212119 0.27483973 -7.178495e-10 -0.050862268 -0.158187
0.24755709 0.23877262 -0.21724062 -0.21340628 -0.20278351 -0.28277928 0.24868408 0.21481256
-0.20173913 -0.16402437 -0.16282412 0.1472832 0.14008804 0.13259462 -0.07126421 -0.2729854
-0.3077269 -0.056896858 -0.06626504 2.6020527e-05 -0.3380995 -0.061214484 0.17363368 -0.14235751
-0.34996685 0.1652666 0.19373915 -0.07681492 -3.775703e-06 0.15439324 0.18737179 -0.14582461
0.19837448 -0.069235615 -0.2826275 -0.28065085 0.055141762 -0.34216443 -0.29450002 0.17318669
-0.06732947 -0.3043727 -0.27945885 -0.34552923 0.049531948 -0.0674087 -0.070364796 -0.062351637
0.1461107 -0.06461826 0.17905304 0.13363479 0.16605365 0.10389988 0.13708025 0.1592524
0.11204218 -0.07196367 0.11921423 0.043870483 -0.26607487 -1.58158e-05 0.17819792 -0.35699832
-0.29365805 -0.064407274 0.14296314 0.10222351 -0.35170949 -0.35220158 0.19621512 -0.16366485
0.0001446834 -0.3396085 -0.068840235 0.03899396 0.030147716 0.19652262 0.1920042 0.15710028
0.12930408 0.04360514 0.13936779 0.17131269 -0.062577754 -0.06758895 0.10003397 0.117660746
0.12536336 0.048411787 -0.032528747 0.38653564 0.037881333 0.048634697 -1.3979979e-05 0.43402946
0.031017806 0.14155854 0.031052256 0.4592953 0.15497246 0.18848056 0.05556339 -4.7451922e-05
0.14825529 0.1824956 0.041978482 0.17939079 0.047110748 -0.0076321126 -0.009804966 -0.08998747
0.40733153 0.42689282 0.16346595 0.048872527 0.38764283 -0.0071491175 0.44184685 -0.08559187

fc3.bias f4 [4]
00000000: ead0 b9be 01a5 0a3e e1ad 683e dc21 153d
-0.362922 0.13539506 0.2272258 0.036409244
