MediaPipe_Operation/model_4class/gesture_classifier_with_unclass_data2.pth (torch, 133556 bytes, 6 tensors)

fc1.weight f4 [126, 180]
-0.012872673 -0.012413759 0.0100137135 -0.003584689 -0.0141632175 0.0035258182 -0.013373555 -0.01301162
0.00619416 -0.00331923 -0.014117316 -3.9515726e-05 -0.013153545 -0.012319088 0.0061905 0.002417189
-0.013780231 -0.0015104624 -0.013251261 -0.013046024 0.0053823814 0.005756496 -0.011618234 -0.000918711
-0.012674819 -0.01427176 0.004022863 0.004356673 -0.010246602 6.213264e-05 -0.0123630045 -0.019074798
0.0012219066 -0.0005383142 -0.011539446 -0.0016198796 -0.012098475 -0.019201303 -0.00030458526 0.0028186876
-0.013486754 -0.0028543093 -0.012458338 -0.018990813 -0.00051984016 0.0013120294 -0.014772541 -0.002835681
-0.013591717 -0.01761435 -0.0007363623 0.0044362997 -0.0149680255 -0.004804076 -0.014538987 -0.015535711
-0.0015971246 0.010172544 -0.014837094 -0.0023125617 -0.014973966 -0.0155951185 -0.0017603919 0.011534258
-0.014800257 -0.0009323987 -0.014290373 -0.018534146 -0.001902252 0.0069102757 -0.013831332 -0.0010262247
-0.01283382 -0.018806195 -0.0009898009 0.005362145 -0.011585373 -0.002690277 -0.013688559 -0.019437553
-0.00071716943 0.0033286107 -0.010114905 -0.0034465299 -0.013557668 -0.018129569 -0.00053830806 0.0026708797
-0.009984603 -0.0039177244 -0.01334381 -0.017867664 -0.00031983128 0.0018501711 -0.009533616 -0.0030733615
-0.0134109575 -0.018010985 -0.001002491 0.0010695583 -0.009592965 -0.0027407422 -0.012769723 -0.017043876
-0.0020644397 0.0029802881 -0.011001282 -0.003028667 -0.013360689 -0.016696775 -0.003276854 0.005841404
-0.013694254 -0.0010397212 -0.014152223 -0.014861878 -0.0033568405 0.008609387 -0.014663285 -0.0018099995
-0.01355094 -0.01430125 -0.0025871748 0.009789071 -0.014139822 -0.002105222 -0.013087718 -0.015767684
-0.0032934176 0.005503804 -0.014839593 -0.0058049248 -0.012161533 -0.016430922 -0.0039469693 0.0022192653
-0.014646126 -0.004929465 -0.0105504375 -0.016479991 -0.0018380248 0.0043999855 -0.012375713 -0.006180077
-0.010168054 -0.015994916 -0.00097384484 -0.00064223085 -0.009885132 -0.0038980914 -0.009911757 -0.01118934
0.0007052881 0.0013387176 -0.009989204 -0.0011073597 -0.010478608 -0.01129628 0.002026938 0.0021286746
-0.010883816 -0.002211158 -0.010432972 -0.011052766 0.003851876 0.0023662022 -0.012439834 -0.0009203911
-0.009776035 -0.01194269 0.004897416 -0.0010189922 -0.012532453 -0.0001354565 -0.009605577 -0.0118875615
0.00888293 0.0009779616 -0.013002198 0.0029643944 -0.010618856 -0.018853007 0.019477108 -0.0089183785
0.0039672446 0.018853586 -0.011728905 -0.016028315 0.013234183 -0.009806895 -0.00032327132 0.013104483
-0.012197188 -0.012401233 0.014831303 -0.0022986003 -0.0010423637 0.01084048 -0.013069404 -0.0082491655
0.013350825 0.0031960078 0.0018755266 0.010837317 -0.0118056135 -0.009525973 0.012082274 -0.0022853026
0.0065995934 0.012665932 -0.011674297 -0.010319903 0.008980138 -0.006889738 0.0062109292 0.0077957464
-0.012694012 -0.010747451 0.008214685 -0.003385442 0.0053395703 0.0037780858 -0.014619083 -0.012238842
0.00622012 -0.01045331 0.0026222428 0.0027004099 -0.016525492 -0.009383948 0.006078947 -0.00438045
0.002534473 0.0007358818 -0.019374756 -0.011620704 0.0029134317 0.0025866854 0.0024055038 0.007544127
-0.01861729 -0.0137048615 0.0039343117 0.0066010733 0.0019115136 0.006915687 -0.018293958 -0.014341256
0.0046207597 -0.0019514225 0.004148977 0.010192999 -0.017676694 -0.016253911 0.0034131822 -0.0038072586
00000000: e7e7 52bc 1463 4bbc 8f10 243c 1aed 6abb
00000010: d70c 68bc 6a11 673b c11c 5bbc b12e 55bc
00000020: 61f8 ca3b 7087 59bb 514c 67bc b0bd 25b8
00000030: f781 57bc 00d6 49bc aed9 ca3b b469 1e3b
00000040: 7ac6 61bc b5fa c5ba d11b 59bc febe 55bc
00000050: b05e b03b fda0 bc3b 685a 3ebc a7d5 70ba
00000060: 0baa 4fbc 1ad4 69bc 39d2 833b 6cc2 8e3b
00000070: 5de1 27bc 354d 8238 338e 4abc c042 9cbc
00000080: 6228 a03a a81d 0dba f20f 3dbc 2452 d4ba
00000090: af38 46bc 0d4c 9dbc beb0 9fb9 bbb9 383b
000000a0: 8cf7 5cbc 5d0f 3bbb 0f1e 4cbc 9f92 9bbc
000000b0: e245 08ba 67f8 ab3a 8708 72bc d5d6 39bb
000000c0: cbaf 5ebc f84b 90bc 7008 41ba 615e 913b
000000d0: 733c 75bc 836b 9dbb ee34 6ebc 7f89 7ebc
000000e0: 9c56 d1ba beaa 263c 4817 73bc 598e 17bb
000000f0: 5e55 75bc ab82 7fbc f3bc e6ba 2ffa 3c3c
00000100: c77c 72bc 386c 74ba 2b22 6abc ecd4 97bc
00000110: fc54 f9ba 986f e23b d09c 62bc 6382 86ba
00000120: f144 52bc 730f 9abc 35bc 81ba efb4 af3b
00000130: 94d0 3dbc 5c4f 30bb fa45 60bc 813b 9fbc
00000140: 6d00 3cba d224 5a3b fdb8 25bc 2ddf 61bb
00000150: fb20 5ebc 7684 94bc 3e1d 0dba ed09 2f3b
00000160: 7696 23bc 4160 80bb ff9f 5abc 355f 92bc
00000170: 07af a7b9 7181 f23a e232 1cbc 736a 49bb
00000180: a2b9 5bbc c68b 93bc 0466 83ba 6c30 8c3a
00000190: d02b 1dbc 069e 33bb 1a38 51bc 999f 8bbc
000001a0: 8d4b 07bb f050 433b b93e 34bc 9a7c 46bb
000001b0: cbe6 5abc adc7 88bc 7dc0 56bb 4069 bf3b
000001c0: dd5d 60bc 4147 88ba bade 67bc 3c7f 73bc
000001d0: 70fe 5bbb 630e 0d3c 463e 70bc 813d edba
000001e0: c304 5ebc ca4f 6abc 978d 29bb 5762 203c
000001f0: b6aa 67bc c4f7 09bb de6d 56bc 3b2b 81bc
00000200: 61d6 57bb 4159 b43b c421 73bc 3d37 bebb
00000210: 2b41 47bc 249a 86bc 9455 81bb 1871 113b
00000220: 4ef6 6fbc 5987 a1bb bedb 2cbc 0c01 87bc
00000230: e1e9 f0ba c12d 903b 81c3 4abc 3e82 cabb
00000240: e997 26bc c507 83bc 9f49 7fba 625b 28ba
00000250: 40f5 21bc 1f77 7fbb ec64 22bc 7e53 37bc
00000260: 15e3 383a e977 af3a c2a9 23bc d324 91ba
00000270: 78ae 2bbc 0814 39bc 60d6 043b 3c81 0b3b
00000280: 0852 32bc 13e9 10bb 0eef 2abc a916 35bc
00000290: c16f 7c3b 4912 1b3b 72d0 4bbc 6746 71ba
000002a0: aa2b 20bc 46ab 43bc 817a a03b b48f 85ba
000002b0: eb54 4dbc 5409 0eb9 b660 1dbc 0cc4 42bc
000002c0: b589 113c f22e 803a 2c07 55bc 4946 423b
000002d0: b6fa 2dbc 9f71 9abc 758e 9f3c 641e 12bc
000002e0: a9ff 813b d672 9a3c 982a 40bc d04d 83bc
000002f0: 30d4 583c 19ad 20bc be7c a9b9 2fb4 563c
00000300: b7d6 47bc 8b2e 4bbc fefe 723c 1da4 16bb
00000310: ec9f 88ba 459c 313c 0e21 56bc 8227 07bc
00000320: 6bbd 5a3c 1d74 513b 3bd4 f53a 018f 313c
00000330: 556c 41bc d412 1cbc bbf4 453c 04c5 15bb
00000340: 6741 d83b c584 4f3c 8d45 3fbc cf14 29bc
00000350: 6e21 133c 50c3 e1bb 0d85 cb3b 7673 ff3b
00000360: 8cfa 4fbc 1416 30bc e396 063c 4bde 5dbb
00000370: 90f7 ae3b c399 773b e184 6fbc 6d85 48bc
00000380: 26d2 cb3b 5c44 2bbc efd9 2b3b 5cf9 303b
00000390: 7860 87bc 21bf 19bc e731 c73b e189 8fbb
000003a0: 6719 263b 31e8 403a cfb7 9ebc c464 3ebc
000003b0: 46ef 3e3b 6185 293b a8a5 1d3b b934 f73b
000003c0: 4983 98bc 5b8a 60bc 66eb 803b d14d d83b
000003d0: c18b fa3a fd9c e23b 36dd 95bc 96f7 6abc
000003e0: be69 973b e0c6 ffba 24f4 873b 8900 273c
000003f0: b7ce 90bc ec26 85bc b2af 5f3b 3383 79bb

fc1.bias f4 [126]
0.0024846236 -0.053812966 0.075093 0.0027155955 -0.0006509531 0.020543106 -0.00190416 0.01520356
0.12038458 0.03400185 -0.08180982 -0.00016885162 0.080610394 -0.014810904 0.012185492 0.0030602452
0.000697401 0.031733733 -0.0011923878 0.0025892367 -0.0009411505 -0.020297304 -0.024033885 0.063135356
0.0013059627 0.018336348 0.101363555 -0.009747047 -0.01373214 0.018547991 0.00021798752 0.0429432
-0.10408153 -0.14534874 -0.008926849 0.09597732 0.0002795875 0.0029943846 -0.010435308 0.013840304
-0.07825686 0.03689457 0.004066474 0.008721222 0.017278163 0.11586061 -0.019514583 0.08253878
0.0019943623 -0.07532641 -0.03243726 0.0034047493 0.032549582 0.00088753336 0.0018103352 -0.0059590624
-0.012442463 -0.013019598 0.00023343734 -0.0652913 0.04475826 -0.03037995 -0.022453113 0.029436462
-0.08928326 0.051844724 0.03557558 0.018163305 -0.016827626 -0.0018443352 -0.0031244538 -0.06263475
0.045088783 -0.07101291 0.08300507 -0.016498636 -0.0165103 0.058667462 0.007174712 -0.0014539494
0.024661992 -0.0056971763 0.006017178 0.011314543 0.038456764 0.03756391 -0.020081148 0.121349484
-0.010844121 0.067214675 -0.012522775 0.04613378 -0.011884182 -0.08265492 -0.038693205 -0.08255888
-0.0031596737 0.0031184438 -0.091495715 0.011219005 0.038223308 0.02840973 0.020822853 0.017260637
-0.008937602 0.05345821 0.008591069 -0.022411786 0.0055852644 0.045054328 -0.056832675 -0.050926287
-0.0014934669 0.033569127 0.0016044306 -0.02409807 0.013471437 -0.009258605 0.063213676 -0.015172923
-0.092085965 0.01680141 -0.1785571 0.013572639 -0.0013152583 -0.0099827675
00000000: 11d5 223b fc6a 5cbd 5cca 993d 22f8 313b
00000010: b9a4 2aba 044a a83c 0295 f9ba 5a18 793c
00000020: 318c f63d 8645 0b3d e88b a7bd c30d 31b9
00000030: 1017 a53d 6fa9 72bc a8a5 473c 658e 483b
00000040: cad1 363a 3bfb 013d e549 9cba 2fb0 293b
00000050: 8ab7 76ba 8846 a6bc b6e2 c4bc 1c4d 813d
00000060: d62c ab3a 1c36 963c b297 cf3d 14b2 1fbc
00000070: c5fc 60bc f5f1 973c 9493 6439 35e5 2f3d
00000080: b228 d5bd 4dd6 14be eb41 12bc c28f c43d
00000090: 9995 9239 703d 443b dbf8 2abc 71c2 623c
000000a0: 2245 a0bd c31e 173d 0e40 853b 75e3 0e3c
000000b0: ef8a 8d3c 5448 ed3d 0cdd 9fbc 180a a93d
000000c0: d9b3 023b bc44 9abd efdc 04bd 3722 5f3b
000000d0: b652 053d 5ba9 683a c548 ed3a 3d44 c3bb
000000e0: 79db 4bbc 2750 55bc dcc6 7439 72b7 85bd
000000f0: 7054 373d 5fdf f8bc 97ef b7bc bc24 f13c
00000100: 24da b6bd 225b 543d b3b7 113d 36cb 943c
00000110: 17da 89bc 9fbd f1ba a3c3 4cbb a646 80bd
00000120: 04af 383d 376f 91bd 90fe a93d 2628 87bc
00000130: 9c40 87bc 4b4d 703d d919 eb3b 7292 beba
00000140: f207 ca3c 61af babb bf2b c53b a260 393c
00000150: d784 1d3d 9ddc 193d 3881 a4bc 1486 f83d
00000160: 8aab 31bc d9a7 893d 532c 4dbc c6f6 3c3d
00000170: dfb5 42bc fc46 a9bd c47c 1ebd a114 a9bd
00000180: 8712 4fbb ce5e 4c3b 1b62 bbbd ebcf 373c
00000190: 0b90 1c3d 86bb e83c b094 aa3c 2e66 8d3c
000001a0: 056f 12bc fff6 5a3d 8ec1 0c3c ec98 b7bc
000001b0: 9804 b73b e38a 383d 61c9 68bd 1598 50bd
000001c0: 6fc0 c3ba c87f 093d c24b d23a 5169 c5bc
000001d0: 4db7 5c3c 67b1 17bc 2c76 813d da97 78bc
000001e0: 9197 bcbd 1ca3 893c acd7 36be c65f 5e3c
000001f0: bf64 acba c38e 23bc

fc2.weight f4 [75, 126]
-0.008215672 -0.0231855 0.027132152 -0.012977398 -0.00089369994 0.051549755 0.00902192 -0.016001808
0.04957783 -0.014623282 -0.050446887 -0.00061481056 0.043948084 0.019357955 0.00022683451 -0.00059962494
-0.000204247 -0.003427869 -0.026321499 -0.00393933 -0.0036697935 0.02152975 -0.012460748 0.049209256
-0.019328482 0.01258417 0.025453921 -0.0043358766 0.026392985 0.0071413196 -0.0020236867 0.015116354
-0.05826187 -0.06416749 -0.017085541 0.0030572582 -0.0027905887 -0.005798879 0.0037170614 0.0010943823
-0.04967437 0.04618575 -0.0013139588 -0.009194472 0.03356369 0.028930385 0.023400366 0.02635035
-0.00045486697 -0.030150387 -0.0155061055 0.021424804 -0.0033031397 -0.00038805106 -0.005892805 -0.003347295
-0.002840848 -0.018130334 -0.011389336 -0.046208054 -0.0058248257 -0.025314229 0.0553877 -0.0038446982
-0.05707726 0.026789488 0.010238786 -0.005544012 -0.03649424 -0.0026296338 -0.0029314694 -0.017866828
-0.012660573 -0.03205227 0.017824115 -0.0389534 -0.012899884 0.029713595 -0.0052867425 -0.0007455652
0.012674292 -0.0035475271 -0.0005243651 -0.0049344334 -0.012167951 -0.015308776 -0.0128239775 0.07571758
-0.012610334 0.032824658 0.021740604 -0.014967554 0.007709566 -0.03261866 -0.014304492 -0.04264575
-0.02886565 0.00010768125 -0.039902084 -0.001601544 -0.015666844 0.015146748 -0.012899728 0.0054679015
-0.029752374 -0.003534826 -0.0070012873 -0.027441248 -0.010431277 0.012566279 -0.024117671 -0.033461995
-0.006625132 0.023539232 -0.0009457142 -0.017901426 0.010768141 0.015152012 0.031855978 -0.036815573
-0.038292505 -0.007460054 -0.06410509 0.022167213 0.02030956 -0.016797723 -0.0025852101 -0.008268214
0.04879681 -0.00079279515 0.00030845037 0.012875837 0.00682864 -0.002038762 0.09424979 0.025168017
-0.04859211 -0.00027409248 0.10689348 0.010171084 0.0101561155 0.002325089 0.00021848784 0.015685463
-0.045786686 0.007879877 -0.0010863775 -0.0013978942 -0.009457141 0.09860147 -0.0054973112 0.044593245
0.0350133 -0.0105356155 0.048381787 0.018107785 -0.0015579776 0.04184094 -0.059544954 -0.077333175
-0.005373993 0.003536507 -0.0015570655 -0.00012468976 0.029567204 0.008356881 -0.057211805 0.055976752
0.0002976476 0.0021696752 0.010873273 0.04094623 -0.012771309 0.061045945 0.0011998976 -0.030330885
-0.011078763 0.0041934736 0.024742771 0.00029202242 -0.0027905663 -0.0040910454 -0.011361939 -0.007711238
-0.00067474897 -0.042754117 0.03543181 -0.024762506 0.0095077595 0.0145938145 -0.05895685 0.05980493
0.023897177 0.00989409 -0.026867146 -0.0010934396 -0.0004492389 -0.016296687 0.01418531 -0.011832265
0.03358953 -0.0312646 -0.013412368 0.059430033 0.003833007 -0.0007657695 0.023480954 -0.0011650621
0.0031862904 0.0026433973 0.0105451755 0.027212573 -0.009321636 0.107209235 -0.0064976127 0.046618257
-0.001308637 0.014104779 -0.010714759 -0.023201348 -0.016414335 -0.04750117 -0.01706901 0.0014867615
-0.03835104 0.011133464 0.007791706 0.02862046 -0.01804622 0.009932216 -0.018504828 0.036550913
0.00092832703 -0.018879907 -0.0048813387 0.02597989 -0.014535956 -0.02830758 -0.002771413 0.040917
0.0012825703 -0.008096622 0.02819159 0.002555789 0.07682352 -0.024026792 -0.027436584 -9.399888e-05
-0.07092631 0.007461326 0.016427731 -0.0060028327 0.018949127 0.01698384 -0.008107223 0.009839619
00000000: 079b 06bc 85ef bdbc 3f44 de3c 279f 54bc
00000010: 3047 6aba d625 533d add0 133c 3916 83bc
00000020: 1f12 4b3d 7d96 6fbc 65a1 4ebd 3d2b 21ba
00000030: e802 343d 9394 9e3c 6dda 6d39 2630 1dba
00000040: 232b 56b9 19a6 60bb 2fa0 d7bc 7f15 81bb
00000050: eb80 70bb 295f b03c 2a28 4cbc a58f 493d
00000060: c456 9ebc d62d 4e3c be84 d03c f813 8ebb
00000070: 1a36 d83c bb01 ea3b d49f 04bb 96aa 773c
00000080: 00a4 6ebd 3f6a 83bd faf6 8bbc 485c 483b
00000090: 4fe2 36bb 8604 bebb f199 733b 6071 8f3a
000000a0: 5a77 4bbd 452d 3d3d 2439 acba 69a4 16bc
000000b0: 147a 093d 6aff ec3c 20b2 bf3c b0dc d73c
000000c0: 367b eeb9 f2fd f6bc 520d 7ebc 1283 af3c
000000d0: 7d79 58bb 5573 cbb9 6e18 c1bb 4b5e 5bbb
000000e0: 852d 3abb 1186 94bc 569a 3abc a844 3dbd
000000f0: 2ede bebb c95f cfbc 37de 623d 55f7 7bbb
00000100: d8c9 69bd a175 db3c 95c0 273c 8baa b5bb
00000110: fc7a 15bd ef55 2cbb e51d 40bb 745d 92bc
00000120: 4b6e 4fbc 3e49 03bd e103 923c 9a8d 1fbd
00000130: 095a 53bc ed69 f33c 693c adbb 0972 43ba
00000140: d5a7 4f3c a17d 68bb 8c75 09ba 07b1 a1bb
00000150: 165c 47bc a9d1 7abc a91b 52bc d211 9b3d
00000160: 939b 4ebc 2673 063d 5a19 b23c 793a 75bc
00000170: 87a0 fc3b 259b 05bd 635d 6abc 4fad 2ebd
00000180: a877 ecbc eed2 e138 5e70 23bd e6ea d1ba
00000190: c157 80bc 112a 783c 6159 53bc 152c b33b
000001a0: 40bb f3bc 8aa8 67bb 0e6b e5bb 78cc e0bc
000001b0: f2e7 2abc cbe2 4d3c 6c92 c5bc 720f 09bd
000001c0: a317 d9bb 59d5 c03c cee9 77ba 03a6 92bc
000001d0: db6c 303c 2540 783c 6a7b 023d edcb 16bd
000001e0: 9ad8 1cbd 7873 f4bb 8849 83bd 0498 b53c
000001f0: 3c60 a63c 619b 89bc a16c 29bb 6777 07bc
00000200: 2adf 473d 95d3 4fba 82b7 a139 2df5 523c
00000210: c9c2 df3b c09c 05bb 0906 c13d 282d ce3c
00000220: 8508 47bd 12b4 8fb9 f8ea da3d 9ea4 263c
00000230: d665 263c 8560 183b e219 6539 cd7e 803c
00000240: d28a 3bbd 9a1a 013c c864 8eba 8c39 b7ba
00000250: 20f2 1abc 91ef c93d ca22 b4bb 68a7 363d
00000260: 1b6a 0f3d 939d 2cbc fb2b 463d c756 943c
00000270: 0e35 ccba 6861 2b3d 69e5 73bd db60 9ebd
00000280: 5218 b0bb bec4 673b 7316 ccba 27bf 02b9
00000290: ec36 f23c 4deb 083c ed56 6abd e147 653d
000002a0: 960d 9c39 1c31 0e3b d025 323c 3cb7 273d
000002b0: c13e 51bc 500b 7a3d e245 9d3a 7a78 f8bc
000002c0: b383 35bc 6869 893b 5ab1 ca3c 961a 9939
000002d0: efe1 36bb 2d0e 86bb 6d27 3abc 8eae fcbb
000002e0: a3e1 30ba f11e 2fbd f220 113d bdda cabc
000002f0: 6fc6 1b3c e51a 6f3c bd7c 71bd 04f6 743d
00000300: 03c4 c33c d21a 223c 7d18 dcbc bf51 8fba
00000310: d387 ebb9 a180 85bc 8169 683c 1edc 41bc
00000320: 2d95 093d 4f0f 00bd 8cbf 5bbc e86c 733d
00000330: 3033 7b3b ecbd 48ba 215b c03c ffb4 98ba
00000340: 15d1 503b d93c 2d3b acc5 2c3c e7ec de3c
00000350: c6b9 18bc 8490 db3d ede9 d4bb c9f2 3e3d
00000360: 9286 abba bb17 673c f58c 2fbc c110 bebc
00000370: 5b77 86bc 9690 42bd 4fd4 8bbc 70df c23a
00000380: fb15 1dbd 2269 363c 9151 ff3b 7475 ea3c
00000390: abd5 93bc bcba 223c 7097 97bc 69b6 153d
000003a0: f95a 733a 09aa 9abc a3f3 9fbb c7d3 d43c
000003b0: 3828 6ebc 4ce5 e7bc 98a0 35bb 9698 273d
000003c0: eb1b a83a b2a7 04bc 0df2 e63c 067f 273b
000003d0: a655 9d3d d6d3 c4bc b0c2 e0bc 4421 c5b8
000003e0: d041 91bd 247e f43b 7393 863c 69b3 c4bb
000003f0: 333b 9b3c b221 8b3c 28d4 04bc 5a36 213c

fc2.bias f4 [75]
0.05963308 0.14949036 -0.023120347 -0.00193873 0.00042328273 0.126251 0.07795715 0.07612358
0.08329644 0.110964194 -0.0044691614 0.081656836 0.0005421648 0.15228204 0.008224471 -0.002917574
-0.07398919 -0.019476715 0.08380237 0.1496961 0.08600037 0.108174846 0.0072451737 -0.051567562
-0.07217186 -0.027108075 0.08285956 0.008410556 0.05813881 -0.06883369 0.08393559 0.10327394
0.01753567 -0.07466661 0.0814533 0.0856337 -0.016496118 0.08555283 0.07917058 -0.07617134
0.11086184 0.080355234 0.12121228 -0.07083151 0.02308818 -0.07579391 0.10204413 0.12740251
0.0180386 0.023175161 -0.07385025 0.031518433 -0.071005896 0.09071399 -0.07429445 -0.0732889
0.07732502 -0.0030174414 0.10586435 0.11373501 -0.069123626 -0.0011024792 0.08366404 -0.07950733
0.03905604 0.012192346 0.14864989 0.0008848664 0.08329442 -0.07074989 0.15984507 0.12019042
-2.603244e-24 0.039641105 0.083859384
00000000: d141 743d 0014 193e e266 bdbc fc1c feba
00000010: 0cec dd39 f147 013e 00a8 9f3d aee6 9b3d
00000020: 5397 aa3d 3241 e33d 0b72 92bb b33b a73d
00000030: 1020 0e3a d3ef 1b3e eebf 063c c534 3fbb
00000040: a587 97bd a28d 9fbc 94a0 ab3d ef49 193e
00000050: f620 b03d c68a dd3d ec68 ed3b 8238 53bd
00000060: d7ce 93bd c111 debc 46b2 a93d 6ecc 093c
00000070: f622 6e3d adf8 8cbd 6ce6 ab3d 4a81 d33d
00000080: f7a6 8f3c cfea 98bd fdd0 a63d b960 af3d
00000090: de22 87bc 5236 af3d 2f24 a23d b8ff 9bbd
000000a0: 880b e33d 4991 a43d 253e f83d 1c10 91bd
000000b0: 6c23 bd3c d639 9bbd 83fc d03d ce75 023e
000000c0: b0c5 933c d6d9 bd3c cd3e 97bd 7919 013d
000000d0: 8a6b 91bd 42c8 b93d b027 98bd 7e18 96bd
000000e0: 955c 9e3d 44c0 45bb 69cf d83d e7ed e83d
000000f0: b090 8dbd 1081 90ba 0d58 ab3d bdd4 a2bd
00000100: 3af9 1f3d 68c2 473c ad37 183e 61f6 673a
00000110: 4496 aa3d 51e5 90bd 6dae 233e 6526 f63d
00000120: 8f6a 4998 b65e 223d 78be ab3d

fc3.weight f4 [4, 75]
-0.1950628 -0.33151487 0.12748922 0.20221573 0.20125283 -0.17015673 -0.10484764 -0.10157932
-0.10608577 -0.059741296 0.20861654 -0.09773063 0.2045543 -0.32259315 0.13669962 0.20439354
0.19258448 0.12160574 -0.10943696 -0.32642475 -0.1095688 -0.051823836 0.14439175 0.156369
0.19005683 0.0884791 -0.10892046 0.14879419 -0.18953998 0.18036759 -0.10994085 -0.054328192
-0.059219617 0.19496132 -0.10548272 -0.10949952 0.11331009 -0.108826466 -0.107009575 0.1975391
-0.053917363 -0.10185946 -0.2887385 0.19251339 0.12460718 0.2046251 -0.25180963 -0.30381688
0.012991109 0.1149039 0.19055423 0.11380947 0.18664514 -0.22834563 0.19376302 0.19425406
-0.101411074 0.2044178 -0.053097222 -0.054386277 0.1918444 0.20755234 -0.10786579 0.20027454
0.10832469 0.118981965 -0.322003 -0.0017398732 -0.11066669 0.1877704 -0.32923874 -0.17482807
2.300402e-05 0.09948226 -0.10717777 0.1858001 0.10245461 -0.233037 0.19801778 0.19944857
0.23513703 -0.22232823 -0.22959292 -0.23234113 -0.05697257 0.20405269 -0.23191491 0.20834413
0.11771748 0.13576932 0.20515288 -0.17111115 -0.24281591 -0.23050413 0.11527263 -0.23201747
-0.058148995 0.13501443 -0.13862434 -0.17097549 -0.086479075 -0.22704205 0.1224108 0.14134529
-0.16352856 -0.22762154 -0.055769242 0.06703369 -0.17102692 -0.22768308 -0.23416065 -0.24725361
-0.22975685 -0.22568181 -0.17893404 -0.054846615 -0.2302113 0.15466234 -0.16792993 0.110445715
-0.17963557 0.1787812 0.11350897 0.04726663 0.10702479 -0.18035169 0.11274627 -0.17091446
0.19152969 -0.17305474 -0.17613323 -0.22960375 0.20768301 -0.055310264 -0.05459289 -0.16532128
0.20426838 -0.23060037 -0.17350103 0.08107664 0.11221531 0.12062352 -0.00047522836 -0.2335989
-0.16524306 0.11288641 0.24398907 -5.9265837e-08 0.0938865 -0.22911368 0.047058254 0.11490228
0.08918461 0.16287279 0.15819414 -0.17301376 0.14316012 0.14205933 0.15253265 -0.3626716
0.16924371 0.14721215 0.16352437 0.1126303 -0.25618285 0.1607807 -0.08623499 0.09287724
0.16153342 0.11039133 0.16538675 -0.36444622 -0.24455883 -0.07253232 -0.08016673 -0.05888041
0.16050799 -0.2784985 0.061399672 -0.08320075 0.15803975 -0.358051 0.108427584 -0.075398885
0.15081728 0.1655438 0.10086562 0.17139475 0.15231004 -0.082275525 -0.35442382 0.15154128
0.066606075 -0.07899236 -0.29949784 -0.074451044 0.03931232 0.09871928 -0.107683085 -0.303314
-0.08454572 -0.31192222 -0.08685858 0.027655426 -0.082158126 -0.076882854 0.14416756 0.16067722
-0.35349378 -0.36476004 -0.08125091 0.16134652 0.15566146 -0.07842871 -0.32099754 -0.26832634
0.11302388 0.0036781454 0.16185582 -0.08018009 0.11301955 -0.16378352 -6.6308054e-08 -0.3219329
0.15565926 -0.036258556 0.0880241 0.012330437 -0.6503395 -0.6443353 0.099092156 0.15093434
0.1501075 0.1699109 0.46256477 -0.6406375 0.16752858 -0.64279807 0.09108305 -0.026997693
-0.6488903 0.06249745 0.019941851 0.16521893 0.09234538 0.17943272 0.47067288 -0.03573567
0.035709627 0.05914001 0.027053697 0.17357017 0.0015193493 -0.025742162 0.06433629 0.17013964
00000000: 8bbe 47be 51bc a9be 898c 023e a411 4f3e
00000010: 3915 4e3e 913d 2ebe 5cba d6bd d208 d0bd
00000020: 7f43 d9bd 4ab3 74bd 939f 553e ff26 c8bd
00000030: af76 513e ee2a a5be fcfa 0b3e 8a4c 513e
00000040: de34 453e 6e0c f93d 7c20 e0bd 2521 a7be
00000050: 9b65 e0bd 3b45 54bd 6edb 133e 321f 203e
00000060: 429e 423e 8834 b53d b111 dfbd 815d 183e
00000070: c516 42be 48b2 383e ab28 e1bd 3d87 5ebd
00000080: 4590 72bd f1a3 473e 5307 d8bd 4941 e0bd
00000090: 1f0f e83d 69e0 debd d627 dbbd b147 4a3e
000000a0: 74d8 5cbd b19b d0bd 88d5 93be 3b22 453e
000000b0: 0d32 ff3d 3e89 513e 31ed 80be e38d 9bbe
000000c0: a9d8 543c bc52 eb3d a620 433e f014 e93d
000000d0: e71f 3f3e 70d3 69be d069 463e 89ea 463e
000000e0: 9cb0 cfbd e652 513e 797c 59bd 25c4 5ebd
000000f0: dc72 443e 9a88 543e bde8 dcbd c514 4d3e
00000100: 56d9 dd3d d1ac f33d 94dd a4be 750c e4ba
00000110: 38a5 e2bd e246 403e fb91 a8be 2106 33be
00000120: c2f8 c037 5bbd cb3d 0580 dbbd 6242 3e3e
00000130: b9d3 d13d 40a1 6ebe 2cc5 4a3e 3f3c 4c3e
00000140: c3c7 703e 03aa 63be 681a 6bbe d5ea 6dbe
00000150: 125c 69bd 30f3 503e 1a7b 6dbe 2a58 553e
00000160: dd15 f13d 1d07 0b3e 9913 523e c337 2fbe
00000170: bca4 78be 4609 6cbe 0e14 ec3d fd95 6dbe
00000180: a42d 6ebd 3941 0a3e 8af3 0dbe 3314 2fbe
00000190: f11b b1bd b67d 68be 83b2 fa3d d2bc 103e
000001a0: 0874 27be 9f15 69be 4a6e 64bd f648 893d
000001b0: ae21 2fbe c125 69be cfc7 6fbe 0d30 7dbe
000001c0: 6145 6bbe 2219 67be 7c3a 37be d8a6 60bd
000001d0: 83bc 6bbe ce5f 1e3e d3f5 2bbe 5d31 e23d
000001e0: 63f2 37be 6b12 373e 6477 e83d a79a 413d
000001f0: d02f db3d 1dae 38be 84e7 e63d 3304 2fbe
00000200: 5c20 443e 4335 31be 455c 34be 3f1d 6bbe
00000210: dbaa 543e 048d 62bd cb9c 5fbd fb49 29be
00000220: bb2b 513e 8122 6cbe 41aa 31be 820b a63d
00000230: 24d1 e53d 7709 f73d 1228 f9b9 8d34 6fbe
00000240: 7a35 29be fd30 e73d 45d8 793e 7a8b 7eb3
00000250: 9147 c03d c79c 6abe 28c0 403d e351 eb3d
00000260: 6ca6 b63d 20c8 263e a5fd 213e 852a 31be
00000270: 9198 123e 0078 113e 8531 1c3e 18b0 b9be
00000280: 394e 2d3e c8be 163e ef72 273e b7aa e63d
00000290: 662a 83be b2a3 243e f89b b0bd 6c36 be3d
000002a0: 0469 253e da14 e23d 255b 293e b298 babe
000002b0: a16d 7abe d38b 94bd 742e a4bd 962c 71bd
000002c0: 355c 243e 5b97 8ebe 397e 7b3d 2865 aabd
000002d0: 2cd5 213e 7652 b7be 480f de3d bb6a 9abd
000002e0: d86f 1a3e 5084 293e a292 ce3d 1b82 2f3e
000002f0: 2af7 1b3e 1280 a8bd 0a77 b5be a32d 1b3e
00000300: c468 883d bfc6 a1bd c857 99be ca79 98bd
00000310: f505 213d 552d ca3d f388 dcbd f94b 9bbe
00000320: 4e26 adbd 45b4 9fbe e9e2 b1bd a28d e23c
00000330: 8542 a8bd c274 9dbd a9a0 133e 9288 243e
00000340: 23fd b4be d4c1 babe e166 a6bd 0638 253e
00000350: b865 1f3e 3b9f a0bd ca59 a4be 1262 89be
00000360: 1079 e73d 0a0d 713b 88bd 253e 7635 a4bd
00000370: cb76 e73d deb6 27be 3d65 8eb3 64d4 a4be
00000380: 2465 1f3e da83 14bd fb45 b43d 9a05 4a3c
00000390: a67c 26bf 29f3 24bf d4f0 ca3d 888e 1a3e
000003a0: c8b5 193e 1ffd 2d3e 4ad5 ec3e d200 24bf
000003b0: 9d8c 2b3e 6a8e 24bf c089 ba3d 442a ddbc
000003c0: ad1d 26bf 53fd 7f3d 185d a33c 272f 293e
000003d0: 931f bd3d 36bd 373e 09fc f03e 915f 12bd
000003e0: 4244 123d cc3c 723d b79f dd3c 61bc 313e
000003f0: e724 c73a 3ae1 d2bc bfc2 833d 1639 2e3e

fc3.bias f4 [4]
-0.41993892 0.14001404 0.116741695 0.18139437
00000000: 3c02 d7be d75f 0f3e 4516 ef3d 72bf 393e
