MediaPipe_Operation/model_4class/gesture_classifier.pth (torch, 26472 bytes, 4 tensors)

fc1.weight f4 [64, 90]
0	0x3d7f34bc	0.06230615
1	0x3e0bc73e	0.13650224
2	0xbd1f2d62	-0.03886164
3	0x3d1b3968	0.037896544
4	0x3c90487b	0.017612686
5	0xbd11f166	-0.035630606
6	0x3d51b13e	0.051194422
7	0x3e021bda	0.12705937
8	0xbd0f047c	-0.034916386
9	0x3cf95462	0.030435745
10	0x3c62702e	0.013820691
11	0xbd08ad87	-0.033368614
12	0x3d558c68	0.052135855
13	0x3de15a6a	0.11003573
14	0xbcb4e328	-0.022080973
15	0x3ca5ab5e	0.020223316
16	0x3ced41f9	0.028962122
17	0xbd10d7d3	-0.035362076
18	0x3d2c4f01	0.04206753
19	0x3daecdcb	0.08535346
20	0xbcbd3a3b	-0.023099056
21	0x3c8e9001	0.01740265
22	0x3c9dcfbf	0.0192641
23	0xbd0e9c73	-0.03481717
24	0x3d112443	0.035434972
25	0x3d8ca549	0.06867463
26	0xbc92d453	-0.01792351
27	0x3c73cc20	0.01488021
28	0x3ccd269d	0.025042826
29	0xbd1eebdf	-0.038799163
30	0x3ce7821f	0.028260289
31	0x3d84b775	0.06480304
32	0xbc84595a	-0.016155887
33	0x3c9121a4	0.017716236
34	0x3ccbf40a	0.02489664
35	0xbd0471f6	-0.032335244
36	0x3ca2e01c	0.019882254
37	0x3d4dd34a	0.05025033
38	0xbc49ca85	-0.012316351
39	0x3cd4341c	0.025903754
40	0x3c4fb07f	0.012676357
41	0xbd0289ae	-0.031869583
42	0x3c9bcb92	0.019017968
43	0x3d31de1e	0.043424718
44	0x3a05faec	0.00051109376
45	0x3cc38907	0.02386905
46	0x3bcd2ab4	0.006261194
47	0xbd1d6d7c	-0.03843449
48	0x3c94511f	0.018105088
49	0x3d1d68c0	0.038429976
50	0x3b2ec21b	0.002666599
51	0x3ca42fa6	0.020042252
52	0x3c4b02e1	0.012390823
53	0xbd182db3	-0.037152957
54	0x3ccbc9b7	0.024876459
55	0x3d550a51	0.05201179
56	0xbc17ed72	-0.00927292
57	0x3ca9f2de	0.02074569
58	0x3c959a6c	0.01826211
59	0xbd0b8226	-0.034059666
60	0x3ce70d62	0.028204624
61	0x3d0f28b0	0.034950912
62	0xbd1082b4	-0.0352809
63	0x3c922d6f	0.01784393
64	0x3c36fb22	0.011168273
65	0xbd0d212d	-0.034455467
66	0x3cf45422	0.029825274
67	0x3d3e5be7	0.046474364
68	0xbd26593b	-0.04061244
69	0x3ca5037b	0.020143261
70	0x3bba6b0b	0.00568903
71	0xbcfbae19	-0.030722665
72	0x3d37a8c8	0.044838697
73	0x3d7c8b02	0.061656006
74	0xbcdbb942	-0.026821736
75	0x3cd59316	0.026071113
76	0x3cdfa32a	0.027299482
77	0xbd03be80	-0.032164097
78	0x3d1d89dd	0.038461555
79	0x3da47a5f	0.08031153
80	0xbd242107	-0.04007056
81	0x3d29979b	0.041404348
82	0x3c4bc6c7	0.012437529
83	0xbcfbdf8e	-0.030746248
84	0x3d42ea62	0.047586806
85	0x3db45151	0.088045724
86	0xbd2fcc53	-0.042919468
87	0x3d4ee406	0.05051043
88	0x3c0ebd5c	0.008712139
89	0xbd0f3171	-0.03495926
90	0x3c49a71f	0.012307911
91	0xbd120ac5	-0.035654802
92	0x3a63e8e7	0.0008694068
93	0xbc9e4688	-0.019320741
94	0x3d17dbda	0.0370749
95	0x3d634934	0.055489734
96	0x3b2fa9ed	0.0026804165
97	0xbd1238e0	-0.03569877
98	0xbc8f2c87	-0.017477287
99	0xbcfee7ec	-0.031116448
100	0x3d09e025	0.033661027
101	0x3d451dff	0.04812431
102	0xbc60bba4	-0.013716612
103	0xbcd90058	-0.026489422
104	0xbd08c9fd	-0.033395756
105	0xbd1c7736	-0.038199626
106	0x3cc40e5b	0.023932626
107	0x3d1f7db7	0.03893825
108	0xbcbe1e1f	-0.023207722
109	0xbc733b02	-0.0148456115
110	0xbd2fc398	-0.042911142
111	0xbd0eb1b6	-0.034837447
112	0x3c4dd80e	0.0125637185
113	0x3cd41804	0.025890358
114	0xbd04c76b	-0.032416742
115	0xbc2e5069	-0.010639288
116	0xbd326423	-0.04355253
117	0xbcc2c2a9	-0.023774462
118	0x3c24f4df	0.010068147
119	0x3c8c5681	0.017131092
120	0xbd2ba1d4	-0.04190238
121	0xbbed0447	-0.007233176
122	0xbd37b58b	-0.044850867
123	0xbc847c16	-0.01617245
124	0x3c80c3af	0.01571831
125	0x3bc37ac5	0.005965563
126	0xbd3a3691	-0.045462195
127	0x3b00c4c3	0.001964853
128	0xbd16ccb9	-0.036816332
129	0xbbb8e3b1	-0.0056423773
130	0x3cf09186	0.029366266
131	0xbba82130	-0.0051309094
132	0xbd4511d7	-0.048112717
133	0x3ca804ed	0.020510161
134	0xbd5c6ff6	-0.05381771
135	0xbbb417b7	-0.005495991
136	0x3cc70d9b	0.02429848
137	0x3a1e6322	0.00060419936
138	0xbd2f1dde	-0.042753093
139	0x3cada722	0.02119786
140	0xbd6e27b9	-0.05814335
141	0xbc210c3f	-0.00982958
142	0x3cc97edc	0.024596624
143	0xbb79dbb1	-0.003812533
144	0xbd2ba615	-0.041906435
145	0x3caf564a	0.02140345
146	0xbd619c7e	-0.055080883
147	0xbc72c49f	-0.014817386
148	0x3cf78daf	0.030218927
149	0x3c47d180	0.012195945
150	0xbd145dfd	-0.036222447
151	0x3cd624d3	0.026140606
152	0xbd47522e	-0.048662357
153	0xbcb76cca	-0.022390742
154	0x3cd73647	0.026270999
155	0x3c858633	0.016299343
156	0xbceea74d	-0.02913251
157	0x3cf3c51a	0.029757071
158	0xbd3acbd0	-0.045604527
159	0xbcf8883a	-0.030338395
160	0x3cdc85be	0.026919242
161	0x3cb48e84	0.022040613
162	0xbc9ebbeb	-0.019376716
163	0x3cd1c21b	0.025605252
164	0xbd0b586d	-0.034019876
165	0xbd37b873	-0.04485364
166	0x3cefd147	0.029274596
167	0x3cd6be71	0.026213856
168	0xbbfca77d	-0.007710396
169	0x3c7b2821	0.015329392
170	0xbcac178d	-0.021007324
171	0xbd588a53	-0.05286629
172	0x3d00cb5a	0.03144393
173	0x3d02ffb3	0.031982135
174	0x3bd14828	0.0063867755
175	0x3c20179a	0.009771252
176	0x39a9aa60	0.0003236113
177	0xbd301a0e	-0.042993598
178	0x3d082318	0.033236593
179	0x3d1970f4	0.037461236
180	0x3bf7b572	0.0075594718
181	0x3d999826	0.07499723
182	0x3c77e1d9	0.01512953
183	0x3d1605fb	0.036626797
184	0x3c0fd6f3	0.008779275
185	0x3c9233bb	0.017846933
186	0x3b939527	0.0045038643
187	0x3d931886	0.07182412
188	0x3c6f8b54	0.014620621
189	0x3d0d2e02	0.034467705
190	0x3bb9ab8c	0.005666202
191	0x3c673e40	0.014113963
192	0x3aa3f571	0.001250906
193	0x3d90b8a6	0.07066469
194	0x3c7f0e20	0.0155673325
195	0x3d0e44bf	0.03473353
196	0x3b6c02fd	0.0036012523
197	0x3c36c2f7	0.011154882
198	0x39ae8b41	0.00033291618
199	0x3d8b5cec	0.06804833
200	0x3c7f5455	0.015584071
201	0x3d063482	0.03276492
202	0x3b814c95	0.003945897
203	0x3c2d7c87	0.010588772
204	0xb9c83e54	-0.0003819341
205	0x3d88667a	0.06660171
206	0x3c81fa7c	0.01586651
207	0x3cfdd7f6	0.030986767
208	0x3b944558	0.004524868
209	0x3bfa1a7a	0.007632551
210	0xba100823	-0.00054943765
211	0x3d8679ac	0.06566176
212	0x3c8eee10	0.017447501
213	0x3cfb2146	0.030655514
214	0x3b8a4641	0.0042198007
215	0x3bc0bad0	0.005881645
216	0xba57dfb0	-0.0008234931
217	0x3d81d8fa	0.06340213
218	0x3c9421f6	0.0180826
219	0x3cf8773e	0.030330297
220	0x3ad56074	0.0016279356
221	0x3ba9d51a	0.0051828744
222	0xba1f633b	-0.0006080155
223	0x3d7361fe	0.059419625
224	0x3ca9e0b5	0.020737031
225	0x3ce017f5	0.027355174
226	0x3b8c4833	0.0042810678
227	0x3b6be826	0.0035996526
228	0x3a4aea4c	0.00077406014
229	0x3d735e54	0.05941613
230	0x3cac4ea0	0.021033585
231	0x3cd2e314	0.025743045
232	0x3b92681b	0.0044679767
233	0x3b49c2c2	0.003078625
234	0x3ac50130	0.0015030261
235	0x3d808530	0.062754035
236	0x3ca7ce4b	0.02048411
237	0x3cdbf05b	0.026848009
238	0x3bab270c	0.0052231606
239	0x3b9581a2	0.0045625726
240	0xb91e6744	-0.00015106524
241	0x3d86bb64	0.06578711
242	0x3c6f3c6b	0.014601807
243	0x3ceafb8a	0.028684396
244	0x3b35a34b	0.0027715738
245	0x3bd19aef	0.0063966434
246	0x3a726aa8	0.00092474604
247	0x3d8a7efe	0.06762503
248	0x3c62d123	0.013843807
249	0x3cf1b1f1	0.029503794
250	0x3b0f4962	0.0021863808
251	0x3c104d68	0.008807518
252	0x3b5d9c02	0.0033814912
253	0x3d91aecb	0.07113417
254	0x3c6ac079	0.014328116
255	0x3cf4adbf	0.029868005

fc1.bias f4 [64]
0	0x3e01c050	0.12671018
1	0xbd6cd34a	-0.05781869
2	0x3d339a6b	0.043848436
3	0x3db8941c	0.090126246
4	0xbd955f7c	-0.07293603
5	0x3d273700	0.040823936
6	0x3dd11abd	0.10210178
7	0x3c320dd7	0.0108675575
8	0x3dc3ccc0	0.09560537
9	0x3d39b775	0.045340974
10	0xbc40b2e0	-0.011761397
11	0xbdd152a4	-0.102208406
12	0x3d0ed3db	0.03487001
13	0xbc3fa8cc	-0.011697959
14	0x3dd19a2f	0.10234486
15	0xbd96b797	-0.07359236
16	0x3d86234e	0.065497026
17	0xbdbaa81d	-0.09114096
18	0xbd9162c0	-0.07098913
19	0xbd178360	-0.036990523
20	0xbcee9228	-0.029122427
21	0x3e154962	0.14578775
22	0xbd5cfb4c	-0.053950593
23	0x3cddd139	0.027077304
24	0x3ca00b24	0.019536562
25	0xbcd3680f	-0.025806455
26	0x3e15afac	0.14617795
27	0x3dbd95a9	0.09257061
28	0x3d0deb82	0.034648426
29	0x3cd105ea	0.025515515
30	0x3e0956ad	0.1341197
31	0x3dc5c9cc	0.0965763
32	0xbd3e1fa6	-0.0464169
33	0x3d059d75	0.032620866
34	0x3c84463c	0.016146772
35	0x3d8c0eb4	0.06838742
36	0xbd45a325	-0.04825129
37	0x3d524b6e	0.051341467
38	0x3e08478e	0.13308546
39	0x3c91c690	0.017794877
40	0x3d728da9	0.05921713
41	0x3c4ef6ac	0.012632053
42	0x3ad308ae	0.0016100609
43	0xbd8477ac	-0.06468138
44	0xbcfe2954	-0.031025566
45	0x3c64b029	0.0139580155
46	0x3cf34101	0.029694082
47	0x3dbb1550	0.091349244
48	0xbda2c15a	-0.07947035
49	0x3d965b02	0.07341577
50	0xbda35c68	-0.079766095
51	0x3d0433d1	0.03227598
52	0x3d267a62	0.040644057
53	0xbd75c643	-0.06000353
54	0xbd938707	-0.07203489
55	0x3d9a9c26	0.07549314
56	0xbd5fde39	-0.054655287
57	0x3cc1c8ef	0.023655383
58	0x3cebc998	0.02878265
59	0xbda1f845	-0.07908682
60	0xbd384b2b	-0.04499356
61	0xbd898209	-0.06714255
62	0x3cce8249	0.02520861
63	0x3ddc22e1	0.1074884

fc2.weight f4 [4, 64]
0	0xbe6e9821	-0.2330022
1	0x3e27c816	0.1638492
2	0xbda8e5a5	-0.08246926
3	0x3e13b6d3	0.1442521
4	0x3ec17f56	0.37792462
5	0xbe083ac3	-0.13303666
6	0xbe91f98c	-0.28510702
7	0x3e19a28f	0.15003417
8	0x3e2287a3	0.15872054
9	0x3e2bce17	0.16777836
10	0x3e0a8df0	0.13530707
11	0x3e144847	0.14480697
12	0xbd631baf	-0.055446323
13	0x3e20e1b0	0.15711093
14	0x3e36b2db	0.17841665
15	0x3e000229	0.12500824
16	0x3e155af6	0.1458548
17	0x3e1b7ee0	0.15185118
18	0x3eb45006	0.35217303
19	0x3e5a0b69	0.21293415
20	0x3df10137	0.1176781
21	0xbe86f199	-0.263562
22	0x3ea6918f	0.32532927
23	0x3cbe512e	0.023232069
24	0x3cbd2f5c	0.023093872
25	0x3e27ea7c	0.16398042
26	0xbe840d0f	-0.25791213
27	0x3e2ccad5	0.1687425
28	0xbce560f8	-0.02800034
29	0x3cb905f3	0.022585845
30	0xbe941896	-0.28925008
31	0x3e3694ed	0.17830248
32	0x3ec85498	0.3912704
33	0xbd815b9d	-0.06316302
34	0x3da737a0	0.081649065
35	0x3e013bc3	0.12620454
36	0x3ea86a74	0.32893717
37	0xbd66fcaa	-0.056393303
38	0xbe7cd7d6	-0.2469171
39	0x3d558355	0.0521272
40	0x3df4686b	0.11933979
41	0x3dabdb88	0.08391482
42	0x3e1d47f5	0.1535948
43	0x3e002f29	0.1251799
44	0x3dd05203	0.101718925
45	0x3b230dd0	0.002488006
46	0x3d146a09	0.036233936
47	0x3e0167e8	0.12637293
48	0x3dab2caa	0.08358128
49	0xbe943611	-0.289475
50	0x3e0b5d01	0.13609697
51	0xbd8f26d3	-0.06989827
52	0xbdafd1f5	-0.08584968
53	0x3eb62cab	0.35580954
54	0x3ea0317c	0.31287754
55	0x3dcfea86	0.10152154
56	0x3df55866	0.11979751
57	0xbd78ad97	-0.060712423
58	0x3cf9920b	0.030465147
59	0x3dc4d4ab	0.09610876
60	0x3dd700b4	0.10498181
61	0x3e9505b7	0.29105923
62	0x3dec61b6	0.115420744
63	0x3e2b8dd7	0.16753326
64	0x3e0b11f6	0.1358107
65	0xbdbf0ada	-0.09328242
66	0xbd160262	-0.036623366
67	0x3e0267b6	0.12734875
68	0x3eb8dac8	0.36104417
69	0x3d1760a3	0.036957394
70	0x3e1a7ac3	0.15085892
71	0xbd1d4145	-0.038392324
72	0x3e1d0854	0.15335208
73	0x3e0ecca6	0.13945255
74	0x3dcdaec6	0.10043101
75	0xbe5fcd60	-0.21855688
76	0xbd96916a	-0.07351954
77	0xbdacd531	-0.084391005
78	0x3e2e1810	0.17001367
79	0xbe24fb21	-0.16111423
80	0x3df30734	0.11866608
81	0xbe2ff814	-0.17184478
82	0x3e9f5659	0.31120566
83	0xbcd4da60	-0.025983036
84	0xbe854eed	-0.26036778
85	0x3dfd1e0a	0.12359245
86	0x3e9e23b3	0.3088661
87	0xbdca78df	-0.098863356
88	0xbe3f19d9	-0.18662204
89	0xbc9453bb	-0.018106332
90	0x3e0f202a	0.13977113
91	0x3e3a5809	0.18197645
92	0xbd464edd	-0.048415054
93	0xbd0d5648	-0.034506112
94	0x3e0b1597	0.13582455
95	0x3e2d0be6	0.1689907
96	0x3eae4474	0.340366
97	0xbdba63ab	-0.091010414
98	0xbe21f844	-0.15817362
99	0x3dd57683	0.10422995
100	0x3e9c987b	0.30585083
101	0xbd181060	-0.03712499
102	0x3e12c820	0.14334154
103	0xbe3d7148	-0.18500245
104	0x3d9f3983	0.07774641
105	0xbde2a802	-0.11067201
106	0xbe5504b9	-0.20802583
107	0xbe227f32	-0.15868834
108	0xbdb68e88	-0.089139044
109	0xbd855ea5	-0.06512193
110	0xbd3c3e0b	-0.045957606
111	0x3df1f2fc	0.11813924
112	0xbe1e16e5	-0.15438421
113	0x3dc5da37	0.09660762
114	0xbe4266c8	-0.1898452
115	0x3ce50fac	0.027961574
116	0xbd28c2ab	-0.041201275
117	0x3eb0f8ed	0.34564915
118	0x3ea3909a	0.3194626
119	0x3da378a0	0.07981992
120	0xbdffcd57	-0.12490337
121	0xbd8f7bec	-0.07006058
122	0xbdbb8813	-0.091568135
123	0xbe5ccf77	-0.21563517
124	0xbe275173	-0.16339664
125	0x3e8ac221	0.27101234
126	0x3d5e3af6	0.05425545
127	0x3e084404	0.13307196
128	0x3e5cbab9	0.21555604
129	0x3d496613	0.04916961
130	0x3e1e99a4	0.15488297
131	0xbe2986ce	-0.1655533
132	0xbdabb068	-0.08383256
133	0x3e35f08d	0.17767544
134	0x3e28ee74	0.16497213
135	0x3dd45a74	0.10368815
136	0xbe2d5860	-0.16928244
137	0xbe12815b	-0.14307158
138	0xbe05bf8b	-0.13061349
139	0x3b17c0d8	0.0023155715
140	0x3e2ed61a	0.17073861
141	0x3dafeaf1	0.085897334
142	0xbe3f0b54	-0.18656665
143	0x3b0f23d1	0.0021841417
144	0xbe4fcbec	-0.20292634
145	0x3cef6e31	0.029227348
146	0xbdc33ae8	-0.0953272
147	0xbd035409	-0.032062564
148	0x3de35748	0.11100632
149	0x3e08efc7	0.13372718
150	0xbdef05bf	-0.11671018
151	0x3df1e3bc	0.11811015
152	0x3e13f775	0.14449866
153	0xbd40a4ca	-0.047032155
154	0x3e23bdb4	0.15990335
155	0xbe3818de	-0.17978236
156	0x3dfb6e5e	0.1227691
157	0x3e22be71	0.1589296
158	0x3e1bc124	0.15210396
159	0xbe2c1039	-0.16803063
160	0xbde18cb0	-0.11013162
161	0x3e3080e2	0.17236665
162	0x3e1b1d4f	0.15147899
163	0xbe29b31f	-0.16572236
164	0xbdb26e27	-0.08712416
165	0x3e60e9e8	0.21964228
166	0x3e38c7de	0.18044993
167	0x3e1fbda6	0.15599689
168	0xbdcbb9e7	-0.099475674
169	0x3dead616	0.11466615
170	0x3e09a932	0.13443449
171	0x3ccca265	0.02497978
172	0x3db112d0	0.08646166
173	0x3dcce5ea	0.1000479
174	0x3e1aaaf9	0.15104283
175	0xbe2d80fe	-0.16943738
176	0xba4526a8	-0.0007520714
177	0x3dd96c40	0.1061635
178	0xbcf41baa	-0.029798348
179	0x3e2cc5cf	0.16872333
180	0x3e1f3171	0.15546204
181	0xbddbdcbf	-0.10735463
182	0xbde9ab33	-0.11409607
183	0xbe2bc971	-0.16776063
184	0xbd4dc2a4	-0.050234452
185	0x3de8e402	0.11371614
186	0x3e11773a	0.14205638
187	0x3d104b4d	0.035228062
188	0x3d3666b9	0.044531558
189	0xbdd60fc1	-0.104522236
190	0xbda556b6	-0.080731794
191	0xbe412457	-0.18861519
192	0x3e316991	0.17325427
193	0x3cc9a7be	0.024616119
194	0x3dde14c7	0.10843807
195	0x3e3e7c95	0.18602212
196	0xbed3d6e5	-0.4137489
197	0x3e277265	0.16352232
198	0x3e0b9cd3	0.13634042
199	0x3d1c7cc1	0.038204912
200	0x3e3b218e	0.18274519
201	0x3e3a1428	0.18171751
202	0xbc03b7e8	-0.008039452
203	0x3dc5f1c2	0.09665252
204	0x3e185e69	0.14879765
205	0x3da67725	0.08128194
206	0x3e615f12	0.22008923
207	0x3dcfb978	0.10142797
208	0x3e08b59f	0.13350533
209	0x3dd145f8	0.102184236
210	0xbf058e37	-0.5217013
211	0x3e1a2a3d	0.15055175
212	0x3daf245a	0.085518554
213	0x3e071eb4	0.13195306
214	0xbf10c625	-0.56552345
215	0x3dd318ea	0.10307486
216	0x3e08f823	0.13375907
217	0x3e1f89c3	0.15579896
218	0x3df86846	0.121292636
219	0x3e44b90a	0.19211212
220	0x3d9ca6c7	0.07648998
221	0x3e07ecd4	0.13273937
222	0x3e02188d	0.12704678
223	0x3e4a2dbb	0.19744007
224	0xbef9ac34	-0.48764193
225	0x3e201fd7	0.15637146
226	0x3e04f80f	0.12985252
227	0x3e1dba74	0.15403157
228	0xbebdf320	-0.37099552
229	0x3e37a4b6	0.17933926
230	0x3e21e69c	0.15810627
231	0x3de902da	0.11377497
232	0x3dfdcbbd	0.123923756
233	0x3db075ce	0.086162195
234	0x3de5e3ab	0.11225065
235	0x3d5444dc	0.051823482
236	0x3d16cbf4	0.0368156
237	0x3d9f7879	0.0778665
238	0x3df0aa93	0.117512845
239	0x3e2a802b	0.16650455
240	0x3e00437d	0.12525745
241	0x3e126d5e	0.14299533
242	0x3dec1490	0.115273595
243	0x3e0cb4d0	0.1374085
244	0x3dfcd358	0.12344998
245	0xbeefa818	-0.46807933
246	0xbebdb948	-0.3705542
247	0x3e241bff	0.16026305
248	0x3dc55cb1	0.0963682
249	0x3d969fe1	0.07354713
250	0x3defb205	0.117038764
251	0x3d378763	0.04480685
252	0x3dbb2072	0.09137048
253	0xbedab1bf	-0.42713735
254	0x3dcadf77	0.09905904
255	0x3e3d4430	0.18483043

fc2.bias f4 [4]
0	0xbeac896f	-0.33698604
1	0x3f06b668	0.5262208
2	0x3e584391	0.21119525
3	0x3e662a8b	0.22477166
