MediaPipe_Operation/model_4class/gesture_classifier4.pth (torch, 46464 bytes, 6 tensors)

fc1.weight f4 [82, 90]
00000000: 5875 bbbe 591f 93bd 6e42 a5be 780e 433d
00000010: 24ac f4be 7154 1e3e 7d16 91be dc2b 1cbd
00000020: f329 89be 57fc 64bb e9ef acbe cd7c e33d
00000030: 4a3d 6cbe 5b18 efbc 6aae 5bbe 0eaf 1f3d
00000040: f435 5fbe 0491 dd3d e42c 25be d6f7 13bd
00000050: e69b 1abe ce46 82bb 88df c0bd 79ce 883d
00000060: 16cf c8bd aa1f aebc 2f75 d7bd e2b0 e0bc
00000070: 080c 973b e041 083d 6931 38bd 6305 d1bc
00000080: 6dce 80bd d5c8 3cbd a84c 393d 6ce7 183c
00000090: 9e79 133b 6833 d0bc c269 37bc 3266 32bd
000000a0: 641f ec3d b4b0 5c3c 2a56 633d eb0b e1bc
000000b0: 8679 163d 1bb3 80bd 226a 0f3e 0e1e 393b
000000c0: cb0a d03d 7929 21bc b03c 7e3d 028b b5bd
000000d0: 12c0 123e 6899 27bc 74bc 033e 6f2b e0bb
000000e0: 98ec c73d e1ef d5bd 97a4 183e bdbf 45bc
000000f0: 9240 103e cbe8 d33c ce8c 013e 22d4 c7bd
00000100: 7353 1c3e 34a6 17bd ab06 2c3e 8dab b03c
00000110: affe 303e d108 86bb 3009 1b3e d7db 95bd
00000120: e7c3 373e 3b03 373d aa60 443e abec d43d
00000130: 8653 083e d4a7 a2bd 9bae 3e3e b4b4 983d
00000140: d1b4 573e 2d7f 123e 9357 833d 42a6 04be
00000150: 3ecf 623e ecc6 003e 4864 703e 578a 193e
00000160: 5a21 073d 3f08 21be 1c95 763b 15a4 29bc
00000170: 5334 f33b 1de4 8cbd 8fd3 883b 55e9 933b
00000180: e283 3fba 9b5f 82bb c183 803b 54b8 56bd
00000190: e19d 1e3b 1537 2d3b 1f95 93ba 0f57 cb3b
000001a0: 1e2c 293b c3fe 44bd 6c81 78bb e470 f039
000001b0: 9a1a d3ba 5b35 503c 0026 4c3b dd07 2cbd
000001c0: 596e 563b 436f 1a3c 2015 bcb9 d1e5 0f3c
000001d0: 5460 2c3b 8e44 15bd f910 043b 8a48 4f3c
000001e0: 4105 c9bb ea7b f53b 3ef1 283b 6e4c 18bd
000001f0: 9bef a63b a00d d23c a9fc c7bb 570f 3c3c
00000200: 9306 dc3a 6bcc 19bd f132 063c 7997 b83c
00000210: 6b4c c7bb 6aa5 113c 7afc c23a 83f4 45bd
00000220: a9cd ee3b ae33 9b3c 5add c1bb 7354 e43b
00000230: 5f14 3cbb c0ae 32bd 12a6 a13b 6d32 b03c
00000240: e983 07bc dd84 033c 4a11 c0ba 0b55 02bd
00000250: 46e0 e93b 342d da3c f4b6 32bb e473 7a3b
00000260: 9e2d 3bba 3837 05bd deea 9539 fe81 953c
00000270: b252 34bb c0dc b43b 3947 553b c2e3 11bd
00000280: 361c ae39 5066 883c 85d3 feba aec8 45bb
00000290: 7aad e83a fa36 4cbd fe3e 11bc 42f2 1b3c
000002a0: 3cac 05b9 e93d 49bc 676c 833b 2b46 59bd
000002b0: cc37 cebb 476b 0a3c 1f57 923b aa37 b0bc
000002c0: 5005 2b3c 7ac1 90bd 8e74 2fbc c10a 373c
000002d0: 559e 4b3d 47fd 0c3d 121d 0abd 1c9c 8c3c
000002e0: a37d 833d 8baa 91bc 7ebe 583d 8d12 df3c
000002f0: 3446 29bd 29f9 6d3c 1315 1b3d 7d12 4abb
00000300: cb2b 5c3d fa77 a73c 78f1 16bd 89c1 273c
00000310: fc39 1d3d 48d4 8a3c 1afb 753d 9d00 4a3c
00000320: 4aec 07bd ae21 f63c e8cd b83c b6fc f43b
00000330: dcf0 743d 193d 783c c56c f5bc cd5d 4c3d
00000340: 40a6 703c 6cda 283c 67cf 8b3d e46d 043c
00000350: d05d 05bd b687 063d a2b4 a13b c58a 253c
00000360: 8a3d 8d3d 34fa f23b a989 00bd ed20 d93c
00000370: 82b1 1a3b 13d8 773c 030c 7e3d 6a25 733c
00000380: 028c e3bc 8f69 463d 0b40 0d3a 4c77 a53c
00000390: 2bd1 7c3d 18a8 6f3c ee82 17bd 2a0e 063d
000003a0: c887 4c3a 56bd 4f3c a6a2 723d 124d 823b
000003b0: ec10 2ebd 448c 003d 3a32 2dbb 7a93 023c
000003c0: dfa3 443d b619 1eba 7a0f 57bd 1958 113d
000003d0: 18b1 f0ba 2294 163c 8af6 433d c2d9 06bc
000003e0: 5f2a 52bd c4e4 d23c 8cbc 42ba f8f3 99ba
000003f0: bcdf 2b3d 8ff9 c3bb 8dfa 5fbd b13c 033d
-0.36612964 -0.071837135 -0.32277244 0.04762122 -0.47787583 0.154619 -0.2833747 -0.038127765
-0.26789817 -0.0034940445 -0.33776787 0.11107788 -0.23070255 -0.029186418 -0.21453252 0.038985305
-0.21797925 0.10818675 -0.16130406 -0.036125027 -0.15098533 -0.0039757257 -0.09417635 0.066800065
-0.098051235 -0.021255333 -0.10520398 -0.027428094 0.0046095885 0.03326595 -0.044968996 -0.025515264
-0.062893726 -0.046089966 0.04523912 0.009332519 0.002250291 -0.025415137 -0.011194648 -0.043554492
0.11529425 0.013469864 0.055502094 -0.027471503 0.036736988 -0.06284162 0.1400533 0.0028246674
0.101583086 -0.009836548 0.062069595 -0.08864404 0.14331082 -0.010229446 0.12864858 -0.006841115
0.097619236 -0.10446144 0.14906536 -0.01206964 0.14087132 0.02586784 0.12651369 -0.09757258
0.15266208 -0.037023738 0.16799419 0.021566177 0.17284654 -0.0040904065 0.15140224 -0.07317322
0.17945825 0.044680815 0.191775 0.10396703 0.13313112 -0.07942167 0.18621294 0.074563414
0.2106507 0.14306326 0.06413188 -0.12954047 0.22149369 0.12575883 0.23475754 0.14994179
0.03299079 -0.15725802 0.0037625497 -0.010354062 0.007422009 -0.06879447 0.0041756104 0.0045138993
-0.0007305724 -0.003978682 0.0039219563 -0.052421883 0.002420299 0.0026430537 -0.0011259652 0.0062054466
0.002581365 -0.048094522 -0.0037918938 0.00045860477 -0.001610595 0.012708033 0.003115058 -0.041999687
0.003271958 0.009425941 -0.00035873894 0.00878282 0.0026302533 -0.036442332 0.0020151718 0.012651572
-0.0061346595 0.0074915783 0.0025778557 -0.037182264 0.005094481 0.025641263 -0.0061031175 0.011478267
0.0016786627 -0.037548464 0.008190856 0.022533165 -0.006082108 0.008889535 0.0014876269 -0.048328888
0.0072877 0.018945541 -0.0059162797 0.006968075 -0.0028698666 -0.043623686 0.004933127 0.02150842
-0.008271196 0.008027283 -0.001465359 -0.031819385 0.007137331 0.026632883 -0.0027269693 0.003821605
-0.00071402814 -0.032523364 0.00028594484 0.018250462 -0.002751511 0.0055194795 0.0032543673 -0.035617597
0.00033208885 0.016650349 -0.00194417 -0.003017943 0.0017751895 -0.049857117 -0.008865116 0.009518208
-0.0001274803 -0.012282827 0.0040107253 -0.053045433 -0.0062932726 0.0084484285 0.004465952 -0.021510918
0.010438278 -0.07068153 -0.010708941 0.0111719975 0.049711544 0.03442123 -0.03371913 0.017164283
0.06420448 -0.017781517 0.052916043 0.027230525 -0.041326717 0.014524736 0.037861895 -0.0030833774
0.0537527 0.020442951 -0.036851376 0.0102390135 0.038385376 0.016946927 0.060053922 0.012329248
-0.033184327 0.030045357 0.022559121 0.0074764146 0.059800014 0.015151286 -0.029959092 0.049894143
0.014688075 0.010305982 0.06826668 0.008082841 -0.03256017 0.032844268 0.004934863 0.010103886
0.06896503 0.0074150804 -0.031381283 0.026504958 0.0023604338 0.0151272 0.062023174 0.014840463
-0.027776722 0.048440512 0.0005388266 0.020198487 0.061722916 0.014627479 -0.0369901 0.03272835
0.00078022154 0.012679419 0.059237145 0.0039764727 -0.042496607 0.031383768 -0.0026427642 0.007969731
0.048007842 -0.0006031053 -0.052504994 0.035484407 -0.0018363325 0.009190591 0.04784254 -0.008230628
-0.05130994 0.02574385 -0.00074286084 -0.0011745682 0.041961417 -0.0059806774 -0.054682303 0.0320403

fc1.bias f4 [82]
00000000: fa46 0dbb 451b 87bc 49c8 7bbd 5dcd 7c3d
00000010: 6218 91bb 724c 3cbd ff3a 5f3e b3bf 17bc
00000020: 2c9f e6bb 83ed 23bd 5bd9 ffbc 8aac 3d3c
00000030: a0f2 98bd 49b0 a6bd 91ab b4ba 11c2 4dbd
00000040: 2c06 5bbd e44d f7bb a731 13bd 5cc2 56bd
00000050: 40a5 d0bb a895 e33a abd3 1fb9 ba96 90bd
00000060: dd56 8e3c eb5a 36be 977e d8bd 2f9a bc3d
00000070: 6e7d dcbd b403 d73d 0f10 29bd 4a44 e6bc
00000080: 87dd 86bd 9a49 b0bb b167 0ebd e07d 08bd
00000090: 15cf eabd 5d7d 183d b37e 643b 1946 2cbb
000000a0: 2241 69bd b42d ba3d 6686 7cbd 46e8 673d
000000b0: 8631 353c a505 a6bb 73bf d33d 14c6 3dbd
000000c0: a5ac 42bd c1a9 e2bb 354e 473d 4c4a 4cbd
000000d0: 51df 87be 785f 69bd d5ef e0bb e9a9 a23c
000000e0: 87d2 25bd 619c d0bb a752 a3bd aff2 a9bd
000000f0: cc97 f1bc d2b0 6abd 8fdc a5bc 9833 c7ba
00000100: 51c8 1ebd bfb4 afbb 16d7 a8bd 836b 6aba
00000110: 8255 28bd ac6f e8bd eed9 6bbe fef7 babc
00000120: 12b2 e2bd cd57 aa3d 07bf 7abc 01fd 2cbe
00000130: 9864 a039 2dab 48bb 1570 333e 0b2b 0dbe
00000140: 4adf 743d e9c8 4dbc
-0.0021557198 -0.016492495 -0.061470304 0.061719287 -0.0044279555 -0.04597134 0.21799849 -0.009262013
-0.0070380177 -0.04002143 -0.031231573 0.011576781 -0.07468152 -0.081390925 -0.0013784041 -0.050233904
-0.053472683 -0.007547127 -0.035936024 -0.05243145 -0.0063673556 0.0017363327 -0.00015242274 -0.07059999
0.017375404 -0.1780812 -0.1057102 0.09209096 -0.10766111 0.10498753 -0.04127508 -0.028108735
-0.06585222 -0.0053798677 -0.034766857 -0.03332317 -0.11465279 0.03722893 0.0034865558 -0.0026286899
-0.05694688 0.090907484 -0.06165161 0.056617998 0.011059171 -0.005066591 0.103392504 -0.04633148
-0.047527928 -0.006917209 0.04865857 -0.049875543 -0.26537564 -0.05697581 -0.0068645277 0.01985641
-0.040483978 -0.006366298 -0.07974749 -0.08298241 -0.029491328 -0.057297535 -0.020246772 -0.0015197871
-0.038765255 -0.005362123 -0.082441494 -0.0008942412 -0.04109717 -0.11349425 -0.23032352 -0.02282333
-0.110691205 0.08317528 -0.0153043335 -0.16893388 0.00030592526 -0.0030619607 0.17523225 -0.13785951
0.059783258 -0.012560108

fc2.weight f4 [40, 82]
00000000: fae1 a6bd c389 253d c45a 32bd a20c 803d
00000010: 96f8 963b 18c1 2c3d 47eb 293c 647b 323a
00000020: 8f61 72bd f795 d33b 377a 883d 46fd 3bbd
00000030: 5425 9ebc 8aa9 43bd 5421 d2bd 4fad f43b
00000040: 07e5 da3c b772 97bd 0fab ef3c aa60 413d
00000050: 3a36 eb3c c66b 913c 7b71 733b 4bb2 973d
00000060: 335c a13d 5fb1 043d 0af5 85bc 1c98 843d
00000070: 7069 053c 340f 643c 5a51 a43b f2c8 e23d
00000080: b178 c63c 66e3 ecbd 0df2 003e 4fb1 023e
00000090: e97f b7bc 2457 e1ba 8e95 cebc c6f3 593a
000000a0: a6a1 b43c e9d4 583d 5e57 8ebd ef01 143c
000000b0: 274e 3dbd 3c64 11be cf97 2c3d 8e8f 4a3d
000000c0: 52d1 a03c 5391 833c 8994 eb3c 3eb0 573d
000000d0: a0e6 79bd e094 1c3d 7698 1f3c ea1b 543c
000000e0: b748 fbbb a27a 50bd 9207 bd3b 9c3e 003d
000000f0: 21a2 613d 6ff6 5d3c ad2a 793d 9d7e 33be
00000100: eb46 093d a279 04bd c113 4a3c 1050 1cbe
00000110: 4c25 073e 6910 77bd d9cb 78bd dbcf d43d
00000120: 7ed1 ad3d 019d cc3b 79ad 0f3d 5e25 c33c
00000130: be54 87b8 cd07 703b 3e5a 333d 8af4 8a3d
00000140: c3a0 353d 7040 873d 6a0f ec3b 3ff7 d43c
00000150: 390a 853c c967 94bd 1765 333c f69c 543d
00000160: cb85 bfbd 57a8 303c 5891 4b3d fc17 393d
00000170: ca5c 09bd 7c16 ae3b c4d4 453d daf2 f93c
00000180: 48d5 8a3c 6e39 043d 3f66 183d 117d dd3b
00000190: c15c f83c 62d9 823d a50d b03c 787b 3c3c
000001a0: 96f6 973b 250f cd3b 23ee 403a eb07 c93d
000001b0: a036 393d 5113 94bd b547 903d 5a27 15bd
000001c0: d967 9c3c a40c 8b3c 308d 0b3d 2b60 d83d
000001d0: 6b73 a83c b946 693c 6ec2 4e3d 451b 0fbd
000001e0: 2667 67bd 29ae f03a 5ac2 ed3c 1133 33bd
000001f0: d3c1 4d3d 72dd a7bd b614 1dba fb5a b33d
00000200: 251a 86bd 4278 5f3d d798 063d 3aa7 9f3c
00000210: ecae 2839 6475 623c fb6d ba3d bd63 623d
00000220: 10d3 853c 5635 6ebb 6523 033d 6e73 623c
00000230: f8ea 87bd c00b a83d d3c5 a53c b3fa 553d
00000240: c577 d3bc 5247 1f3d 0620 fa3c ebbf ba3b
00000250: 3996 783d 78b2 8e3c 29d8 a93c fdf5 e93d
00000260: b7c6 9d3d 98ac 2e3c df0a 103d 9d77 b1bd
00000270: 4850 053d 5971 c23d 1425 7c38 7e37 c63b
00000280: 8ddc 9bbd fc37 683d bc28 87bd f252 0fbd
00000290: 8244 84be beb1 6fb9 d3b5 083d 42b9 ad3c
000002a0: 5a0b 8eba f425 863b aa35 443c ec18 86ba
000002b0: 55b6 eb3d 8e04 ca3c 533b aebc bd2e a73c
000002c0: 34e4 273d 3ef1 4f3d f7f3 6dbe fe4c 33bc
000002d0: ea98 cebc f07d 86be d422 a7bc 7d8a f43c
000002e0: 2d87 473b 2241 da38 d170 833b ae75 09bd
000002f0: 785d 9b3c da61 873d 7d52 4e3d cd7e c33b
00000300: 0aa6 883d b944 3e3c a01b 48ba 8138 1d3c
00000310: 6d04 30bd b73c 13be 8f19 2f3c 9b75 e63c
00000320: aad1 673d 19b1 823d a279 3abe 6778 6abb
00000330: eade fcbc e061 24ba ffa5 b63d 4649 c53b
00000340: 4c1b b23c b1a4 1cbe 903f db3a 4a68 673a
00000350: 5c71 afbc f178 2639 a9a6 da3c 1626 c7bc
00000360: 59c5 c33d d835 a6bb f83b dc3b ed0f 4b3c
00000370: 71f2 043d 7a6a 67be 5427 d53c 3ac1 a83b
00000380: aace 36ba 2eb3 173d 7961 b5bc afaa 3ebe
00000390: 1216 8bbb 9632 6cbe 59f3 3c3d f044 57be
000003a0: 9115 433c 4b44 4abd 39c7 a13d 3ff4 513c
000003b0: e30b 02bc f79f 41bd 5d18 433c 72bc 3a3d
000003c0: cce0 103a 519b 703a 9d37 893c 241e d3bb
000003d0: 213d 423c 5bb8 8abc 60aa ef3c 3432 5dbc
000003e0: 82d4 b33d dbf8 253a 5d47 4abb bd1c 82bc
000003f0: e75d 233c 2ff0 1e3c 2133 363e 1f90 703d
-0.0814857 0.040414583 -0.043543592 0.062524095 0.0046072705 0.042176336 0.010371036 0.0006808548
-0.05917507 0.006457086 0.06663936 -0.045895837 -0.019304909 -0.047769107 -0.10260263 0.007466949
0.026720537 -0.07394927 0.029256372 0.047211327 0.02871238 0.017751586 0.0037146497 0.074070536
0.07878914 0.032395717 -0.016352195 0.06474325 0.008142814 0.01391964 0.0050145807 0.110734835
0.024227472 -0.1156681 0.12592335 0.1276295 -0.02239986 -0.0017192108 -0.025217798 0.0008314218
0.022049736 0.052937422 -0.06950258 0.009033664 -0.04621711 -0.14198393 0.042136963 0.04945331
0.019631062 0.016060507 0.02875735 0.052658312 -0.061010957 0.038227916 0.009740939 0.012946108
-0.0076685804 -0.0508982 0.0057687247 0.03130971 0.05508626 0.013547524 0.060831714 -0.17528768
0.0335149 -0.03234256 0.012333811 -0.15264916 0.13197821 -0.060318384 -0.06074128 0.10391208
0.08487223 0.0062443023 0.035077546 0.023821529 -6.453086e-05 0.0036625743 0.043787234 0.067849234
0.044342767 0.06604087 0.007203986 0.025996802 0.016240226 -0.07246358 0.010949395 0.051907502
-0.09351691 0.010782323 0.049699157 0.04518889 -0.033535756 0.005312739 0.048298612 0.030511308
0.016947404 0.03228133 0.037206884 0.006759294 0.030317666 0.06389119 0.021490881 0.011504047
0.0046375496 0.006257909 0.0007359704 0.09815963 0.04521811 -0.07230247 0.07044927 -0.03641448
0.019092487 0.016973801 0.034070194 0.105652176 0.020562848 0.014238053 0.05047839 -0.034938116
-0.056494854 0.0018362451 0.029023338 -0.043749873 0.050233673 -0.08196534 -0.0005992161 0.087575875
-0.065479554 0.054558046 0.032860603 0.01948892 0.00016086892 0.013821933 0.09103008 0.0552709
0.016335994 -0.0036347709 0.032016177 0.013821466 -0.066366136 0.08205366 0.020235932 0.05224104
-0.025813947 0.038886376 0.030532848 0.005699148 0.06069014 0.017419085 0.020732956 0.11423872
0.077039175 0.010661267 0.035166617 -0.086653925 0.032547265 0.094942756 6.0116014e-05 0.0060490957
-0.07610426 0.056694016 -0.06599566 -0.034991212 -0.25833517 -0.0002285903 0.033376526 0.021206502
-0.0010837123 0.00409388 0.011975685 -0.0010230816 0.115093865 0.024660375 -0.021268522 0.020408029
0.040989116 0.050767176 -0.23237596 -0.010943649 -0.0252194 -0.26267958 -0.02040235 0.029851193
0.0030445561 0.00010407182 0.0040112515 -0.033559494 0.018965468 0.066104606 0.050371636 0.0059660436
0.066722944 0.011613064 -0.0007633511 0.009595991 -0.04297297 -0.1437863 0.010687246 0.02813225
0.056596436 0.06381435 -0.18210462 -0.0035777332 -0.030868012 -0.0006270688 0.0891838 0.0060206978
0.021741532 -0.152972 0.0016727317 0.0008827491 -0.021416359 0.00015876048 0.026690798 -0.024310153
0.095591255 -0.0050723366 0.006721016 0.012393934 0.032457773 -0.22599211 0.02601973 0.0051499875
-0.00069735444 0.037036113 -0.022141205 -0.18619798 -0.0042445743 -0.23066172 0.046130512 -0.21022391
0.011906997 -0.049381536 0.07899327 0.01281458 -0.007937404 -0.047271695 0.011907664 0.04558987
0.00055266614 0.00091784174 0.016750151 -0.006442802 0.011855395 -0.01693361 0.029256046 -0.013500739
0.08780767 0.0006331333 -0.003086529 -0.015882844 0.0099711185 0.009700819 0.17792942 0.058731195

fc2.bias f4 [40]
00000000: a190 2d3e 1161 d0bd ea3f 4b3e 71da 2d3d
00000010: a39a 023d 9c98 8c3e b73c c1bd 20f8 283e
00000020: 99d5 12bc dcf6 2a3e fce6 283e 216b 893e
00000030: fe43 243e bcc5 1c3e 6b77 e3bd 4a07 f2bd
00000040: 98e6 e2bd 730a 5fbc d88e 003e 61a6 263d
00000050: b3a5 2c3e 8a59 be3d 4d52 223e 1557 893e
00000060: fc03 0ebc f7be 3a3e 0cc1 4d3d e9ac 1b3e
00000070: 4947 d3bd a414 fcbb 8950 2a3e 34a1 21bc
00000080: feab 07bc fd05 2e3e de97 f7bd cda0 0bbc
00000090: 3786 d8bd 02f4 d6bd 4cf0 f8bd 2a8e 873e
0.16949703 -0.10174764 0.198486 0.04244465 0.031885754 0.27460182 -0.094354086 0.16500902
-0.008962058 0.16695732 0.16494364 0.26839545 0.16041562 0.15309805 -0.111067615 -0.118177965
-0.110791385 -0.013613331 0.1255449 0.040686015 0.16860084 0.09294422 0.15851708 0.2682425
-0.008667942 0.1823691 0.050232932 0.15202679 -0.10316331 -0.0076928902 0.16632284 -0.009865094
-0.008280752 0.16994472 -0.12089513 -0.008522225 -0.105724744 -0.104957595 -0.12155208 0.2647565

fc3.weight f4 [4, 40]
00000000: 9dba 43be 8782 843e 55cf fbbd 1b59 253e
00000010: 71c2 283e 964b febe 497c 813e 0e4f 33be
00000020: 918e 893e ac54 3cbe 58c2 45be ec81 febe
00000030: 6c79 2cbe 8be0 37be d4f3 8a3e 041f 953e
00000040: 24de 883e 7fba 793e a1be 93bd fe68 1f3e
00000050: b405 44be e587 2fbc 97e8 38be 6d4d fcbe
00000060: a2bb 893e abbc 57be 9412 153e a4f0 38be
00000070: 3515 8d3e bb21 8c3e 42d0 46be 1e64 863e
00000080: 6e8b 873e 3667 36be c552 953e 4a1d 893e
00000090: 0427 843e 7563 873e 2506 9b3e bfc7 f7be
000000a0: c0d1 b8be 585d 7dbe 3c3d 03be 517c 0a3e
000000b0: c088 003e c07a 143e 05da 80be 4f88 a43e
000000c0: 3e1f 883e d2fc babe 64ff afbe ce11 0d3e
000000d0: d052 bcbe 1203 a33e 3d62 84be edac 8cbe
000000e0: d55d 7cbe 5edd 713e 018c d3be 9caf 023e
000000f0: fe8b b8be 6fb1 79bd 58e9 bcbe 3465 143e
00000100: d15d 893e dbac 9a3e 29b4 e53d cf03 a53e
00000110: 8e40 a0be fa87 8a3e 95e8 b6be 7043 863e
00000120: a596 873e ed2c bdbe 97d2 86be 708a 863e
00000130: d156 88be c577 8cbe eb89 8ebe 3b2d 1b3e
00000140: 2f84 793e d331 39be 537a c0be ac08 f9be
00000150: c0be f7be d4a1 223e 2f4f 41be d2ce 9fbe
00000160: 6de6 563e 5670 7b3e 7d29 763e 43fc 283e
00000170: f3f7 6e3e f3cd 9ebe a1e1 36be 6c5d 13be
00000180: b8f8 35be 0225 243e e652 573e 6808 fbbe
00000190: 01c1 793e b9f3 8ebe f60d 6e3e b296 2a3e
000001a0: 2995 5d3e f771 9abe 3bb2 fcbe 4a49 9bbe
000001b0: e5d6 33bd be69 613e a2f7 693e 25c2 5e3e
000001c0: f142 5c3e 4cb1 6e3e 0633 25be 74a4 593e
000001d0: 08d9 2abe 168e 2ebe 4cea 11be 2d8b 213e
000001e0: ab66 803e 2e85 0f3e 7a25 193f eb5c 163e
000001f0: 7d5c 193e efc8 1d3e d25f 253e 12b5 203e
00000200: 02c5 58bf 676d 723e de70 783e eedf 183e
00000210: a71e 653e ac3e 253e 8fae 0c3e 1408 d93d
00000220: bdb6 023e eaf9 2ebf 6c4e 5b3e ba44 1c3e
00000230: 24c2 753e 84f3 4a3e 8ca7 793e cb31 1b3e
00000240: ed6f 56bf 0c38 4f3e 8bb8 323e 85e8 1b3e
00000250: 5063 613d 0250 58bf 1ddf 7b3e f3ea 58bf
00000260: 697d 56bf c8e2 823e 5ade e23d 5708 5bbf
00000270: 6535 0d3e 443e 0f3e 3dc2 d33d d006 183e
-0.19114156 0.25880834 -0.12295405 0.16147272 0.16480424 -0.49667042 0.25290135 -0.17510626
0.26866582 -0.18391675 -0.19312418 -0.49708498 -0.16843194 -0.1795675 0.2713915 0.29125226
0.2673198 0.24387549 -0.07214094 0.15567395 -0.191428 -0.010713552 -0.18057476 -0.4927782
0.26900965 -0.21068065 0.14557868 -0.18060547 0.27555242 0.27369484 -0.19415382 0.26248258
0.26473564 -0.1781281 0.2916471 0.26780158 0.25811017 0.26443067 0.30278125 -0.48394582
-0.36097527 -0.24742639 -0.12816328 0.13523985 0.12552166 0.1449995 -0.25166336 0.32135245
0.26586336 -0.36521012 -0.34374535 0.13776323 -0.3678193 0.3183828 -0.258562 -0.27475682
-0.24645169 0.23619601 -0.41317752 0.12762302 -0.36044306 -0.06096023 -0.36896777 0.14491731
0.2682939 0.30210003 0.112160034 0.32229468 -0.3129925 0.27056867 -0.3572432 0.26223326
0.2648212 -0.36948338 -0.26332542 0.26277494 -0.26628736 -0.27435127 -0.27839598 0.15153973
0.2436683 -0.18085413 -0.37593326 -0.4863943 -0.48387718 0.15882045 -0.18877862 -0.3121248
0.20986338 0.24554572 0.24039264 0.1650248 0.23336773 -0.31016502 -0.17859508 -0.14391106
-0.1777066 0.16029742 0.21027717 -0.4902985 0.24390031 -0.2792032 0.23247513 0.16659048
0.21638931 -0.30165073 -0.4935473 -0.30329353 -0.04390611 0.22012994 0.2284837 0.21753748
0.21509911 0.23309821 -0.16132745 0.2125414 -0.16684353 -0.17046389 -0.14249533 0.15775748
0.2507833 0.14015648 0.5982281 0.14683883 0.14976688 0.15408681 0.16149834 0.15694073
-0.8467561 0.23674546 0.24261805 0.14929172 0.22374974 0.16137189 0.13738464 0.10597244
0.12765022 -0.6835009 0.21416634 0.15260592 0.2399984 0.19819456 0.2438032 0.15155713
-0.83764535 0.20236224 0.1745321 0.15225418 0.055026352 -0.8449708 0.2459683 -0.84733504
-0.8378511 0.25563645 0.110775664 -0.855596 0.137899 0.13988596 0.103397824 0.14846349

fc3.bias f4 [4]
00000000: 4831 1dbf 298d 703d 1b18 3a3d f8cf 043f
-0.6140332 0.05872837 0.045433145 0.51879835
