MediaPipe_Operation/model_4class/gesture_classifier7.pth (torch, 62400 bytes, 6 tensors)

fc1.weight f4 [76, 150]
0	0x3d76e332	0.060275264
1	0xbc55a0e1	-0.013038845
2	0x3d629f09	0.05532745
3	0xbd9a0cd9	-0.07521982
4	0x3e12c09b	0.14331286
5	0xbdafdf39	-0.08587498
6	0x3d67e974	0.056619123
7	0xbc1c76c5	-0.009549801
8	0x3d7ff51b	0.06248961
9	0xbcf61251	-0.03003803
10	0x3e1c26a6	0.15249118
11	0xbda940f2	-0.082643405
12	0x3d59a649	0.053137098
13	0x3c4a4e71	0.012347803
14	0x3d80b2ea	0.06284125
15	0x3c67e2eb	0.014153223
16	0x3e03af4a	0.12859836
17	0xbd8818f0	-0.066453815
18	0x3d4c3ce9	0.049862776
19	0x3cceee4a	0.02526011
20	0x3d7bb714	0.061453894
21	0x3caffbcc	0.02148237
22	0x3dc3ae30	0.09554708
23	0xbd32cfe4	-0.04365529
24	0x3d51a59e	0.051183335
25	0x3d287b72	0.04113335
26	0x3d2d3fed	0.042297293
27	0xbbd8176c	-0.006594589
28	0x3d80e18f	0.06293022
29	0xbc3bbb33	-0.011458206
30	0x3d430885	0.047615547
31	0x3d61d787	0.055137184
32	0x3d2d0b96	0.042247377
33	0xbb97e877	-0.0046358663
34	0x3d94241e	0.07233451
35	0x3cadb72c	0.021205507
36	0x3d721d5f	0.05911004
37	0x3d29e6a5	0.041479725
38	0x3d1b9028	0.037979275
39	0xbd1c04bd	-0.038090456
40	0x3d7ca92b	0.06168477
41	0x3c1bf032	0.009517716
42	0x3d887901	0.06663705
43	0x3cd39c59	0.025831388
44	0x3d513979	0.0510802
45	0xbdab764f	-0.08372175
46	0x3da6d9e1	0.08147026
47	0xbb117962	-0.0022197594
48	0x3d92861f	0.07154488
49	0x3d111cb0	0.03542775
50	0x3d399e9d	0.04531728
51	0xbd04c8f9	-0.032418225
52	0x3d995dbc	0.074885815
53	0xbc60f68e	-0.013730658
54	0x3d859c18	0.06523913
55	0x3d23cc86	0.03998997
56	0x3d432f08	0.047652274
57	0x3b7eb19f	0.0038863195
58	0x3db9e4da	0.09076853
59	0xbd1e3c0e	-0.03863149
60	0x3d8884e8	0.06665975
61	0x3ca30822	0.019901339
62	0x3d1e3841	0.038627867
63	0xbd1d6541	-0.03842664
64	0x3dee5192	0.11636652
65	0xbd4b880e	-0.0496903
66	0x3d7a8d6c	0.061170027
67	0xba7dadda	-0.000967709
68	0x3d4cfe6b	0.05004732
69	0xbd75b74f	-0.05998927
70	0x3de38ff7	0.111114435
71	0xbd5fd1a8	-0.054643303
72	0x3d008531	0.03137702
73	0xbc9322d9	-0.017960953
74	0x3d183866	0.03716316
75	0xbd92ac92	-0.071618214
76	0x3dc9f788	0.09861666
77	0xbcdbd626	-0.026835512
78	0xbc09dc95	-0.008414407
79	0xbcb51a95	-0.022107402
80	0x3cc870ad	0.02446779
81	0xbb39ec7c	-0.0028369715
82	0x3d6bb0d9	0.057541702
83	0xbbdb0458	-0.0066838674
84	0xbd45c709	-0.048285518
85	0xbc9335ec	-0.017970048
86	0xbba199f8	-0.0049316846
87	0x3d28e7fa	0.041236855
88	0xbbe3aa91	-0.0069478233
89	0x3c60748b	0.013699661
90	0xbdc33bad	-0.095328666
91	0xbcb8cb27	-0.022557808
92	0xbd58169f	-0.05275595
93	0x3d82c36f	0.06384932
94	0xbda6a886	-0.08137612
95	0x3ce52ddc	0.027975969
96	0xbdf76a96	-0.120808765
97	0xbb921f12	-0.0044592703
98	0xbdbb29f0	-0.09138858
99	0x3dd4945b	0.10379859
100	0xbe570289	-0.20997061
101	0x3d651df3	0.055936765
102	0xbe089a38	-0.1334008
103	0x3b1b0a20	0.0023657158
104	0xbe00b458	-0.12568796
105	0x3e04a9d8	0.12955415
106	0xbe8cb1dc	-0.27479446
107	0x3df3fb31	0.11913145
108	0xbe0627cc	-0.13101119
109	0xbcb89dff	-0.022536276
110	0xbdf355c7	-0.11881595
111	0x3deac0c7	0.114625506
112	0xbe8f61c4	-0.28004277
113	0x3e3a3384	0.18183714
114	0xbde295cc	-0.11063728
115	0xbc4abacc	-0.012373637
116	0xbdf3c619	-0.119030185
117	0x3dd5e383	0.10443785
118	0xbe71e125	-0.23621042
119	0x3e1329f4	0.14371473
120	0xbdb10ed3	-0.086454056
121	0xbcbde24e	-0.0231792
122	0xbdb332ed	-0.08749948
123	0x3d58a649	0.052892957
124	0xbe2be3fa	-0.16786185
125	0x3d8ec3cd	0.0697094
126	0xbd3cadf8	-0.046064347
127	0xbd29337f	-0.041308876
128	0xbd222c07	-0.03959277
129	0xbc4be749	-0.012445279
130	0xbd95f999	-0.073229976
131	0xbba8792c	-0.005141398
132	0xbc0387c3	-0.008027974
133	0xbd1d5b1a	-0.03841696
134	0xbc0bcb5f	-0.008532374
135	0xbc642660	-0.013925165
136	0xbd019919	-0.031640146
137	0xbd8921d9	-0.06695909
138	0x3ccbae16	0.024863284
139	0xbd1820a5	-0.037140507
140	0x3b9d3ddb	0.0047986335
141	0xbd915b5d	-0.07097504
142	0x3b87567e	0.0041301837
143	0xbdbc3b0e	-0.09190951
144	0x3d42afad	0.04753082
145	0xbcc295cf	-0.023753075
146	0x3bc46c8c	0.005994385
147	0xbdd151b9	-0.102206655
148	0xbc3ca7ba	-0.0115145985
149	0xbd96c16b	-0.0736111
150	0x3cd5b56c	0.026087485
151	0xbd1cc181	-0.038270477
152	0x3cdcafaf	0.026939241
153	0xbd2c2f39	-0.042037223
154	0x3bc66efd	0.0060557113
155	0xbbc1ed90	-0.0059182122
156	0x3ce83909	0.028347509
157	0xbbf429ea	-0.0074512856
158	0x3d2321c7	0.039827134
159	0x3ca598bf	0.020214437
160	0x3cc762dc	0.024339132
161	0xbad6e68c	-0.0016395613
162	0x3d10e69e	0.035376184
163	0xbc26e021	-0.010185272
164	0x3d4598aa	0.048241295
165	0xb90d24f2	-0.00013460571
166	0x3cf3fd3b	0.029783836
167	0x3b0f6064	0.0021877522
168	0x3d1da0bb	0.038483363
169	0xbc0afe77	-0.008483521
170	0x3d2dd08f	0.042435225
171	0x3c1b0c50	0.009463385
172	0x3c3c6304	0.011498217
173	0x3b8325f5	0.0040023276
174	0x3d311079	0.0432286
175	0xbc4c198d	-0.012457264
176	0x3c7c75b6	0.015408924
177	0x3c880a4d	0.016606474
178	0xbbca9d2c	-0.006183287
179	0xbb4f89ab	-0.003166775
180	0x3d003fc5	0.031310815
181	0xbbed5f80	-0.0072440505
182	0xbba8f0a5	-0.00515564
183	0x3d5b04f6	0.053471528
184	0xbb5b5d25	-0.0033472267
185	0x3c88b0d4	0.01668588
186	0x3cbb0e89	0.02283408
187	0xbc61f94d	-0.013792348
188	0xbbea3ff5	-0.0071487376
189	0xbc9838cf	-0.018581776
190	0xbadc8ec6	-0.0016827218
191	0x3c2bbd17	0.010482094
192	0x3c9ba93a	0.019001592
193	0xbca410cc	-0.02002754
194	0x3cc6128b	0.024178764
195	0xbbc94cb3	-0.0061431765
196	0x3d1fac7b	0.03898285
197	0x3c8ff764	0.01757402
198	0xbbf528af	-0.0074816565
199	0xbcb2fab5	-0.021848062
200	0x3c9a436a	0.018830974
201	0x3bd071f0	0.0063612387
202	0x3d15dd34	0.03658791
203	0x3c8dedab	0.017325243
204	0xbcde575e	-0.02714127
205	0x3c2a24da	0.010384763
206	0x3a632e3b	0.00086662517
207	0x3a1f8a35	0.0006085963
208	0x3be26cae	0.0069099283
209	0x3cd17a29	0.025570946
210	0xbcc654e6	-0.024210405
211	0xbba6046e	-0.005066446
212	0xbc620db8	-0.013797216
213	0x3c113ff9	0.00886535
214	0x39a6dc68	0.00031826203
215	0x3d23afb9	0.039962504
216	0xbc6ca43d	-0.014443454
217	0xbc32fe73	-0.010924923
218	0x3aefe142	0.0018301385
219	0x3b97fa58	0.0046379976
220	0x3c4dc0ec	0.012558203
221	0x3d0c39c3	0.034234773
222	0xbcad967b	-0.021189919
223	0xbcaf0797	-0.021365924
224	0x3bfbd5f7	0.0076854187
225	0xbce60b16	-0.028081458
226	0x3b9fe8f0	0.0048800632
227	0x3d505865	0.05086555
228	0xbd1665fa	-0.036718346
229	0xbceccc9d	-0.028906161
230	0xbb288740	-0.002571538
231	0xbd2bf99a	-0.041986085
232	0xbb28f358	-0.002577981
233	0x3d2d50cf	0.042313393
234	0xbd476aec	-0.048685953
235	0xbd08981d	-0.03334819
236	0xbc49d25d	-0.012318221
237	0xbcc2f63a	-0.02379905
238	0xbc1fd01b	-0.009754206
239	0x3cee6f2a	0.029105742
240	0xbd6e927c	-0.058245167
241	0xbccd8b44	-0.025090821
242	0xbba98117	-0.0051728594
243	0xbc8bdc78	-0.017072901
244	0xbc32c2e5	-0.010910724
245	0x3cd7201c	0.026260428
246	0xbd64b9f0	-0.055841386
247	0xbcd4fc53	-0.025999224
248	0xbc449f1f	-0.012000828
249	0xba326922	-0.0006805827
250	0xbb6f4654	-0.0036510425
251	0x3cc7772f	0.024348823
252	0xbd03e4f8	-0.032200783
253	0xbd369532	-0.044575877
254	0x3a3dcc4a	0.0007240219
255	0xbbaaeb18	-0.0052160136

fc1.bias f4 [76]
0	0xbd90d05d	-0.07070992
1	0xbd8d8fde	-0.06912206
2	0x3be7f9af	0.007079325
3	0xbca9b067	-0.020713998
4	0x3b9d7316	0.004804979
5	0xbc93992f	-0.01801738
6	0xbd0b6433	-0.034031104
7	0x3d95cc39	0.07314343
8	0x3d03aeba	0.032149054
9	0x3bf5e4b6	0.007504071
10	0x3c824532	0.015902136
11	0xbc829764	-0.01594133
12	0x3be08d1f	0.0068527604
13	0xbd20ebf1	-0.03928751
14	0xbd0885c3	-0.03333069
15	0xbda5d804	-0.08097842
16	0xbc361300	-0.011112928
17	0xbdabf140	-0.08395624
18	0x3c9d6752	0.019214306
19	0xbd1f2e75	-0.038862664
20	0x3af3379d	0.0018556003
21	0xbc8f584c	-0.017498158
22	0xbb0facf9	-0.0021923168
23	0x3dcfeb5a	0.101523116
24	0x3b522764	0.0032066936
25	0xbd340c34	-0.04395695
26	0x3d59c2b6	0.053164206
27	0xbdba8f15	-0.09109322
28	0xbd220319	-0.039553735
29	0xbd9abb10	-0.075552106
30	0x3c63becd	0.013900471
31	0x3c766a1c	0.015039947
32	0x3ca5e510	0.020250827
33	0xbdd557b9	-0.104171224
34	0xbad1bb3e	-0.0016001237
35	0xbb26222e	-0.0025349963
36	0xbdadfe93	-0.08495822
37	0x3bc0ae0e	0.005880124
38	0xbcc3557c	-0.023844473
39	0x3b7b8850	0.003838081
40	0xbda8ad4c	-0.08236179
41	0xbc5b62d9	-0.013390266
42	0xbd472239	-0.04861662
43	0x3ca48fed	0.02008816
44	0x3c1e1b23	0.009650025
45	0xbd30499f	-0.04303896
46	0x3d807b72	0.06273545
47	0xbc96507e	-0.018348929
48	0xbce3ed56	-0.027823132
49	0x3dc152bd	0.09439609
50	0xbbbc31de	-0.0057432493
51	0xbd411b77	-0.047145333
52	0x3d77cba1	0.06049693
53	0xbd88c42b	-0.06678041
54	0x3cd432f6	0.025903206
55	0xbd4b2fde	-0.049606197
56	0x3dd8627a	0.10565658
57	0x3d5236e0	0.051321864
58	0xbbf6904e	-0.0075245267
59	0x3db71f9d	0.08941577
60	0x3d11ff8a	0.03564409
61	0x3d461e2a	0.04836861
62	0xbd5c93d9	-0.053851936
63	0xbcaff1c6	-0.021477591
64	0xbb22bb09	-0.002483072
65	0xbde9c785	-0.114150085
66	0xbe287ac3	-0.1645308
67	0xbc37be7d	-0.01121485
68	0x3d6b2e86	0.057417415
69	0x3de355e6	0.11100368
70	0x3beb79cc	0.00718615
71	0xbe36be98	-0.17846143
72	0x3a6aa10c	0.00089503895
73	0x3d6399a7	0.055566456
74	0xbd14d1ec	-0.03633301
75	0xbd8a471b	-0.067518435

fc2.weight f4 [43, 76]
0	0xbda9ce12	-0.08291258
1	0x3c7651a7	0.015034116
2	0x3bc93306	0.0061401157
3	0x3c9a5492	0.018839154
4	0x3ca36724	0.019946642
5	0x3da89a47	0.08232551
6	0xbd9f660d	-0.077831365
7	0x3c0713a6	0.008244431
8	0xbdb73eef	-0.089475505
9	0xbdbf6655	-0.0934569
10	0xbc398690	-0.011323586
11	0x3db1a103	0.08673289
12	0x3d4e3c6b	0.050350588
13	0x3d3af656	0.04564508
14	0x3b4fa4c8	0.003168391
15	0x3cb3447b	0.02188324
16	0x3daf4924	0.08558872
17	0xbc67f52d	-0.014157576
18	0xbca9c899	-0.020725535
19	0xbdafd618	-0.08585757
20	0x3bd4a193	0.0064889877
21	0x3c5365fc	0.012902733
22	0x3da04ed0	0.07827532
23	0xbc958940	-0.018253922
24	0x3d87837d	0.06616876
25	0x3cf4e621	0.02989489
26	0xbd4f3531	-0.050587837
27	0xbb18951a	-0.002328223
28	0x3cff4c8f	0.031164436
29	0xbd902b0a	-0.07039459
30	0x3d25d47f	0.040485855
31	0x3c88624e	0.016648438
32	0x3d9434d8	0.07236642
33	0xbdc9b36e	-0.098486766
34	0x3da6c2a7	0.08142596
35	0x3daa0e96	0.08303563
36	0x3cb8ba17	0.022549672
37	0x3d90ccbd	0.07070301
38	0x3d792200	0.06082344
39	0x3d5de6f6	0.05417534
40	0xbc16ff18	-0.0092160925
41	0x3d3514c2	0.04420925
42	0xbbe6e781	-0.0070466404
43	0xbdb67dac	-0.08910689
44	0x3c30b9b8	0.010786466
45	0xbd764eec	-0.06013386
46	0x3d2c409c	0.042053804
47	0xbd7c3cba	-0.06158135
48	0xbd5cadbb	-0.05387662
49	0x3dc1a641	0.094555385
50	0x3db9df8d	0.09075842
51	0x3cbc7b6e	0.023008075
52	0x3d391c9a	0.045193292
53	0x3ceb40af	0.028717367
54	0x3dc0fe80	0.09423542
55	0x3c1fe1aa	0.009758392
56	0x3d522d2d	0.051312614
57	0x3be8f125	0.007108825
58	0x3be54a2b	0.006997367
59	0x3daca329	0.08429558
60	0x3d85c13a	0.06530996
61	0x3d34a2ec	0.044100687
62	0x3d359c1f	0.04433834
63	0xbd81740e	-0.06320964
64	0x3d8b8c9f	0.06813931
65	0xbdacd938	-0.08439869
66	0xba15d60f	-0.0005715796
67	0x3ae13715	0.0017182553
68	0x3dba3b50	0.09093344
69	0x3d1cebdd	0.038310874
70	0xbd84363e	-0.064556584
71	0x3c5154e5	0.012776588
72	0x3bc0d377	0.0058845836
73	0x3d8fa23d	0.07013366
74	0x3db47ef0	0.08813274
75	0x3d80f2f9	0.06296343
76	0x3e91945b	0.284335
77	0xbb7b581d	-0.003835208
78	0xbce2786d	-0.027645314
79	0x3b26d206	0.0025454774
80	0xbb0c2f16	-0.002139037
81	0x3bd548bb	0.0065089143
82	0x3e7c8b68	0.24662554
83	0xbcd13b39	-0.025540935
84	0x3e5edfe4	0.21765095
85	0x3d80942c	0.062782615
86	0xbce184a2	-0.027529065
87	0xbc044f42	-0.008075537
88	0x3c1ed875	0.009695162
89	0x3c25bf38	0.010116391
90	0xbcfd5d17	-0.030928178
91	0xbc405fab	-0.011741559
92	0xbc0ff62c	-0.008786719
93	0x3c598738	0.013276868
94	0xbb359d85	-0.0027712297
95	0x3e8047ea	0.25054866
96	0x3993f97b	0.00028223902
97	0xba274268	-0.000638044
98	0xbb351485	-0.0027630639
99	0xbd618f47	-0.05506828
100	0xbad95f11	-0.0016584118
101	0x3a955395	0.0011392707
102	0x3e9089f9	0.28230265
103	0x3a973ba9	0.0011538166
104	0xbbf545f9	-0.007485148
105	0x3db4b594	0.08823696
106	0x39d90334	0.00041391852
107	0x3c19ff7a	0.009399289
108	0x3c0820e3	0.008308622
109	0x3e430ad0	0.19047093
110	0xbb66446b	-0.0035135995
111	0xbb56c7e4	-0.0032772953
112	0x3c7d4a27	0.015459574
113	0xbc194e84	-0.0093570985
114	0x3ab65a2c	0.0013912371
115	0xbc084641	-0.008317531
116	0x3c1fc507	0.009751565
117	0xbc0fa6b8	-0.008767776
118	0x3c2130a6	0.009838259
119	0x3e3c3401	0.18379213
120	0xbab1abbd	-0.001355521
121	0x3e8069a5	0.250806
122	0xbc35e409	-0.011101731
123	0x3e364fcc	0.17803878
124	0x3e5313f3	0.20613079
125	0x3c008793	0.007844823
126	0xbb516911	-0.0031953494
127	0xbc741daf	-0.014899655
128	0xbc949756	-0.018138569
129	0xbcc3e659	-0.02391355
130	0xba80fb98	-0.0009840606
131	0xbbde6fcb	-0.006788229
132	0x3af07511	0.0018345435
133	0xbb9899b5	-0.004656995
134	0xbb08f978	-0.0020900648
135	0xbb265e7a	-0.0025385902
136	0xb9949a8f	-0.00028343915
137	0xbac75477	-0.0015207668
138	0xbc2dbba5	-0.01060382
139	0x3e8d4287	0.2758982
140	0x3b883ec5	0.0041578733
141	0x3e3a669e	0.18203208
142	0xbd2031d8	-0.039110035
143	0xbd15f3d1	-0.036609475
144	0xbadfa734	-0.001706338
145	0x39c2e269	0.00037171252
146	0x3e88fb4b	0.2675422
147	0xbd33b586	-0.043874286
148	0x3ba14a96	0.0049222214
149	0x3a85cad6	0.0010207545
150	0x3bbe3bf3	0.0058054863
151	0xb9b52b9c	-0.00034555502
152	0xbd99c7fc	-0.07508847
153	0x3c043238	0.008068614
154	0x3c8a77c5	0.016902814
155	0x3c901d1e	0.01759201
156	0x3c9dd84f	0.019268183
157	0x3dc89f86	0.09796052
158	0xbdb419ae	-0.087939605
159	0x3bc403af	0.0059818844
160	0xbdba2ac1	-0.09090186
161	0xbdbffd74	-0.09374514
162	0xbc40df07	-0.011771924
163	0x3d8c5075	0.068512835
164	0x3d3bf84c	0.04589109
165	0x3d07d2a1	0.033159856
166	0x3c06034b	0.008179496
167	0x3c92422e	0.017853823
168	0x3db0a545	0.08625273
169	0xbc762352	-0.015023069
170	0xbc6acb10	-0.01433064
171	0xbdcbb520	-0.09946656
172	0x3b802637	0.0039108056
173	0x3cb04c2c	0.021520697
174	0x3d8b4eda	0.06802149
175	0xbcbd95d3	-0.02314273
176	0x3d82d0b0	0.0638746
177	0x3cf7f176	0.030266505
178	0xbda4056b	-0.08008846
179	0xbbddc1be	-0.0067674806
180	0x3ce80533	0.028322792
181	0xbd9aa69c	-0.075513095
182	0x3d2471fa	0.04014776
183	0x3c171972	0.009222375
184	0x3dbaad1a	0.09115048
185	0xbdb140f9	-0.08654971
186	0x3d86e3e7	0.06586438
187	0x3d8e58f9	0.06950564
188	0x3c8038b1	0.015652033
189	0x3d74c9b8	0.059762686
190	0x3d7ced46	0.06174972
191	0x3d695b57	0.056971874
192	0xbc6990c3	-0.014255705
193	0x3d1d168f	0.03835159
194	0xbc558ae2	-0.0130336005
195	0xbdc3027d	-0.09521959
196	0x3c93c2e8	0.018037274
197	0xbd69c182	-0.05706931
198	0x3d1343cf	0.03595334
199	0xbda0a69f	-0.078442805
200	0xbd80abfd	-0.06282804
201	0x3dad387a	0.08458038
202	0x3dd13442	0.102150455
203	0x3ca04a2d	0.01956662
204	0x3d10a047	0.035309102
205	0x3c85459e	0.016268548
206	0x3dc89bea	0.09795363
207	0x3b19ea46	0.0023485585
208	0x3cdea5a0	0.027178586
209	0x3c32bd07	0.010909325
210	0x3bb1341c	0.0054078232
211	0x3dba8587	0.091074996
212	0x3d814913	0.06312766
213	0x3d2895a3	0.04115833
214	0x3d0d8233	0.034547996
215	0xbd80a609	-0.06281669
216	0x3d5fbaf5	0.054621655
217	0xbdc1bb0c	-0.094595045
218	0x3b1511ed	0.002274628
219	0x3c70122b	0.014652769
220	0x3dc26861	0.09492565
221	0x3d2298cd	0.039696503
222	0xbd889ad6	-0.066701576
223	0x3be4359a	0.0069643976
224	0x3ba11bbf	0.0049166377
225	0x3d88288d	0.066483594
226	0x3d98ea3d	0.074665524
227	0x3d9fe0e9	0.0780657
228	0x3d45a2d9	0.048251007
229	0xbd8bbfa4	-0.06823662
230	0xbd36e483	-0.04465152
231	0xbd4ce89c	-0.05002652
232	0x3bba2ec0	0.0056818426
233	0x3c0ae5fa	0.008477682
234	0x3df462eb	0.119329296
235	0x3cf8dd0a	0.030378837
236	0x3d58ad7a	0.052899815
237	0x3c89d5ca	0.016825575
238	0x3ba1054e	0.0049139624
239	0xbba0dcc1	-0.0049091284
240	0xbd2977be	-0.04137396
241	0xbddacf5b	-0.10684081
242	0xbd9144ce	-0.070932016
243	0xbd9e92f7	-0.07742875
244	0x3bc226ed	0.0059250505
245	0xbd83b7f9	-0.064315744
246	0x3d2d26c6	0.042273305
247	0x3dce59d6	0.100757286
248	0xbbb1643e	-0.005413561
249	0x3c56a958	0.013101898
250	0xbb66fa85	-0.0035244536
251	0xbbcbf1f7	-0.006223913
252	0xbc6ff4c5	-0.01464576
253	0xbd95362e	-0.072857246
254	0x3daa69b2	0.08320941
255	0xbd46d164	-0.048539534

fc2.bias f4 [43]
0	0x3d8537e4	0.06504801
1	0x3da58238	0.08081478
2	0x3d7491fc	0.059709534
3	0x3d42ad9d	0.04752885
4	0xbd83517f	-0.064120285
5	0x3d95c5d4	0.07313123
6	0x3d1350da	0.035965778
7	0x3e039044	0.12848002
8	0x3d2d21af	0.04226845
9	0xbd7d2099	-0.061798666
10	0x3d86f0c1	0.06588889
11	0xbd883bfe	-0.066520676
12	0xbd84a7e7	-0.06477337
13	0x3d86b6b1	0.06577814
14	0x3d962aff	0.073324196
15	0x3d48a4c7	0.04898527
16	0x3db4c888	0.08827311
17	0x3df90b2b	0.12160333
18	0x3d744360	0.059634566
19	0x3d76098d	0.060067702
20	0x3d864097	0.06555288
21	0xbd9bb7ab	-0.07603391
22	0x3d98de35	0.07464258
23	0xbd59571a	-0.053061582
24	0xbd8c735f	-0.06857943
25	0x3d81a1ad	0.06329665
26	0x3d5ee8d7	0.054421272
27	0xbd8583ff	-0.06519317
28	0x3d7a4371	0.061099473
29	0x3dfa3f4d	0.12219105
30	0x3d840696	0.06446569
31	0x3d3a69ec	0.04551117
32	0x3d9c4a16	0.07631318
33	0x3e137f8b	0.14404123
34	0x3d245ed6	0.040129505
35	0xbd8c632f	-0.06854855
36	0x3d4cbc93	0.049984526
37	0xbd87d82a	-0.06633027
38	0x3d4fa0d7	0.0506905
39	0x3d7ff2f4	0.062487558
40	0x3d8dee75	0.06930248
41	0x3d9111fa	0.07083507
42	0x3d83e464	0.064400464

fc3.weight f4 [4, 43]
0	0xbe32f579	-0.17476453
1	0x3e6bce03	0.23027806
2	0xbe3ee038	-0.1864022
3	0xbe1e9c9d	-0.1548943
4	0x3e6b842d	0.2299964
5	0xbe4679e5	-0.19382437
6	0xbdaa31be	-0.08310269
7	0xbeb6dd04	-0.35715497
8	0xbe3603fc	-0.17774957
9	0x3e55cbc2	0.20878509
10	0xbe44cd40	-0.19218922
11	0x3e81c285	0.2534372
12	0x3e88244e	0.26590198
13	0xbe422219	-0.1895832
14	0xbe8b2eeb	-0.27184233
15	0xbda41cfe	-0.08013342
16	0x3e04cb0f	0.12968086
17	0xbebcbe3d	-0.3686389
18	0xbe3ee4a2	-0.18641904
19	0xbda8c3e8	-0.08240491
20	0x3e60d6b7	0.21956907
21	0x3e79cd73	0.24394779
22	0xbe3dcca5	-0.18535097
23	0x3e580355	0.21095021
24	0x3e7a0cdb	0.24418966
25	0xbe43c2c1	-0.19117261
26	0xbe2f4bd0	-0.17118764
27	0x3e80a93d	0.2512912
28	0xbe3c0fde	-0.18365428
29	0xbe2541fd	-0.16138454
30	0x3e55c426	0.20875606
31	0x3e5edb01	0.21763231
32	0x3e4cfa7f	0.20017432
33	0xbedc26eb	-0.42998442
34	0xbd0ad588	-0.033895046
35	0x3e7156b6	0.23568234
36	0xbe23f413	-0.16011076
37	0x3e7ea05b	0.24865858
38	0x3e64b737	0.22335516
39	0xbe3726da	-0.17885914
40	0xbe475a77	-0.19468103
41	0x3e652bd3	0.22379999
42	0x3e69b495	0.22822793
43	0xbea941d1	-0.33058026
44	0x3e710c83	0.23539929
45	0xbeab7931	-0.334909
46	0x3e96d8da	0.2946232
47	0xbe81c697	-0.25346825
48	0xbeae4b9f	-0.3404207
49	0x3e8a6528	0.270303
50	0x3e09cd42	0.13457206
51	0x3e77cc15	0.24198945
52	0xbe65fd93	-0.22460012
53	0xbea5a288	-0.32350564
54	0xbe7a683a	-0.24453822
55	0xbe63ae2f	-0.22234415
56	0xbeabd3fe	-0.33560175
57	0x3e64956b	0.22322623
58	0xbd62c38f	-0.05536228
59	0x3d53aea9	0.05168024
60	0x3e05d836	0.13070759
61	0xbeabf099	-0.33582
62	0xbd497abe	-0.04918932
63	0x3e60a361	0.21937324
64	0xbe83153c	-0.25602138
65	0xbeac98d3	-0.33710346
66	0xbe66ecf5	-0.2255133
67	0xbe7d1cb5	-0.24717982
68	0xbea69d16	-0.32541722
69	0x3e94879f	0.2900972
70	0xbe67cd00	-0.22636795
71	0xbeae1e5a	-0.3400753
72	0x3e8399fd	0.2570342
73	0x3e5b6590	0.21425462
74	0x3e4989e1	0.19681503
75	0x3e370f67	0.1787697
76	0x3d80c50d	0.062875845
77	0xbd24de66	-0.04025116
78	0xbe765619	-0.24056281
79	0x3e9a8277	0.30177662
80	0xbe7a1e12	-0.24425533
81	0x3e50fbba	0.20408526
82	0xbea262e1	-0.31716064
83	0xbeaad510	-0.3336568
84	0x3e5589fb	0.20853417
85	0x3e70c0b1	0.23511006
86	0x3e36e98e	0.17862532
87	0x3e20908d	0.15680142
88	0x3e392119	0.18079032
89	0x3d97447a	0.07386108
90	0xbdc531e7	-0.09628659
91	0x3e2390b9	0.15973176
92	0x3dd7c93e	0.10536431
93	0x3d9708e6	0.07374744
94	0x3dfd7b05	0.1237698
95	0xbe1b00e2	-0.15137056
96	0x3e3232ba	0.17402163
97	0xbdd7bc72	-0.1053399
98	0xbde44ad6	-0.11147086
99	0x3e17b658	0.14815652
100	0x3dbc1b64	0.09184912
101	0xbe9b8a8d	-0.30379143
102	0xbebf281c	-0.3733529
103	0x3d9558df	0.072923414
104	0x3e33f942	0.17575553
105	0xbea118d1	-0.31464246
106	0x3e09c165	0.1345268
107	0xbdb9afaa	-0.090667084
108	0x3e494813	0.196564
109	0xbe281c98	-0.16417158
110	0xbde180b1	-0.11010874
111	0x3e277ed4	0.16356975
112	0x3d7a6a21	0.06113637
113	0xbe0117a4	-0.12606674
114	0x3e22e664	0.159082
115	0xbe766ebd	-0.24065681
116	0x3e074e12	0.13213375
117	0xbeabdfc4	-0.33569157
118	0xbec4e36e	-0.38454765
119	0x3dd89c8c	0.10576734
120	0xbeb8d7e7	-0.3610222
121	0xbdf3f0c9	-0.119111605
122	0x3c15ff7c	0.0091551505
123	0xbdd792cb	-0.105260454
124	0x3e0b475f	0.13601445
125	0x3e472720	0.19448519
126	0x3e15c875	0.1462725
127	0x3e098d84	0.1343289
128	0x3e07f500	0.13277054
129	0x3e52a6b1	0.205714
130	0xbf343e15	-0.7040723
131	0x3e596328	0.21229231
132	0xbe621726	-0.22079143
133	0x3dafc093	0.085816525
134	0x3e5882d8	0.21143663
135	0xbe9b288f	-0.3030438
136	0x3db51961	0.08842731
137	0xbe513b42	-0.20432761
138	0x3dca4d97	0.0987808
139	0x3e6106ef	0.21975301
140	0x3db7b4e8	0.08970052
141	0x3db80163	0.089846395
142	0x3e3f7f07	0.18700801
143	0xbd3e4af0	-0.046458185
144	0x3ed017d8	0.4064319
145	0x3e3c76be	0.18404672
146	0x3d8426fd	0.06452749
147	0x3e629be2	0.22129777
148	0x3ee293d4	0.4425341
149	0xbf30bda2	-0.69039357
150	0x3dac7855	0.08421389
151	0x3e7aba83	0.24485211
152	0x3e1cfa50	0.15329862
153	0x3dbe52b6	0.092931196
154	0x3e4bb459	0.19893016
155	0xbe362fe6	-0.1779171
156	0x3dc30d04	0.09523967
157	0x3e5096bb	0.20369999
158	0x3e2d849e	0.1694512
159	0xbf3414e0	-0.7034435
160	0xbdce0f51	-0.10061515
161	0x3d287b5d	0.041133273
162	0x3dc9739a	0.098365024
163	0x3ec59530	0.38590384
164	0x3dcd5ef2	0.10027875
165	0xbe0b1701	-0.13582994
166	0x3dbfeece	0.0937172
167	0xbf2bf151	-0.67165095
168	0x3e5291b2	0.20563391
169	0x3e30e6bd	0.1727552
170	0xbf2cb297	-0.67460006
171	0xbf39fb12	-0.7264873

fc3.bias f4 [4]
0	0xbebf0fee	-0.3731684
1	0x3e41c0f8	0.18921268
2	0x3dfbe26e	0.122990474
3	0x3d878fbb	0.06619211
