MediaPipe_Operation/model_4class/gesture_classifier10.pth (torch, 163402 bytes, 6 tensors)

fc1.weight f4 [126, 240]
-0.06463052 0.013975507 -0.06407404 0.041491397 -0.13984145 0.06600653 -0.06286906 0.015181503
-0.05793621 0.043123826 -0.13677722 0.067308605 -0.062332902 0.018050294 -0.053173162 0.046336584
-0.13493158 0.06493888 -0.05440963 0.023538655 -0.049829792 0.04078662 -0.12668237 0.06544768
-0.049707703 0.023788594 -0.045467604 0.049106415 -0.12284504 0.06553103 -0.042561408 0.017331807
-0.037999533 0.046338137 -0.10669942 0.056833424 -0.031685792 0.01563715 -0.029082328 0.047060788
-0.08755622 0.05108906 -0.02355454 0.011465091 -0.02019781 0.048686877 -0.06675965 0.041434076
-0.013654129 0.009171968 -0.010446008 0.031613372 -0.04309185 0.033388637 -0.008705367 0.0058982265
-0.0030487322 0.03543282 -0.020074675 0.029439578 -0.00028510552 0.0029082505 0.0035962916 0.03059808
0.004348737 0.02316853 0.0121966405 -0.0038470593 0.012334161 0.017111653 0.026621904 0.012683693
0.02009782 -0.001389085 0.019883033 0.020225553 0.045218814 0.004735003 0.027439028 -0.004843341
0.027496833 0.0010704225 0.06626894 -0.008133486 0.038246855 -0.009427205 0.034729153 -0.018765168
0.08479256 -0.024919722 0.04357738 -0.013296657 0.040897097 -0.03105189 0.10152407 -0.036895014
0.045183055 -0.01560649 0.043716725 -0.039633825 0.11496793 -0.051158875 0.049417067 -0.017359661
0.048174556 -0.041765716 0.12199993 -0.060627505 0.052002955 -0.012687178 0.049924828 -0.06369682
0.1294879 -0.072200306 0.054792553 -0.013093247 0.051738724 -0.07502718 0.13202156 -0.07678269
0.056596555 -0.011222134 0.047916584 -0.07606502 0.12974562 -0.0815955 0.05086442 -0.012134505
0.047457803 -0.07540315 0.12385932 -0.08055138 0.049230237 -0.01579862 0.04504362 -0.05996621
0.11326262 -0.07294301 0.04309311 -0.01581159 0.040908646 -0.057772737 0.10411755 -0.06485771
0.0422079 -0.01316085 0.033486523 -0.048442524 0.08870694 -0.049993493 0.037607603 -0.0089755645
0.026247086 -0.050410815 0.0729392 -0.032740623 0.030882861 -0.006392469 0.02328342 -0.026399396
0.060786925 -0.021985339 0.022493642 -0.005342078 0.015942512 -0.017094897 0.0437077 -0.012796368
0.017207794 -0.0080203395 0.009965542 -0.00603948 0.029898176 -0.00695256 0.009810199 -0.0031029293
0.004136367 -0.0011859724 0.014066095 0.0028648197 0.0008289948 -0.0002536975 -0.0009717791 0.007515453
-0.0017459411 0.004608136 -0.006304371 0.0030690038 -0.0048499173 0.014126283 -0.019368382 0.00666058
-0.015201282 0.0011001355 -0.012899129 0.020905131 -0.040532015 0.013877083 -0.02130755 0.002848204
-0.019276857 0.02015473 -0.054933175 0.014518936 -0.030478992 0.006679501 -0.025319532 0.017490303
-0.07080225 0.018162524 -0.035846986 0.010188284 -0.029535843 0.02925026 -0.083060995 0.023809478
-0.041525744 0.006718469 -0.034684066 0.02326607 -0.08904782 0.027443506 -0.048078053 0.005197725
-0.03720269 0.033764843 -0.09584236 0.026088161 -0.04381512 -0.00038533146 -0.043079175 0.022783276
-0.100984894 0.022607341 -0.04641424 -0.0013242594 -0.05453036 0.0006076627 -0.1053001 0.020533614
0.008121999 0.049415123 -0.071872905 0.014184575 -0.013539948 0.008210065 0.0030151955 0.047489937
-0.06303154 0.0081685865 -0.010333972 0.011532652 0.0015977077 0.041282598 -0.058817506 -0.00032057206
00000000: 025d 84bd 86f9 643c 4039 83bd e2f2 293d
00000010: 9932 0fbe 6e2e 873d 7ec1 80bd d7bb 783c
00000020: 854e 6dbd 9ca2 303d 540f 0cbe 18d9 893d
00000030: c950 7fbd 36de 933c 1acc 59bd 6ecb 3d3d
00000040: 812b 0abe adfe 843d a2dc 5ebd 23d4 c03c
00000050: 531a 4cbd df0f 273d 06b9 01be 6f09 863d
00000060: 4e9a 4bbd 4ce0 c23c 3d3c 3abd cf23 493d
00000070: 2e96 fbbd 2235 863d df54 2ebd 6ffb 8d3c
00000080: 66a5 1bbd 0fcd 3d3d 3a85 dabd 2aca 683d
00000090: f6c8 01bd 7b19 803c 103e eebc d0c2 403d
000000a0: ad50 b3bd c342 513d 73f5 c0bc 14d8 3b3c
000000b0: e175 a5bc e46b 473d 49b9 88bd c7b6 293d
000000c0: 91b5 5fbc 0646 163c bc25 2bbc 067d 013d
000000d0: 1481 30bd 86c2 083d f5a0 0ebc e945 c13b
000000e0: 3dcd 47bb 0122 113d a573 a4bc 452b f13c
000000f0: 377a 95b9 5998 3e3b c3af 6b3b d3a8 fa3c
00000100: da7f 8e3b eecb bd3c 6bd4 473c f21e 7cbb
00000110: 3915 4a3c bd2d 8c3c 2e16 da3c 44cf 4f3c
00000120: 2fa4 a43c f511 b6ba bee1 a23c 0fb0 a53c
00000130: 5d37 393d 1628 9b3b d0c7 e03c e4b4 9ebb
00000140: 0a41 e13c 6b4d 8c3a 03b8 873d 5042 05bc
00000150: bca8 1c3d 9074 1abc 2840 0e3d 69b9 99bc
00000160: b9a7 ad3d 7224 ccbc 327e 323d 39da 59bc
00000170: b783 273d 8960 febc daeb cf3d 3a1f 17bd
00000180: de11 393d 5db2 7fbc 4f10 333d 1457 22bd
00000190: 4e74 eb3d f88b 51bd 8d69 4a3d d935 8ebc
000001a0: af52 453d 8712 2bbd 19db f93d 8c54 78bd
000001b0: 0d01 553d e2dd 4fbc fa7d 4c3d 7a73 82bd
000001c0: 7a98 043e c1dd 93bd 286e 603d 0f85 56bc
000001d0: fceb 533d daa7 99bd a930 073e 3e40 9dbd
000001e0: cad1 673d 0bdd 37bc 2e44 443d fac7 9bbd
000001f0: 09dc 043e 8b1b a7bd 3657 503d cecf 46bc
00000200: 1d63 423d f76c 9abd f5a9 fd3d 1ff8 a4bd
00000210: a5a5 493d 1c6c 81bc a97f 383d 219f 75bd
00000220: 3cf6 e73d 2563 95bd 6782 303d 4f87 81bc
00000230: d38f 273d 1ba3 6cbd 953b d53d 1ed4 84bd
00000240: 31e2 2c3d 9ba0 57bc 2a29 093d ab6b 46bd
00000250: fcab b53d fac5 4cbd 6e0a 1a3d 3f0e 13bc
00000260: 2104 d73c 927b 4ebd 2661 953d 081b 06bd
00000270: 0efe fc3c eb77 d1bb dfbc be3c 8c43 d8bc
00000280: b6fb 783d 991a b4bc 9644 b83c 990c afbb
00000290: df99 823c 990a 8cbc d806 333d dca7 51bc
000002a0: 5cf7 8c3c be67 03bc 8346 233c d5e6 c5bb
000002b0: 05ed f43c 4dd2 e3bb f5ba 203c 845a 4bbb
000002c0: 5c8a 873b a172 9bba 7b75 663c b3bf 3b3b
000002d0: e650 593a b402 85b9 febe 7eba 3044 f63b
000002e0: 10d8 e4ba d9ff 963b e694 cebb 5721 493b
000002f0: 0eec 9ebb ed71 673c 71aa 9ebc ff40 da3b
00000300: cc0e 79bc 6c32 903a de56 53bc 3d41 ab3c
00000310: e604 26bd b45c 633c 2c8d aebc efa8 3a3b
00000320: 80ea 9dbc 881b a53c 9c01 61bd d5e0 6d3c
00000330: 14af f9bc b7df da3b e86a cfbc d347 8f3c
00000340: c500 91bd 93c9 943c 4ad4 12bd c3ec 263c
00000350: 27f5 f1bc 3e9e ef3c e21b aabd 180c c33c
00000360: e616 2abd 9a26 dc3b e110 0ebd 7c98 be3c
00000370: b45e b6bd 34d1 e03c 7eed 44bd ad51 aa3b
00000380: d961 18bd 014d 0a3d 0049 c4bd d7b6 d53c
00000390: 7c77 33bd 5006 cab9 ca73 30bd fea3 ba3c
000003a0: 2bd1 cebd 0833 b93c dc1c 3ebd c692 adba
000003b0: 3a5b 5fbd 8e4b 1f3a 94a7 d7bd 1c36 a83c
000003c0: 2212 053c 8367 4a3d 1a32 93bd 6b66 683c
000003d0: a8d6 5dbc 8283 063c 969a 453b cf84 423d
000003e0: ae16 81bd 89d5 053c d24f 29bc 73f3 3c3c
000003f0: 2d6a d13a f117 293d a0ea 70bd 7412 a8b9

fc1.bias f4 [126]
-0.05910703 0.059840277 -0.0784643 0.098726295 0.018106261 0.08800603 0.004859499 0.02189036
0.051862087 -0.006485299 0.07424146 0.02368047 -0.09481681 0.056748085 0.0046726195 -0.051722836
0.006598762 0.022789575 0.08909884 0.02495392 -0.0023131366 0.0010521496 -0.0009774467 0.006627806
-0.0025581229 -0.012963057 0.014552804 0.0046438402 -0.0029094892 -0.09760551 0.024505483 0.0060350224
-0.03228612 -0.046617977 -0.004307142 -0.10476579 0.06182023 0.00727336 0.09272153 -0.012357427
0.0142341 0.031422734 0.0236095 0.0007887206 -0.073566504 -0.1035193 -0.0756854 -0.013422898
0.0061534755 -0.0053022737 -0.019748254 0.004235217 -0.08619951 -0.016341286 0.011480897 -0.005429236
0.0691126 0.008694984 -0.032555185 0.017763004 0.03619025 -0.0910933 -0.03119535 0.009289107
-0.08128294 -0.059331544 0.0321075 -0.0023032115 0.032453913 0.02547849 0.008951526 0.03834897
0.0072611887 -0.0051927376 0.049841385 -0.006738745 -0.0007960799 -0.05414155 -0.11059534 0.011016838
0.007305667 0.038937885 0.03354309 -0.070317306 -0.010959181 0.008418423 0.0044464814 -0.05294662
-0.011273604 0.015290861 -0.00065933814 0.07940223 -0.0033459067 -0.08549118 -0.06555317 -0.0024755965
0.013624519 0.033714414 -0.09072511 -0.03961679 0.07751902 0.02305235 0.02697077 0.10415435
0.016826073 0.0756775 0.0059607946 0.038468897 0.0007500741 0.0050261267 -0.038650576 -0.0034457077
-0.09972331 0.017079107 0.017572772 -0.03525947 -0.08930745 0.05087636 -0.07151154 -0.036622725
-0.04801332 -0.049138848 -0.045316655 0.0152593525 0.0055658855 -0.0049302685
00000000: 371a 72bd 141b 753d e4b1 a0bd 0331 ca3d
00000010: 9553 943c 813c b43d 6f3c 9f3b 6a53 b33c
00000020: 576d 543d a282 d4bb e80b 983d 8cfd c13c
00000030: 512f c2bd ae70 683d c61c 993b 53db 53bd
00000040: 6d3a d83b 34b1 ba3c 7479 b63d 2a6c cc3c
00000050: fe97 17bb 48e8 893a ab1d 80ba 112e d93b
00000060: 2ea6 27bb 0063 54bc e26e 6e3c 5b2b 983b
00000070: 21ad 3ebb 66e5 c7bd b9bf c83c 70c1 c53b
00000080: 733e 04bd 7ef2 3ebd ed22 8dbb 728f d6bd
00000090: 3637 7d3d 5e55 ee3b c9e4 bd3d ce76 4abc
000000a0: 2436 693c 20b5 003d b668 c13c 25c2 4e3a
000000b0: 09aa 96bd ed01 d4bd f200 9bbd b7eb 5bbc
000000c0: 18a3 c93b b2be adbb 17c7 a1bc 93c7 8a3b
000000d0: 5e89 b0bd 29de 85bc 5f1a 3c3c bce7 b1bb
000000e0: e88a 8d3d 6875 0e3c 9658 05bd b883 913c
000000f0: 3a3c 143d 208f babd 648d ffbc 5731 183c
00000100: ac77 a6bd a205 73bd 2783 033d 7af1 16bb
00000110: 65ee 043d 44b8 d03c 6ca9 123c cf13 1d3d
00000120: 44ef ed3b d727 aabb 7b26 4c3d b1d0 dcbb
00000130: 05b0 50ba 88c3 5dbd cf7f e2bd f87f 343c
00000140: 6064 ef3b 557d 1f3d 7b64 093d 8502 90bd
00000150: 238e 33bc 6ded 093c cab3 913b 8ede 58bd
00000160: ecb4 38bc 8586 7a3c 6fd7 2cba a39d a23d
00000170: 0047 5bbb 0016 afbd be40 86bd 9e3d 22bb
00000180: 6039 5f3c 2018 0a3d 16ce b9bd 3745 22bd
00000190: 4bc2 9e3d 48d8 bc3c cef1 dc3c e04e d53d
000001a0: d5d6 893c cefc 9a3d c552 c33b 9091 1d3d
000001b0: 9fa0 443a 35b2 a43b 1150 1ebd 62d1 61bb
000001c0: bc3b ccbd 7ce9 8b3c c6f4 8f3c 3c6c 10bd
000001d0: d3e6 b6bd bb63 503d a474 92bd b601 16bd
000001e0: 9da9 44bd d145 49bd f59d 39bd 5d02 7a3c
000001f0: 0862 b63b 178e a1bb

fc2.weight f4 [75, 126]
0.0143913375 -0.019691493 0.06157609 -0.040287953 -0.00093675934 -0.03215079 -0.00038412114 -0.001815699
0.015214962 0.0050968686 0.013179997 0.00019016193 0.051579114 -0.04206125 -0.0006149201 0.04211031
0.0021550618 0.0013265328 -0.061977185 0.009154958 -0.01622029 0.0022504819 0.00019283281 0.0063471943
0.013613184 0.0046802387 -0.019391479 0.004557993 -0.004719849 0.03752625 -0.0056125713 0.020274773
0.03155449 0.029309975 0.0024634774 0.041971657 -0.022287391 0.006711785 -0.047596768 0.01957284
0.0011843038 0.010552488 -0.0018696268 0.0004278924 0.05401932 0.02847075 0.022957645 0.015907938
0.0040211007 0.0037697714 0.0075431247 0.0011417407 0.048338458 0.022101222 0.014474065 0.007050069
-0.031577565 0.0010494344 -0.0043275156 0.004350322 -0.01026026 0.041470487 0.020909358 0.0030977288
0.03634319 0.05802476 -0.020469304 0.008530603 -0.017010218 -0.013566476 0.023562934 -0.02495546
-0.00027618284 0.0017167857 -0.011364165 0.017682798 0.001953499 0.022747057 0.02701041 0.0007877205
0.008797611 -0.006435993 -0.0018711548 0.026483808 0.021921856 -0.0067135515 0.00052983523 0.0102229165
0.003870932 -0.0023267898 -0.0016978836 -0.02450392 0.0011926015 0.041024234 0.056407448 0.00457661
-0.0010373254 -0.0071107587 0.042208474 0.0029950712 -0.04005858 0.00843526 -0.0064540193 -0.02424809
0.0030273218 -0.027308626 0.0025628507 -0.006129255 9.712828e-05 -0.00064639247 0.016770821 0.0012419203
0.03761925 -0.008458999 -0.017693479 0.012671212 0.046502154 0.011682423 0.04833997 0.022744613
0.013945378 0.053952076 0.031351823 -0.0019219228 0.0069147875 0.011715065 -1.4287638e-29 -3.142343e-39
-6.487525e-21 7.8180826e-35 -9.641562e-35 -4.2370423e-23 -8.0754754e-25 -2.4825056e-24 -9.297936e-28 -1.68517e-40
-1.7649363e-33 7.5133763e-28 -3.5812e-41 -9.630923e-21 -2.5849093e-28 1.5482338e-36 -2.985061e-23 -3.2481835e-30
-2.9913762e-33 -1.735786e-32 -7.561086e-26 -2.031738e-29 5.19157e-40 -3.6068512e-29 -4.6705087e-28 -1.0718936e-21
-5.993885e-29 -1.1455729e-27 -1.9601212e-33 -2.0135912e-22 -1.109262e-34 -4.0218328e-29 -7.870537e-25 -1.9001546e-30
-1.3628334e-24 3.7482e-41 -7.5163475e-38 3.641e-41 6.95272e-40 -1.655e-41 2.4615837e-34 -1.771895e-25
-3.4301e-40 -1.63243e-40 -3.056537e-27 -8.620256e-20 -3.698733e-34 6.8013e-41 -2.54107e-40 -2.0053298e-25
-7.022335e-32 -1.0133489e-31 -5.375364e-33 -5.7045e-41 -1.6822316e-29 -4.894773e-33 -1.2277552e-32 -3.42175e-40
-1.1578129e-24 -7.07417e-35 -1.6412e-41 -5.883953e-25 -2.8491295e-37 9.653842e-34 1.5257e-41 -1.5638238e-29
3.37445e-40 -1.6064912e-25 -1.3060407e-28 -1.2268698e-25 -9.674607e-39 -4.2564556e-31 1.5071e-41 -3.471e-41
-8.298987e-24 -7.9839e-41 1.5357e-41 -1.3871103e-24 -1.5799176e-16 -2.3676114e-24 -5.267558e-37 -4.05422e-27
-2.0125688e-33 -2.373018e-29 -8.5792055e-24 -5.69925e-40 -3.3382994e-28 -7.0559525e-28 -5.293236e-20 -1.5151e-41
-8.472379e-24 -2.4075077e-34 -1.172123e-35 -1.3831968e-23 7.125174e-34 -6.1649762e-30 -9.5175304e-26 -3.1228437e-21
8.31486e-35 -2.9663987e-30 1.0693254e-33 -3.374085e-27 -2.486022e-27 -1.2314456e-30 -7.51442e-33 -2.008609e-26
-1.67594e-40 -2.996967e-24 3.39225e-40 -8.207169e-28 -2.04986e-29 -3.675121e-26 -1.846625e-26 1.6237e-41
-5.6460628e-27 7.609583e-36 -1.0437154e-35 -6.295483e-26 -9.248436e-29 -3.319231e-33 -1.4012163e-26 6.94905e-40
-8.6872414e-20 -3.2804449e-35 -9.00933e-25 -9.351577e-26 -0.048917837 -0.022375142 0.017303696 0.06815301
00000000: a5c9 6b3c 0e50 a1bc 3637 7c3d fb04 25bd
00000010: db90 75ba 8cb0 03bd de63 c9b9 c0fc edba
00000020: 2d48 793c a203 a73b eaf0 573c 3466 4739
00000030: 9f44 533d 6b48 2cbd 9732 21ba dc7b 2c3d
00000040: f03b 0d3b 0edf ad3a cadb 7dbd adfe 153c
00000050: 6ae0 84bc d27c 133b 2a33 4a39 20fc cf3b
00000060: d509 5f3c b05c 993b e1da 9ebc 375b 953b
00000070: f7a8 9abb 20b5 193d a9e9 b7bb 4817 a63c
00000080: 483f 013d 791b f03c 4b72 213b 79ea 2b3d
00000090: 0c94 b6bc 89ee db3b d4f4 42bd 3857 a03c
000000a0: a43a 9b3a 58e4 2c3c 440e f5ba bf56 e039
000000b0: 5d43 5d3d 7e3b e93c ac11 bc3c 5d51 823c
000000c0: 70c3 833b 450e 773b 512c f73b 76a6 953a
000000d0: 8cfe 453d 9f0d b53c a124 6d3c 4404 e73b
000000e0: 7a57 01bd 2d8d 893a d5cd 8dbb 258d 8e3b
000000f0: a61a 28bc f5dc 293d 1a4a ab3c 4403 4b3b
00000100: 99dc 143d 5fab 6d3d 3eaf a7bc f1c3 0b3c
00000110: 0359 8bbc ed45 5ebc 0e07 c13c 656f ccbc
00000120: a2cc 90b9 c505 e13a c330 3abc 84db 903c
00000130: 4606 003b 0958 ba3c ef44 dd3c 077f 4e3a
00000140: db23 103c 06e5 d2bb 8941 f5ba 92f4 d83c
00000150: 7795 b33c 5afd dbbb a4e4 0a3a 057e 273c
00000160: 76af 7d3b 0e7d 18bb 858b deba 72bc c8bc
00000170: 1151 9c3a 0709 283d 7f0b 673d 63f7 953b
00000180: ddf6 87ba 5e01 e9bb cbe2 2c3d f548 443b
00000190: 7714 24bd 0b34 0a3c 3d7c d3bb eea3 c6bc
000001a0: 0866 463b 57b6 dfbc 80f5 273b ebd7 c8bb
000001b0: 59b1 cb38 aa72 29ba f662 893c eec7 a23a
000001c0: a516 1a3d 9d97 0abc eaf1 90bc ea9a 4f3c
000001d0: 0b79 3e3d a267 3f3c 2200 463d e952 ba3c
000001e0: 287b 643c dafc 5c3d c56a 003d 07e9 fbba
000001f0: 7195 e23b 8bf0 3f3c d4e4 908f 9337 2280
00000200: 7e17 f59d 1dd7 cf06 8928 0087 0be4 4c9a
00000210: 82ec 7997 1713 4098 e954 9392 c2d5 0180
00000220: 0ba0 1289 c01b 6e12 d463 0080 49ec 359e
00000230: 8dd6 a391 8cb5 0304 4459 109a 11c3 838e
00000240: 8983 7889 1b41 b48a 1334 bb95 ef0a ce8f
00000250: 33a7 0500 9be3 3690 ab03 1492 e0fa a19c
00000260: 8af6 9790 f585 b592 2bd7 2289 a16d 739b
00000270: 3b72 1387 60ee 4b90 d294 7397 ab28 1a8e
00000280: 65e3 d297 7c68 0000 4c9d cc81 7f65 0000
00000290: 2392 0700 222e 0080 ad99 a307 9859 5b96
000002a0: 2cbc 0380 0ec7 0180 ef29 7293 408a cb9f
000002b0: aed2 f587 98bd 0000 59c4 0280 703f 7896
000002c0: 6c4f b68b 4b8a 038c ad48 df89 059f 0080
000002d0: 3b99 aa8f 2852 cb89 aafe 7e8a d8b9 0380
000002e0: b229 b397 4e10 bc86 c02d 0080 7a19 3697
000002f0: d6e6 c182 e766 a008 882a 0000 3097 9e8f
00000300: a9ac 0300 bddf 4696 728f 2591 0ee1 1796
00000310: de58 6980 4021 0a8d 032a 0000 c260 0080
00000320: 9886 2099 8fde 0080 cf2a 0000 1aa5 d697
00000330: f026 36a5 602f 3798 e73e 3383 ad9a a093
00000340: 9b32 2789 12a7 f08f 2bf2 2599 b834 0680
00000350: 0197 d391 b09c 5f92 4cf7 799f 3c2a 0080
00000360: 30e1 2399 9f01 a087 7248 7985 4bc6 8599
00000370: 47c6 6c08 c614 fa8e 84a4 eb95 95f4 6b9d
00000380: 010c dd06 b1a9 708e 12ac b108 49a9 8593
00000390: 84f6 4493 40d0 c78d 8211 1c8a 4aec c694
000003a0: 2fd3 0180 0ce1 6798 9fb1 0300 3c0c 8292
000003b0: 68e1 cf8f b2fb 3595 81e1 b694 432d 0000
000003c0: e1a9 df93 83d6 2105 45f9 5d85 5dde 9b95
000003d0: c879 ea90 1ee0 8989 0ec5 8a94 1d91 0700
000003e0: 271f cd9f 1a6b 2e86 a269 8b97 a988 e795
000003f0: 125e 48bd 134c b7bc 7bc0 8d3c ce93 8b3d

fc2.bias f4 [75]
-0.06784038 -1.0466e-41 0.075616926 0.09811301 0.13645515 -0.064284615 0.017620167 0.071539365
0.08041543 0.14071034 -0.07131214 0.068711326 0.078073986 -0.072414584 0.07384729 -5.3962997e-25
0.07958323 0.013596651 0.009952403 0.0751862 0.00646428 -0.065106854 0.052941084 5.650342e-31
0.08043327 0.07720739 0.0066051437 -0.07482557 -0.07537589 0.07120786 0.0650266 1.3016527e-38
0.0798016 0.099522546 0.0630102 0.004742072 -0.07309165 2.902438e-23 -0.067041695 0.0045281225
-0.07401176 0.13961108 0.087405495 0.0017019296 0.0038440262 -0.04398773 0.08070907 0.056240216
0.12030565 0.028950768 0.088716365 0.00012639347 -0.07247332 0.090216696 0.00760935 0.0873711
-0.081313744 0.006475781 -0.0745345 -0.073784284 0.050325476 -2.39961e-40 0.06805563 -0.07872688
0.028778702 0.11894395 0.040854782 0.058210976 -0.06856172 0.086050384 -0.05976062 0.14704211
0.068600416 0.085421674 0.044016276
00000000: e6ef 8abd 2d1d 0080 0cdd 9a3d 79ef c83d
00000010: e6ba 0b3e a7a7 83bd 2b58 903c 3b83 923d
00000020: d8b0 a43d 5f16 103e 190c 92bd 86b8 8c3d
00000030: 41e5 9f3d 194e 94bd 3f3d 973d e401 2797
00000040: 88fc a23d 7dc4 5e3c 670f 233c 39fb 993d
00000050: 50d2 d33b be56 85bd c0d8 583d 345d 370d
00000060: 33ba a43d e81e 9e3d f66f d83b 263e 99bd
00000070: ad5e 9abd 6dd5 913d ab2c 853d c8bc 8d00
00000080: 056f a33d 7ad2 cb3d 7e0b 813d 6263 9b3b
00000090: 13b1 95bd 715a 0c1a 284d 89bd a560 943b
000000a0: 7a93 97bd 35f6 0e3e a701 b33d 4813 df3a
000000b0: 0fec 7b3b 7a2c 34bd cc4a a53d 245c 663d
000000c0: cf62 f63d 292a ed3c edb0 b53d 7d88 0439
000000d0: e46c 94bd 88c3 b83d db57 f93b 9fef b23d
000000e0: d287 a6bd ca32 d43b 8ba5 98bd 371c 97bd
000000f0: 1622 4e3d ea9c 0280 c060 8b3d 8f3b a1bd
00000100: 50c1 eb3c e398 f33d 5857 273d a26e 6e3d
00000110: 166a 8cbd 2f3b b03d 8dc7 74bd 3592 163e
00000120: 607e 8c3d 8ff1 ae3d 694a 343d

fc3.weight f4 [4, 75]
0.15738441 -1.1209417e-08 -0.13156012 -0.047825128 -0.33258075 0.1586457 0.1278822 -0.1874185
-0.13135149 -0.33861688 0.18369669 -0.08743545 -0.1322853 0.18535578 -0.12659627 -7.508066e-07
-0.1359281 0.13309392 0.13253272 -0.12990761 0.18587017 0.17410691 -0.10052965 -3.5953394e-07
-0.043841965 -0.06588019 0.19254161 0.18206757 0.17630301 -0.12696706 -0.10475298 -6.446708e-05
-0.13683955 -0.17323467 -0.2011173 0.18949358 0.17391276 7.147529e-05 0.1608927 -0.02889334
0.18124081 -0.33794627 -0.044232298 0.1872445 0.16810334 0.1458076 -0.13725825 -0.20253462
-0.18776669 -0.04177962 -0.048688404 0.17075935 0.1919757 -0.051635366 0.1886091 -0.052799918
0.19436012 0.18692459 0.17211396 0.18598188 -0.20568427 0.0012660719 -0.121098265 0.19206735
0.09355042 -0.18281187 -0.16735348 -0.1747817 0.1687351 -0.0528912 0.15628363 -0.34168318
-0.11717351 -0.049043298 -0.040551342 -0.14263284 -1.910687e-05 -0.23525536 -0.06131854 0.12759054
-0.12011336 0.10642459 0.08499973 -0.230206 0.11686162 -0.16375864 -0.2293087 -0.22740255
-0.14498065 -0.23087186 -3.528595e-05 -0.23549782 0.115383014 0.115514226 -0.23489015 0.18648402
-0.12005254 -0.19957787 -3.4634595e-06 -0.06732613 -0.03887935 0.19364718 -0.16790618 -0.16072902
-0.22663589 -0.22950116 -2.381147e-05 -0.23747864 0.27676663 0.24342543 0.18378995 -0.14814916
-1.0982269e-06 -0.13456134 -0.089083865 -0.16126753 0.11627981 -0.05992594 0.1841251 0.15915753
-0.19827762 -0.23436742 0.23236847 0.2614608 -0.12747896 -0.06247516 0.15721492 -0.15004236
-0.060128268 0.18940279 -0.06138705 -0.17612733 0.1838289 -0.16226518 -0.16215506 0.22530797
0.00016861323 -0.22077873 -0.16655813 0.07023143 0.26973066 0.20388687 0.24708508 -0.16058566
-0.060595285 -0.10300389 0.11717255 -0.23414724 -0.06605012 -0.050352253 -0.0837795 0.005378669
0.16336176 -0.34361887 0.10596709 -0.08352995 -0.3068366 0.08694348 0.18611345 0.122713715
-0.067088075 0.15026082 0.1856193 -0.07650941 0.16534245 0.0060128095 0.1776754 -0.30085605
-0.2583858 0.16943684 0.14196503 -0.09182578 0.10908506 0.00028763645 -0.28348902 -0.31087053
0.13783768 -0.07275421 -0.060921554 0.15767981 0.14248188 3.180941e-05 0.18048428 -0.14227168
0.014506116 0.13327195 -0.07771653 -1.5365288e-07 -0.07988036 0.10324402 -0.061778482 0.11417762
-0.33382216 0.13520171 -0.2465372 0.09657617 0.17265083 0.041967396 -0.16028655 0.06184625
-0.32903036 -0.25416133 -0.06777321 -0.30063027 0.12757842 -0.3475745 -0.07232664 0.12759627
-0.07290394 -0.06869145 0.056004044 -1.2265271e-10 0.15150724 -0.06884986 -0.32001477 -0.15286386
0.055458046 0.015187965 -0.05590169 -0.31433234 -0.08666922 0.12137107 0.13958955 -0.30150312
-0.17203705 0.056155182 0.0026661684 0.16089505 0.43671787 0.08127895 0.057330832 0.025736654
0.014044075 0.1863035 0.084049694 0.026292717 0.14113614 0.17878936 0.0431332 0.16417491
0.015598498 0.17845908 0.017073046 -0.029017974 0.15732978 -0.6231449 0.043265507 0.08522624
0.00052725326 0.37553307 0.35516238 -0.6246463 0.04261231 0.027221924 0.15345125 0.12870578
00000000: 6129 213e 8a93 40b2 b2b7 06be 48e4 43bd
00000010: 0648 aabe 0574 223e 8df3 023e a3ea 3fbe
00000020: 0181 06be 315f adbe fc1a 3c3e 5b11 b3bd
00000030: cc75 07be e8cd 3d3e 74a2 01be 098b 49b5
00000040: bc30 0bbe c649 083e a8b6 073e 8006 05be
00000050: c054 3e3e 1549 323e 7de2 cdbd f805 c1b4
00000060: a293 33bd 31ec 86bd a129 453e ec6f 3a3e
00000070: c788 343e a703 02be bb88 d6bd 8032 87b8
00000080: ab1f 0cbe 6e64 31be b2f1 4dbe 9b0a 423e
00000090: 3016 323e 01e5 9538 0ec1 243e bab1 ecbc
000000a0: 3197 393e 4b07 adbe ed2c 35bd 06bd 3f3e
000000b0: 4823 2c3e 964e 153e 6d8d 0cbe 3c65 4fbe
000000c0: e945 40be 1b21 2bbd 7e6d 47bd 8adb 2e3e
000000d0: 4795 443e 9b7f 53bd be22 413e ba44 58bd
000000e0: 5706 473e 2969 3f3e a43e 303e 0972 3e3e
000000f0: e69e 52be 53f2 a53a 5e02 f8bd 4ead 443e
00000100: 5d97 bf3d 0933 3bbe b65e 2bbe f9f9 32be
00000110: e5c8 2c3e 71a4 58bd d108 203e 19f1 aebe
00000120: aaf8 efbd a0e1 48bd 2a19 26bd 580e 12be
00000130: b147 a0b7 c8e6 70be 2629 7bbd 18a7 023e
00000140: fefd f5bd 23f5 d93d 5714 ae3d 1fbb 6bbe
00000150: 2555 ef3d 58b0 27be e6cf 6abe 37dc 68be
00000160: cf75 14be ac69 6cbe 0000 14b8 5726 71be
00000170: ee4d ec3d b992 ec3d 0b87 70be abf5 3e3e
00000180: 1bde f5bd 245e 4cbe c86d 68b6 48e2 89bd
00000190: f43f 1fbd 724b 463e 99ef 2bbe 2696 24be
000001a0: 3d13 68be 5a02 6bbe bebe c7b7 9a2d 73be
000001b0: 5bb4 8d3e 8444 793e 6f33 3c3e 6ab4 17be
000001c0: ca66 93b5 73ca 09be 9a71 b6bd 5123 25be
000001d0: 1c24 ee3d e774 75bd 4a8b 3c3e 31fa 223e
000001e0: 4a09 4bbe 03fe 6fbe 00f2 6d3e 31de 853e
000001f0: d889 02be f4e5 7fbd f3fc 203e b4a4 19be
00000200: 0f49 76bd cef2 413e fd70 7bbd b95a 34be
00000210: a53d 3c3e d828 26be fa0b 26be 22b7 663e
00000220: c5cd 3039 d213 62be 378e 2abe 7fd5 8f3d
00000230: 231a 8a3e b8c7 503e df03 7d3e 9170 24be
00000240: c332 78bd b4f3 d2bd 29f8 ef3d 4bc4 6fbe
00000250: 4945 87bd 2a3e 4ebd 9694 abbd 8c3f b03b
00000260: 4e48 273e d0ee afbe 4605 d93d c011 abbd
00000270: b019 9dbe 6c0f b23d 8694 3e3e 5451 fb3d
00000280: 7965 89bd f9dd 193e fc12 3e3e f7b0 9cbd
00000290: 884f 293e 1a07 c53b 8af0 353e ce09 9abe
000002a0: 254b 84be da80 2d3e 485f 113e 280f bcbd
000002b0: fd67 df3d e9cd 9639 7925 91be 6c2a 9fbe
000002c0: 5225 0d3e 2900 95bd e188 79bd d176 213e
000002d0: c5e6 113e 186b 0538 dfd0 383e abaf 11be
000002e0: 0fab 6d3c 7178 083e d829 9fbd c8fb 24b4
000002f0: 5098 a3bd 9a71 d33d 6f0b 7dbd f5d5 e93d
00000300: bdea aabe 5172 0a3e 3f74 7cbe bac9 c53d
00000310: 61cb 303e 01e6 2b3d 2822 24be 7e52 7d3d
00000320: ab76 a8be 6f21 82be aecc 8abd 36ec 99be
00000330: eba3 023e 49f5 b1be fd1f 94bd 99a8 023e
00000340: a94e 95bd 1aae 8cbd 7f64 653d abdb 06af
00000350: b724 1b3e 2801 8dbd fad8 a3be 5888 1cbe
00000360: fa27 633d f1d6 783c 2cf9 64bd 2bf0 a0be
00000370: a27f b1bd 6591 f83d 90f0 0e3e 9e5e 9abe
00000380: 7b2a 30be fa02 663d e2ba 2e3b acc1 243e
00000390: 7c99 df3e 9475 a63d bcd3 6a3d add5 d23c
000003a0: 1f19 663c 58c6 3e3e 3f22 ac3d d363 d73c
000003b0: fe85 103e 8f14 373e 70ac 303d 781d 283e
000003c0: d890 7f3c fabd 363e c6dc 8b3c 1ab7 edbc
000003d0: 0f1b 213e 6d86 1fbf 2c37 313d 188b ae3d
000003e0: 5e37 0a3a df45 c03e d8d7 b53e d2e8 1fbf
000003f0: 3f8a 2e3d 8300 df3c 5322 1d3e 73cb 033e

fc3.bias f4 [4]
-0.4450602 0.14406647 0.19478065 0.15243435
00000000: eede e3be 2986 133e 9474 473e c017 1c3e
