MediaPipe_Operation/model_4class/gesture_classifier11.pth (torch, 163402 bytes, 6 tensors)

fc1.weight f4 [126, 240]
00000000: 5290 8e3d eabb 0cbc 2b2e 9a3d e118 3dbd
00000010: 8ea8 043e 7182 4bbd fa6e 7d3d 1889 14bc
00000020: 3ac4 8f3d 7314 1abd 342d 023e 5b89 88bd
00000030: cb9c 553d 4ddf 91bc fd32 7c3d 4ef0 03bd
00000040: 1505 e53d da98 97bd a4fd 493d 06cc 8dbc
00000050: 7cfa 583d d90c 0cbd 27e8 d43d 1c15 a4bd
00000060: 3baa 293d 4c7d 8fbc 5d32 3f3d 772a d4bc
00000070: fad8 b53d c256 a9bd 4873 073d 7ca6 9ebc
00000080: 0158 183d 0546 d2bc d989 8e3d caea 95bd
00000090: 2d25 e63c 40c2 8dbc 13b0 f03c 2795 b4bc
000000a0: 02fe 6e3d 8346 81bd bf04 9c3c 6bc4 88bc
000000b0: 7329 df3c edc2 cfbc ab48 4b3d 4aee 7ebd
000000c0: a407 5b3c 390b b6bc 4c21 ae3c 75f6 28bd
000000d0: e1c4 063d eb63 5abd c613 6c3b cc8f 9fbc
000000e0: e033 8b3c 4174 84bc c1cd 893c 3a08 2bbd
000000f0: 6d23 d7bb 0c4a 6fbc d5dd 123c 7b5c 08bc
00000100: 936b 13bb dbb2 febc 6287 44bc 5e77 52bc
00000110: ca51 3a3a cb87 cbbb c83f 9dbc 7ab9 b6bc
00000120: c632 8fbc 8477 f6bb 1543 3fbc f142 9c3b
00000130: 7d7f 12bd a974 81bc 286d dabc c02d 14bb
00000140: 4ff7 b3bc 8e62 693c f4d8 49bd 2e23 22bc
00000150: 3beb 15bd 4051 2dba bff0 f3bc 039c d93c
00000160: 875f 8dbd dd2c 803b a114 27bd 13ff 9a3b
00000170: 3f6c 25bd 0135 113d cba7 b3bd 7f7b 783c
00000180: 8cfa 49bd 7d41 4c3c 5583 3cbd 2bf2 173d
00000190: 4df1 e4bd 11b1 aa3c 0b3d 59bd 771e 853c
000001a0: 144c 53bd efed 523d 2910 03be 1e6a d63c
000001b0: da63 66bd ba11 b23c cee3 75bd b0e6 733d
000001c0: 5886 0fbe 8a04 133d b4b3 71bd 8645 e53c
000001d0: 0fad 84bd a366 9b3d 5d81 17be 109f 183d
000001e0: fd8a 78bd 47c9 cd3c cbd9 88bd d515 9f3d
000001f0: 2dce 1abe 0f3c 3a3d 8237 72bd 689a c63c
00000200: 99f2 83bd 0ada 8e3d 8a7e 14be 6f14 383d
00000210: ebc8 6abd 2862 843c b472 72bd 81ed 763d
00000220: e811 0abe be8b 483d 6f01 4fbd 2330 453c
00000230: 8d9f 57bd 1458 333d 5f3b f3bd 33c6 3c3d
00000240: 2b06 30bd 574b 133c 7c30 40bd 9772 ef3c
00000250: d995 c3bd e207 5e3d ce75 1abd 73e4 333c
00000260: 6713 1cbd 65eb d33c 75b6 97bd a0c3 4b3d
00000270: 2c89 f3bc 94b5 123c 28a6 02bd d4d3 6f3c
00000280: da64 5cbd f1d6 3c3d fe18 97bc b125 dd3a
00000290: 5ac7 bdbc 32d7 e8ba efae 13bd 6407 383d
000002a0: 70f9 21bc c073 073a e591 56bc e4f5 26bc
000002b0: 384c 9bbc 4e46 333d 49c1 e5bb 6573 7eb9
000002c0: cc52 dabb 022f 49bc ca78 333a 1e3a 253d
000002d0: b31c 193b 591d f9ba f9ec 413a 241f d8bc
000002e0: 1836 b43c b169 063d ff8f 583c fe6c 54bb
000002f0: 511d de3b 338b 0dbd 8221 263d f523 f73c
00000300: f8ac 673c 92cc a8ba 9877 673c 8118 03bd
00000310: f1fb 613d cb4a e23c 2bee be3c 9931 463b
00000320: 10c4 a13c 8037 b9bc 8344 8c3d 2751 b43c
00000330: 351e ff3c 1e2b bc39 8df9 c03c b176 bcbc
00000340: 687b 993d cdcc 633c ee31 223d 4ec3 d23a
00000350: e3cd fb3c 3bcd 98bc 6425 c63d 281b 423a
00000360: e21f 463d 301c 37b9 49fc 193d f6f3 e6bc
00000370: 5c19 e83d e01a e4bb 6501 543d 8471 5b3a
00000380: 5abb 3f3d 4e2d bdbc da72 fb3d 4668 aebb
00000390: a54d 823d ee6e a73b 41b1 593d f898 d4bc
000003a0: 217f 083e 7260 edbb 5524 973d ae98 d23b
000003b0: 108c 783d c51f 1abd df5f 093e f75d 53bb
000003c0: 98b1 b8bc 2c1b a7bb 26d0 e8bb 44e6 8d3c
000003d0: e601 d63c 945e 2dbd 4d4d d3bc 7d34 33bb
000003e0: 22f0 c0bb 6344 9c3c 9406 b63c 1e6b 13bd
000003f0: 1236 dbbc 944e eebb be6f 32bc fced fb3b
0.06961121 -0.008589724 0.07528337 -0.046166304 0.12954924 -0.049684945 0.061873414 -0.009065889
0.07019849 -0.03761716 0.12712556 -0.066668235 0.052151483 -0.017806673 0.061572064 -0.032211594
0.1118261 -0.07402201 0.049314156 -0.0173092 0.052973256 -0.03419194 0.10395842 -0.08011839
0.04142211 -0.0175158 0.04667889 -0.025899155 0.088792756 -0.08268501 0.033068925 -0.019366495
0.037193302 -0.025668154 0.06959886 -0.07320173 0.028093899 -0.01730454 0.029380834 -0.022043778
0.05834771 -0.06312277 0.019045232 -0.016695222 0.027241444 -0.025361503 0.04962985 -0.06223897
0.013368521 -0.022222148 0.021256112 -0.041250665 0.032902602 -0.053317945 0.0036022528 -0.019477747
0.01699251 -0.016168715 0.016821744 -0.041755892 -0.0065655024 -0.0146050565 0.008964022 -0.00832283
-0.002249454 -0.031091144 -0.011995168 -0.012845842 0.00071075244 -0.006211256 -0.019195452 -0.022305239
-0.017480265 -0.0075215716 -0.011673708 0.004768722 -0.035766114 -0.015802698 -0.026663378 -0.0022610277
-0.021968512 0.014244689 -0.04927917 -0.009896083 -0.036601286 -0.00066115335 -0.029777883 0.02656365
-0.06902986 0.003911598 -0.040791158 0.0047301142 -0.040386435 0.03545094 -0.08772238 0.0151661625
-0.049311206 0.0124667855 -0.046023685 0.037096184 -0.11178837 0.020836385 -0.05303673 0.016249878
-0.051586226 0.051496442 -0.12799133 0.026173647 -0.05624757 0.021736968 -0.060031705 0.059546173
-0.14016092 0.035893 -0.05900927 0.027987253 -0.06478321 0.07587936 -0.14795442 0.03726107
-0.060679425 0.02512039 -0.06682166 0.07767836 -0.15117712 0.045467433 -0.059134968 0.024243549
-0.06442756 0.069751814 -0.14501396 0.044941362 -0.057320517 0.016160086 -0.05919142 0.060285095
-0.13483393 0.048961394 -0.050538477 0.0120354025 -0.052642394 0.04378517 -0.118765585 0.046087455
-0.042974632 0.00899013 -0.04692124 0.029229445 -0.095500655 0.054206736 -0.037710004 0.0109797595
-0.03810444 0.02586908 -0.07407848 0.04974711 -0.029728495 0.008954424 -0.03189674 0.014637906
-0.053807117 0.04610342 -0.018444534 0.0016872195 -0.023166347 -0.0017764329 -0.0360555 0.044928923
-0.009886131 0.00051670894 -0.013096307 -0.010190461 -0.018957242 0.04376822 -0.007011567 -0.00024266315
-0.006662702 -0.012279274 0.0006846307 0.040338628 0.0023363053 -0.0019005939 0.00073976774 -0.026382037
0.02199845 0.03281564 0.013217925 -0.0032413597 0.006778397 -0.03455658 0.0405593 0.030168513
0.01414036 -0.001287835 0.0141276345 -0.03200579 0.05517191 0.027623555 0.023306927 0.0030241965
0.01974681 -0.022609472 0.06849005 0.022011353 0.031142334 0.0003589028 0.023556495 -0.023005815
0.07494241 0.013903809 0.039598398 0.0016079934 0.030737823 -0.018652549 0.096751004 0.00074045593
0.04837025 -0.0001746274 0.037594113 -0.028192502 0.11332962 -0.0069612116 0.051759142 0.0008371102
0.04680953 -0.023092892 0.122777656 -0.005322489 0.06362466 0.0051096594 0.053147558 -0.025951847
0.13329746 -0.007244163 0.07379977 0.0064268922 0.06068045 -0.037627954 0.13415478 -0.0032252052
-0.02254562 -0.0050996747 -0.0071048914 0.017321713 0.026123952 -0.042326525 -0.025793696 -0.0027344518
-0.005888001 0.019075578 0.022219934 -0.035990827 -0.026759181 -0.007272551 -0.010890899 0.007688282

fc1.bias f4 [126]
00000000: afc5 563d 8bbb 983c 8ba8 503d f42a 6139
00000010: 71d6 9d3a 3161 0139 b62d d3bd f715 af38
00000020: 4923 d1bb 7257 af38 5008 afbd 3681 c93d
00000030: 313e 8ab9 e21b 81bd f1cf adbd 5e59 2fbd
00000040: 20fe 0dbd 7e1c 9d3d dbb5 773d f9e1 b0bd
00000050: 4f9e 8db9 bd51 0c3d bd0b 9d3c 2f0f 863b
00000060: 2667 e53d 93dd b13b 6181 463d 4b69 253c
00000070: a8ad 3f3a fb6d a7bc a754 f23a 8a20 d1bd
00000080: 0371 e83c 95ec 003a 8586 6f3b 954d 373c
00000090: 7370 36ba ff15 9bbd 8e92 fc3c e728 42bd
000000a0: 9f40 40bd 9a3d b73a 1427 dfba c969 863c
000000b0: 74f0 5c3a 317e 9037 f52d 7f3d 79f4 e43c
000000c0: 6c4d 5e39 2d13 743b d950 b437 392b 163c
000000d0: 6ad9 3cb9 88d0 283c 9aa6 15bc b6a7 893c
000000e0: 5fea 3fbd 8deb 763b ac54 bfbd 9f24 623d
000000f0: c201 4f3a a395 be3d fc44 b43d e5a3 0f3d
00000100: 13e6 8839 e330 143d 94d5 90bb ed4a aebd
00000110: 08e7 42bc 8664 0ebd 75e7 cabd 2c65 263d
00000120: d4d2 acbd 393f 38bd e36c 183b 3db3 0b3c
00000130: 0aa7 4fbd 3b0c 683c 3ea6 83bd 6fd9 89bb
00000140: 6c9b b4b9 6592 443c 742f 2b3d 271d eebd
00000150: deba 46bd 4110 9d3d 4dcf 40bc 18c2 0b3c
00000160: 9e35 8d39 49b0 893b a0ce 7e3c 6bbc 6d38
00000170: 17e6 733c cac3 5fbc 1c21 a7bd d580 883c
00000180: 9c5d 4a3d c88f deba 7254 c93b fdec c83a
00000190: 95eb 813b 61a6 79bd 62a6 9fbd 58cc 103a
000001a0: aad9 613d 9ae4 e4ba 57f0 a1bd 3925 173c
000001b0: df9b c73d e86f 813c 2117 c1bd f2b5 6abd
000001c0: 765a d53c abe2 833b 85b8 c63c aad9 573d
000001d0: 65d1 5a3d fb6e 8ebd 75eb fe3c 5cd1 043d
000001e0: 2c5e ae3b 3776 1d3a fa85 c9bd 3998 023d
000001f0: 1f4b 383a f24b 0d3a
0.05243462 0.018644115 0.050941985 0.00021473673 0.0012042058 0.00012338605 -0.10311453 8.3487415e-05
-0.00638238 8.360938e-05 -0.08546507 0.09839098 -0.00026367747 -0.06304146 -0.08486927 -0.042809837
-0.03466618 0.0767145 0.060476165 -0.08636851 -0.00027011565 0.03425764 0.019170636 0.0040911655
0.11201315 0.005428025 0.04846323 0.010095905 0.00073119486 -0.020438185 0.0018488363 -0.102112845
0.0283742 0.0004918066 0.0036548686 0.011187931 -0.0006959505 -0.07572555 0.030831601 -0.04740229
-0.046936627 0.0013980151 -0.0017025196 0.016407864 0.00084281643 1.72249e-05 0.062299687 0.027948605
0.00021200412 0.0037242875 2.149532e-05 0.0091655785 -0.0001801007 0.010303624 -0.009133959 0.016803604
-0.046854373 0.003767702 -0.09342322 0.055210706 0.0007896685 0.09305885 0.0880222 0.03506841
0.0002611136 0.036179435 -0.0044199917 -0.08510385 -0.011895902 -0.034763835 -0.09907428 0.04062383
-0.0843865 -0.04498217 0.002325826 0.00852662 -0.05069641 0.014163072 -0.064281926 -0.0042068283
-0.00034448074 0.011997794 0.0417933 -0.11626654 -0.048518054 0.07669116 -0.011768174 0.008530162
0.00026933564 0.004201923 0.015552193 5.668068e-05 0.014886401 -0.01365752 -0.08160612 0.016662994
0.04940568 -0.0016980106 0.0061441 0.0015329417 0.003964851 -0.060949687 -0.07795407 0.00055236137
0.05513922 -0.0017463148 -0.07907169 0.009225183 0.09746527 0.015800431 -0.094282396 -0.057302423
0.026044112 0.0040248237 0.024257908 0.052697815 0.05342235 -0.069547616 0.031118134 0.032426223
0.0053212848 0.000600669 -0.09840007 0.031883452 0.0007030237 0.000539004

fc2.weight f4 [75, 126]
00000000: 5b9e 0180 46ba 0080 9255 998a 5fde c38c
00000010: aa2a 1808 333e 0000 ed39 0080 283b 868c
00000020: b2a3 0180 f53e 0080 8b41 0080 7e2e 1b8a
00000030: 79b3 0000 859d 0180 ce3d 0000 c821 1f95
00000040: 3ce3 3990 5bcd 1500 5a0c 1391 5743 0080
00000050: 54b3 0080 a329 ac04 8d41 0000 bb45 0080
00000060: f63e 0000 6ca4 8a99 080d dda3 3391 0180
00000070: dd3e 439c 58f9 6486 578c 0100 c58e 0100
00000080: 0ce8 8f86 2244 0080 9a13 4594 d751 8894
00000090: 6923 bb90 a53e 0000 6342 0000 5eb2 879c
000000a0: 3dc0 398f 6041 0000 b350 6da4 9cee bb83
000000b0: 3a97 0002 fdd2 058d 8440 0000 ed9b 0100
000000c0: e1bd 0000 5f55 b704 f323 1600 8b4c 0080
000000d0: 4bef 2685 85b1 0080 6956 0080 64b1 0080
000000e0: 58c7 839a 953b a9a3 fd65 0380 68c9 f293
000000f0: d1b5 0000 4699 1381 7740 0080 8f36 0080
00000100: 9f41 019c 0b3e 0080 ac48 3e8f d5c0 908a
00000110: a544 0000 f300 0085 3a41 0000 7a42 0000
00000120: f1c1 cb8b 0969 0e8b b286 0100 0904 a692
00000130: 2954 cb95 88bd 0000 eeb4 0080 4e48 0780
00000140: e733 1592 6446 0080 d97e a596 019c 0180
00000150: e3bc 0000 b34e 0000 2842 0000 eebf 0080
00000160: 8679 0300 babc 028c c645 0000 c245 0000
00000170: 2270 0300 c444 0000 1fea a39c ddaa 0080
00000180: cbca 918a 6e41 0000 9156 a182 d0bb 0000
00000190: d77e 0000 8e8f 0100 c041 0000 153c 0000
000001a0: 2241 0000 d628 1980 0b4d 0080 75bd 0080
000001b0: adae 0080 f836 0080 bc95 0100 178b 0100
000001c0: a635 0000 a19f 0100 423c 0080 ad92 0100
000001d0: 1395 0180 aa3e c998 a076 5a8e e448 0080
000001e0: 8040 0000 f9af 0080 6979 0880 5f3e 249f
000001f0: 0938 0000 d4e4 4104 e370 eebd aca5 313d
00000200: 36de b13d e2af 273a 30d2 1c3b 5b55 85b9
00000210: cc7c 44bb 092a 0c39 2973 fe3b eb12 1ab7
00000220: 447d c5bb 8e76 4b3c 4b66 6d3a 93e3 dabc
00000230: aaee 7f3c ddb6 a13c 2d4e 05be 8b1c 343c
00000240: cfc6 b93b 026e b53c eb24 043a c0dc 9a3c
00000250: a134 a23a b51b a2bb 67da 613c ef18 fdbd
00000260: 2cf2 123d edd2 2cbc 6887 4c3a 1309 be3b
00000270: f01f a03c b620 8ebb 812d 10be 47bc 5a3a
00000280: e3ae d5bb bbf7 52ba 1457 8e3c 5504 4ebc
00000290: e551 bd3c 3b54 1f3d e810 463d b456 87bb
000002a0: 86b8 67bc e15e c4ba 465d c23a dc3d 6639
000002b0: bac3 f83b 377a ab3c 66b0 b339 2724 b2bb
000002c0: 6e37 9ab7 344f 12bc 2905 0a3a e765 3e3b
000002d0: a70e 823c a863 e137 9334 02be 9c41 7c3b
000002e0: f173 8d3c 81d7 983d 652d 193b 985d 833d
000002f0: b73b 7e3c e9c2 c736 e9dc 363a e80e 2a3d
00000300: d1e2 0e3d 199d 1cbc 6f49 823c 1bcd f23c
00000310: 9a9a db3c 8ff6 7f3c 190a d63c b431 0abe
00000320: 5f30 ee3c 0ce1 27bc 8596 873c 7524 323c
00000330: 6c79 00be 4170 08bc 8008 7c3b de44 863c
00000340: cd07 843b cac0 bc3c f640 f9bd 0eb8 c13c
00000350: 737b 95b9 0e11 19bc e4da 3aba 5495 65bb
00000360: 0ae1 463b 5b65 8cb7 80ba fbbd 4341 7e3c
00000370: 4dbb 043d 1b88 333b 6edb 9f3c 1acb 443a
00000380: a4e2 0abe 6153 bfb9 fa46 84bc 65ef dabc
00000390: 79a7 73bb 6726 23ba 736d b63d 6a77 c43a
000003a0: 166d a83c 18b6 813d 599b 1b3c 14be 31bb
000003b0: 006c b93c 8e8d 313d ec71 7e3a 7b20 893b
000003c0: e6ed 46b9 8ff5 9f3d e77f f1bd 6e93 703c
000003d0: 1dd6 d939 df96 e53c adc2 2bbc f8b0 93ba
000003e0: c2b8 993c 4bf1 0ebb a442 2b3a 6647 143a
000003f0: a834 0f99 7faa 0080 a225 0e8e 2b21 928c
-1.48643e-40 -6.6822e-41 -1.4765552e-32 -3.0178342e-31 4.5790988e-34 2.2313e-41 -2.078e-41 -2.0681572e-31
-1.50558e-40 -2.2585e-41 -2.3512e-41 -7.471723e-33 6.4383e-41 -1.48343e-40 2.2171e-41 -3.2136443e-26
-3.6659872e-29 2.002213e-39 -1.1600061e-28 -2.4157e-41 -6.4331e-41 4.0475243e-36 2.3515e-41 -2.5015e-41
2.2586e-41 -1.4335275e-23 -2.3966387e-17 -1.43923e-40 -6.4601337e-22 -4.3065223e-35 1.4218e-40 1.43052e-40
-5.4131584e-35 -2.4441e-41 -9.949824e-27 -1.376477e-26 -7.381305e-29 2.2473e-41 2.3815e-41 -8.979657e-22
-9.158228e-30 2.3452e-41 -5.1459538e-17 -1.1045654e-36 9.447355e-38 -4.1237757e-31 2.3144e-41 1.47771e-40
6.8116e-41 4.3101494e-36 2.033277e-39 -2.7458e-41 -7.849234e-36 -6.3682e-41 -3.0998e-41 -6.3636e-41
-5.450239e-23 -1.834825e-17 -3.12093e-40 -6.128799e-27 6.5223e-41 -2.7109604e-38 -2.3126e-41 -1.9572e-41
-4.2767333e-22 -2.2257e-41 -9.381719e-30 -1.3939231e-32 2.4625e-41 -6.0187054e-36 2.3399e-41 2.3847e-41
-7.8484566e-32 -2.7427225e-32 1.40155e-40 -1.0477068e-27 -8.212383e-26 6.7991e-41 -6.4905e-41 -6.68787e-40
-4.7080085e-28 -2.5251e-41 -2.673724e-25 -1.47799e-40 6.776e-41 2.8232e-41 2.3732e-41 -6.8851e-41
3.19101e-40 -1.0071629e-31 2.503e-41 2.5024e-41 3.15732e-40 2.4668e-41 -1.0846954e-21 -6.1294e-41
-1.4039274e-32 2.3472e-41 -2.370651e-37 6.7374e-41 4.5502e-41 1.43333e-40 2.3587e-41 2.1553e-41
2.3365e-41 -2.310537e-39 -2.7638e-41 -6.7964e-41 -6.2662e-41 -1.9719e-41 1.4555e-40 1.41732e-40
1.9245e-41 1.491e-40 -2.1616e-41 1.44453e-40 -1.45313e-40 -5.2020557e-24 -2.692769e-30 -2.6148e-41
2.3138e-41 -6.3127e-41 -7.78238e-40 -3.4779943e-20 2.0102e-41 2.2792114e-36 -0.11642625 0.043370888
0.086849615 0.0006396753 0.0023928992 -0.00025431332 -0.0029981611 0.000133671 0.007765193 -9.18352e-06
-0.0060268957 0.012418402 0.00090560754 -0.026719844 0.015620867 0.019740516 -0.13018103 0.010993133
0.005669452 0.022147182 0.00050409016 0.01890409 0.0012375304 -0.0049471506 0.013784981 -0.12358271
0.035875484 -0.0105483355 0.00078021595 0.0057994216 0.019546479 -0.0043373955 -0.14079858 0.00083440955
-0.0065210923 -0.0008047779 0.017375506 -0.012574275 0.02311034 0.038898688 0.048355967 -0.004130209
-0.014143115 -0.0014981889 0.0014828823 0.00021957554 0.007591692 0.0209323 0.00034272968 -0.0054364386
-1.8384042e-05 -0.008930016 0.0005265051 0.0029052438 0.015876127 2.6868496e-05 -0.12715368 0.0038491255
0.0172672 0.07462979 0.0023373005 0.06414336 0.015517167 5.9533527e-06 0.0006975667 0.041518122
0.034884278 -0.009558939 0.015904156 0.029638818 0.026807118 0.015622749 0.026127862 -0.13495523
0.0290758 -0.010246526 0.016551265 0.01087295 -0.12546319 -0.008327545 0.0038457215 0.01639026
0.0040292502 0.023041148 -0.121705934 0.023647334 -0.00028511471 -0.009342445 -0.0007127954 -0.0035031633
0.0030346536 -1.6736498e-05 -0.122914314 0.015518489 0.032405186 0.0027394358 0.019513812 0.0007507071
-0.13563019 -0.0003649248 -0.016147126 -0.02672548 -0.003717868 -0.0006223679 0.089075945 0.0014989201
0.020559829 0.0633356 0.009497487 -0.0027121352 0.022634506 0.043347888 0.0009706307 0.00418478
-0.00018971376 0.078105085 -0.117919736 0.0146835875 0.00041548992 0.028026043 -0.010483426 -0.0011267951
0.018764857 -0.0021811302 0.00065330626 0.0005656391 -7.4035606e-24 -6.1162e-41 -1.752097e-30 -2.2514824e-31

fc2.bias f4 [75]
00000000: 103e 0080 6650 813d 4f58 0180 226d ac3b
00000010: 5104 b33d 3ebe 0000 b94a 223e 89c7 c43d
00000020: f1db f63d 4a2f 2995 4871 bc3d 29af 9cbd
00000030: c08e 753c e602 743c 4633 2f3d 3451 8bbd
00000040: baa4 0000 645b afbd 2482 0180 9e1f 0080
00000050: e3c5 843b b21b af3d cc12 0139 6a2d a2bd
00000060: ebae 70bb 285e c83d 86d3 073d 6c78 df3d
00000070: 5fd2 b03d 9180 95bd 3812 0000 a29f 0080
00000080: d4ba b43b 982e b83d 1c48 bc3d 1a2e 233e
00000090: 486b c73d 0ff0 d13d 303c a4bd 346b cb3b
000000a0: c411 133c 76a8 9fbd a2ba 97bd 5ac7 c33d
000000b0: a620 0000 a62f 273e 07b0 9639 603d 0080
000000c0: f0b0 bc3d bb09 b83d 92a2 92bd 23f8 a3bd
000000d0: e719 ba3d 0f53 b23d 460d 0000 1a1c aa3d
000000e0: 4fe8 103d d270 033c 811b a1bd aac5 a3bd
000000f0: 147e 853b b972 9b3d 13c6 e43d 8ce9 ae3d
00000100: 53f7 bb3d 6b44 8eba 45cb b63d 2c9c ca3d
00000110: 6958 97bd 84d8 a6bd 235f 6e3c 7009 fa3b
00000120: 4c1f 02bd 9250 243d de24 0000
-2.2264e-41 0.06314163 -1.23515e-40 0.005262033 0.08741058 6.8246e-41 0.15848817 0.09608371
0.12053669 -3.4166583e-26 0.09201294 -0.07650597 0.0149876475 0.014893269 0.042773508 -0.06802598
5.9093e-41 -0.08562353 -1.38521e-40 -1.1342e-41 0.0040519102 0.08550204 0.00012309401 -0.07918818
-0.0036725353 0.09783584 0.03316071 0.109116405 0.08633875 -0.07299913 6.536e-42 -5.7265e-41
0.0055154357 0.08993262 0.09193441 0.15935555 0.09737259 0.10250866 -0.08019292 0.006207848
0.008976404 -0.07795803 -0.07408644 0.09559508 1.1712e-41 0.1632677 0.0002874138 -2.2017e-41
0.09213436 0.08986231 -0.07159914 -0.08006313 0.09086972 0.087072484 4.762e-42 0.08306141
0.035377797 0.008022504 -0.07866574 -0.07996686 0.0040738676 0.07590241 0.11170592 0.08540639
0.09178033 -0.001085413 0.08925489 0.09893069 -0.0738991 -0.08146766 0.01454905 0.0076305196
-0.03176813 0.0401159 1.3225e-41

fc3.weight f4 [4, 75]
00000000: 5924 7730 0ca7 79bd 3057 0038 53cc 4d3e
00000010: ec3d 12be 588d 50ae eab6 c2be f572 47be
00000020: d0ca 4abe 579d 7937 c62c 16be c6ca 553e
00000030: ef46 fd3d 1205 f03d 7363 56be 727e 4e3e
00000040: baea a2b1 de2a 633e 17a7 8a37 7e6d d638
00000050: 587f 1e3e 75d8 14be eb1a 343e 5e51 4a3e
00000060: f978 333e 3c17 52bd 0ace 3fbe 67d7 3ebe
00000070: 9063 17be 9491 453e f85a f995 3af2 7137
00000080: c9d5 483e 0869 18be 8eec 69bd 2de1 c1be
00000090: 882e 3fbe 7ba5 55bd 594d 4f3e ddf1 3b3e
000000a0: 3d86 c8bd baf4 4d3e 1e59 4b3e 9f74 5abd
000000b0: b05d 2328 3cf7 c3be 0286 80b9 0946 7cb5
000000c0: 262c 14be 1732 18be 7da5 4a3e a714 5d3e
000000d0: 006c 19be 4988 56bd 5838 6bb8 d072 7fbd
000000e0: 7dfd 44be 6478 4c3e ec7d 5a3e c315 5f3e
000000f0: 012f 1f3e 2c43 5fbe 34cc 45be 5240 0abe
00000100: 7c53 17be 2c29 143b 0d8d 17be de8f 69bd
00000110: f072 3f3e 3bce 523e 1d16 f63d d47c 3f3e
00000120: f90e d13d f06e 51be 685d 7831 6531 f12b
00000130: ae2b 9cbd 6cfc b636 b0cd 4a3e fe31 81be
00000140: 91c1 46b0 13e5 b03d d0ba 873e 2fdb 813e
00000150: ffd9 2e32 ddab 7dbe 94c8 2ebe 9633 d43d
00000160: 058b c93d 30bf 3d3e e655 1bbe d60b 0a38
00000170: aaf5 40be 32ec 0038 5741 d2b6 2149 1c3e
00000180: 2696 74be 0553 193e b04d 30be 73bf 193e
00000190: 9764 8ebd 37ba 403e c0f2 7f3e caeb 7bbe
000001a0: 0ba4 28be d6f3 a90f 4f58 3eb5 8c51 433e
000001b0: 594b 7ebe e8fa 88bd 42eb 9c3d f93e 7d3e
000001c0: 9ca5 89bd 161b 33be a78f 383e c103 573e
000001d0: 0e60 39be 44cd 1cbe 9351 93bd 2acc 0a35
000001e0: 1016 b03d 9948 d9b9 8bd9 70b5 2162 78be
000001f0: 0098 81be 0640 22be 50e3 34be d354 82be
00000200: 6f97 96bd 630f 0b33 e652 1a3b d75b 523e
00000210: e3d4 493e c247 31be ef25 38be 8275 083e
00000220: 12b7 6e3e 8ea3 7a3e 43d0 80be c6f9 7bbe
00000230: 32e3 b8ba 721a 7cbe 41a9 8ebd b21e 29be
00000240: fcec 30be ba16 d73d a619 3d3e 0dd3 8cbe
00000250: 39ba 583e bb2a 53b2 62bd e6b4 5bfd 74be
00000260: b546 f939 5368 193e fd0a 2f3e 05a3 b9b7
00000270: c94e 113e a1c3 debd 4686 16be 4509 1434
00000280: ef3b 473e 474b 85bd 285d a4be 6b0d a2be
00000290: bbec ae3d 401f 94bd 6c62 0c3a 3ce6 99bd
000002a0: 3f7c 71b8 0535 e333 e2be e13d 3d9d 333e
000002b0: 0a98 85be 0a0d a0bd 460f 83be 5ba7 b2be
000002c0: df62 a73d 4119 0dbe 894c 3c3e 6910 b0bd
000002d0: 775b 0e2a a93f 5538 a169 153e 27b9 403e
000002e0: 32d1 bbbe f37d 043e 776e edbd 63c4 b4be
000002f0: 59dc a6bd be86 093e 6f65 c53d 41e3 96bd
00000300: 3c3b a7bd 16fa acbe c75f 7b37 1fa8 073e
00000310: 42b6 9f37 464d 8e32 3c19 393e 63b6 3f3e
00000320: 7fe1 9dbd bd77 98bd 100a 343e b2dc a2be
00000330: f3e7 e8b1 da9f a5be 9275 a23d e4cb 213e
00000340: bf35 99bd d321 8cbd 5752 93be 176b d0bc
00000350: a9fb 10be 70f1 333e 3c01 433e a2a5 e3ba
00000360: 79b1 333e c1d0 b8be 38a9 a8bd e8c9 b2bd
00000370: a2e0 9fbe 5518 0f3e 49b7 043e 2eaf 873d
00000380: a495 0b36 27fd 56b6 3a2c ae3e f33a 32bb
00000390: a8ed 25bf b5b3 263e f685 fd38 d4c4 d83d
000003a0: 8a83 283d 63b0 b63d e17f 7fb8 9522 403e
000003b0: 6cd1 e53c 5d0f 2d3d 65cb 0e3d 57de 74bd
000003c0: 49dc 113d 707e 6e38 4bfc 1d3d 2b90 9b39
000003d0: b47c d935 5fed 22bf 3c5e 2e3e 9ae7 2dbd
000003e0: a1a8 453d 7249 40bd 8765 ec3e 2bcf a2bd
000003f0: 0ee5 973d c13a 293e f0eb 643d 246e 12aa
8.990973e-10 -0.060950324 3.0598778e-05 0.20097475 -0.14281434 -4.7419263e-11 -0.38030177 -0.19477446
-0.1980393 1.487819e-05 -0.14665517 0.20878133 0.12367045 0.11719717 -0.20936374 0.20165423
-4.741506e-09 0.22184321 1.652869e-05 0.0001022471 0.15478265 -0.14535697 0.17588393 0.19757602
0.17526616 -0.05129169 -0.18730941 -0.18636857 -0.14784074 0.19293815 -1.0071382e-25 1.4421117e-05
0.19612803 -0.14883816 -0.05711036 -0.37867108 -0.18670094 -0.052159768 0.2024435 0.18353982
-0.09791229 0.20112887 0.19858214 -0.053333875 9.068633e-15 -0.38274562 -0.00024513906 -9.397923e-07
-0.14469966 -0.14862858 0.19789691 0.2158991 -0.14982605 -0.052376065 -5.608084e-05 -0.062365353
-0.19237323 0.199678 0.21337098 0.21785645 0.15545274 -0.21802968 -0.19316179 -0.13501099
-0.1477794 0.0022607548 -0.147999 -0.057021968 0.18696189 0.20586483 0.120159365 0.18699962
0.10207934 -0.20452476 3.6141845e-09 1.713779e-12 -0.07625519 5.4534084e-06 0.19805026 -0.25233454
-7.2307055e-10 0.086374424 0.26509714 0.25362536 1.01777e-08 -0.24772592 -0.17068702 0.10361402
0.09840969 0.18529963 -0.15169486 3.2912787e-05 -0.18843713 3.0737552e-05 -6.2660943e-06 0.15262271
-0.23885402 0.14973076 -0.17217135 0.15014438 -0.0695278 0.18821035 0.24994946 -0.24601665
-0.16468827 1.6758609e-29 -7.090902e-07 0.19074076 -0.2483343 -0.066884816 0.07662059 0.24731053
-0.067210406 -0.17490801 0.18023549 0.20997526 -0.18103048 -0.15312678 -0.071932934 5.1706104e-07
0.08597958 -0.00041443555 -8.9723534e-07 -0.24256183 -0.2531128 -0.15844736 -0.17664838 -0.2545534
-0.073531024 3.2377454e-08 0.0023547946 0.20542847 0.19710116 -0.1731253 -0.1798322 0.13326076
0.23312023 0.24476454 -0.2515889 -0.24607 -0.0014105795 -0.24619463 -0.06965876 -0.16515616
-0.17277902 0.105023816 0.18466815 -0.2750477 0.21164788 -1.2291532e-08 -4.2978633e-07 -0.23924772
0.00047545662 0.14981203 0.17094035 -2.212963e-05 0.1419021 -0.10877157 -0.14699659 1.3786946e-07
0.19456457 -0.06508499 -0.32102323 -0.31650862 0.085412465 -0.07232523 0.0005355242 -0.07514617
-5.757459e-05 1.05801554e-07 0.11022736 0.1754045 -0.2609256 -0.07814987 -0.2559759 -0.34893307
0.08173155 -0.13779165 0.18388571 -0.0859688 1.2643867e-13 5.0842445e-05 0.14591075 0.1882063
-0.3668304 0.12938671 -0.11593335 -0.3530608 -0.08147497 0.13430306 0.096384875 -0.07367564
-0.08165595 -0.3378455 1.4983066e-05 0.13247727 1.9039147e-05 1.6566116e-08 0.18076032 0.18721919
-0.077090256 -0.07444713 0.17581964 -0.31809002 -6.7784582e-09 -0.3234852 0.07932581 0.15800434
-0.074809544 -0.06842389 -0.28773758 -0.02544169 -0.141585 0.1757257 0.1904344 -0.0017368088
0.17548169 -0.36096767 -0.08235401 -0.08729917 -0.3122607 0.13974126 0.12960543 0.0662521
2.0799716e-06 -3.203584e-06 0.34018117 -0.002719578 -0.6481576 0.1627949 0.00012088932 0.10584417
0.04114107 0.08920362 -6.0915834e-05 0.18763192 0.028053962 0.04225098 0.03486194 -0.059782352
0.03561047 5.6861376e-05 0.038570683 0.00029671317 1.6204053e-06 -0.6364345 0.17028135 -0.0424572
0.04825652 -0.046945043 0.4617121 -0.079496704 0.074167356 0.16526319 0.05588907 -1.3005618e-13

fc3.bias f4 [4]
00000000: e9ce cfbe c1a8 733d 4603 4b3e dd03 303e
-0.40587547 0.05948711 0.19825467 0.17188974
