MediaPipe_Operation/model_4class/gesture_classifier_with_unclass_data.pth (torch, 194026 bytes, 6 tensors)

fc1.weight f4 [126, 300]
00000000: 6f0e d2bc 313f b8bc f9e4 06bc 1c05 a53b
00000010: 88bc 1cbc 9957 213a 3543 c5bc 4eee 9abc
00000020: 737a 38bc 943d 4b3b bd63 40bc ac0d b5b9
00000030: 1280 bebc 97cf 8cbc d8ff 24bc 436d d73b
00000040: 7f14 24bc 3814 a0bb 5465 b2bc 081f 94bc
00000050: e2fc 48bc 2d8d f03b d8a8 d9bb a9d4 5dbb
00000060: f352 aebc 375a 94bc 6944 46bc 4de0 d23a
00000070: 9f45 b9bb 17ee 60ba 88af 94bc 4c4f a1bc
00000080: f693 28bc ac71 baba 441b 55bb e884 0ebb
00000090: 20e2 90bc 6ea2 a2bc 26ec 16bc 48b7 ccba
000000a0: cc32 8dbb 2470 98bb 1269 6cbc 5c50 adbc
000000b0: 902f c6bb 921d 83b8 5b7c 2dbb abe3 b4b8
000000c0: 26c7 7bbc 2cca adbc 8e91 0dbc b26c 2ebb
000000d0: c5d8 a5bb 4ea3 a838 bf58 83bc a47b b0bc
000000e0: 4494 cfbb 3d42 42bb 304a 35bb e9d4 583b
000000f0: 5cf0 84bc fdc2 97bc 4555 06bc 11d0 a6bb
00000100: ad29 72bb fbf9 0e3c 6f25 84bc 470e 99bc
00000110: aaa2 c4bb e0e0 d9bb 98a5 b2bb e7db af3b
00000120: eb19 69bc c4ce 9ebc 1289 e1bb 3daa 47bc
00000130: ea24 fabb ce50 443b 3db2 60bc 412d 98bc
00000140: ce48 b0bb bb15 51bc 9333 03bc 80a3 a43a
00000150: 35ba 4ebc ae66 99bc b33f 94bb 97ca f1bb
00000160: 7668 b9bb 9e48 3cba 3fd5 50bc fdb3 84bc
00000170: 9177 a8ba 93a7 2eba 2147 4dbb 6ebf c7ba
00000180: 3a33 58bc 682b 76bc 83d1 34ba 752d 203b
00000190: fb87 19bb 88a8 94bb 9239 5ebc 3c3a 81bc
000001a0: 8551 6b3a e895 d9b5 9ba4 10bb a2fb fcbb
000001b0: add9 66bc 5b10 85bc de55 beb9 79d9 883b
000001c0: 3181 52bb d085 33bc 0cbd 74bc 9c04 72bc
000001d0: 1a2e 41bb 867f d83b 5fca 9dbb 8c36 82bb
000001e0: 3177 78bc 535b 6cbc e602 39bb 5062 a13b
000001f0: 3bb8 2fba 89e1 87ba f8fe 7dbc 767d 37bc
00000200: 0a20 93bb 9d52 383b 0260 4e3b 12bf 8f38
00000210: 6900 68bc cad8 36bc 87c3 35bb b5d3 e23b
00000220: ac69 8a3b 2f60 7a3a cd1a 65bc fa1b 32bc
00000230: 0c7e 60bb adda bb3b 295d 853b 0197 2fba
00000240: e0d8 56bc e365 3cbc 3566 08bb 8810 093c
00000250: 3af7 cc3b 3d55 94ba 801c 4abc a218 36bc
00000260: 3e3e d2ba 9833 ad3b 6b7c a83b fc9e 28ba
00000270: 7e09 45bc 74d4 10bc 87fb c2b8 4803 163c
00000280: 6265 983b d210 953a f72a 35bc c2a5 05bc
00000290: 0804 a13a 14dc 2f3c 83ab 813b 63f8 c43a
000002a0: 760a 46bc e1d0 efbb 64e4 08ba 2e80 cc3b
000002b0: 13fd 053b 3c4a 35ba ff0f 36bc 72cc ebbb
000002c0: 5efa e03a 34f2 0e3c eda0 02bb ac57 d6ba
000002d0: 989d 3dbc 20c8 e2bb e196 3039 a48d 2d3c
000002e0: f8d3 d1bb 98f7 9a3a a028 18bc ef67 54bc
000002f0: 4881 5d3b e830 9b3b 140d 8dbb 93c8 aebb
00000300: 8506 e3bb 7d39 52bc 2915 b43b 86df f23a
00000310: 3d26 3ebb 751f 3dbb 3b4f f8bb 970b 41bc
00000320: 8b07 b03b aad0 9a3b 9f5f 3ebb a7b3 09bb
00000330: 3e79 e4bb 168e 4bbc 6000 bc3b 9205 073b
00000340: 7998 31bb 7de2 fdb9 f698 f9bb 5cf1 47bc
00000350: 0bcb a53b fbc6 8abb 68dc 98bb 2088 9f3a
00000360: 0e27 0fbc dd07 5abc e6ff 833b 2271 91bb
00000370: 3bbb ebbb bc23 803b a0f6 1fbc 2988 76bc
00000380: 3369 973b b8e2 f9bb e6e3 abbb 01a4 a33b
00000390: 63e6 37bc a4f5 72bc 3476 d03b 4567 77bb
000003a0: 2c1b 45bb 8205 c43b 609f 46bc cbda 7ebc
000003b0: 8ba7 ad3b f6b7 81ba 733a 3fba 1936 1c3c
000003c0: 9080 38bc 99e3 95bc 0939 023c 8335 1639
000003d0: 8def 1e3b 889d 783b 29e6 31bc 243f 94bc
000003e0: d5ef 723b cfb7 e738 26bd f9b9 8f79 523a
000003f0: ef8a 17bc a492 9ebc 43f6 7f3b fc57 683b
-0.025641648 -0.02249107 -0.008233302 0.0050360095 -0.009566434 0.00061547157 -0.024079898 -0.01891246
-0.011259663 0.0031012045 -0.011742529 -0.00034533197 -0.023254428 -0.01718883 -0.0100707635 0.0065743043
-0.010014652 -0.0048852228 -0.021776833 -0.018081203 -0.012267323 0.007341048 -0.006642442 -0.003384868
-0.021279788 -0.018109424 -0.012101271 0.0016088575 -0.0056540514 -0.00085804 -0.018150106 -0.019691132
-0.010289183 -0.0014224551 -0.0032517472 -0.0021746699 -0.01768595 -0.019852843 -0.009211576 -0.0015618587
-0.004309034 -0.00465204 -0.014429348 -0.021156482 -0.0060481504 -6.252075e-05 -0.0026471827 -8.625475e-05
-0.015367305 -0.021214567 -0.00864066 -0.002661508 -0.0050612413 8.041282e-05 -0.016033528 -0.021543331
-0.0063348133 -0.0029641532 -0.0027662627 0.0033085889 -0.016227894 -0.018525595 -0.008199041 -0.0050907214
-0.003695111 0.008726592 -0.016131131 -0.018683566 -0.0060008364 -0.0066491216 -0.005451869 0.0053667906
-0.014227371 -0.019385703 -0.006882795 -0.012186584 -0.007633795 0.002995539 -0.01371437 -0.018576266
-0.0053797727 -0.012761529 -0.008007902 0.0012560934 -0.012617637 -0.01872572 -0.004524195 -0.007378887
-0.0056582047 -0.00071824517 -0.012746154 -0.016199106 -0.0012853016 -0.0006662544 -0.0031322914 -0.0015239546
-0.013195807 -0.015024997 -0.0006897675 0.0024441157 -0.0023426998 -0.004536692 -0.0135635305 -0.015774839
0.0008976686 -1.6211388e-06 -0.0022070769 -0.0077204267 -0.014089984 -0.01624315 -0.000363036 0.0041763154
-0.003212046 -0.010957196 -0.01493765 -0.014771607 -0.0029476942 0.006606999 -0.0048153843 -0.0039737877
-0.015165136 -0.01442607 -0.0028230487 0.00492505 -0.00067031727 -0.0010366897 -0.015502684 -0.011199346
-0.0044899033 0.0028125413 0.003149033 6.854361e-05 -0.014160254 -0.011160085 -0.0027734952 0.00692221
0.004224023 0.00095510756 -0.013983441 -0.010870928 -0.0034254817 0.0057328553 0.0040699434 -0.00066982216
-0.0131132305 -0.011498901 -0.0020812873 0.008365758 0.0062550576 -0.0011316907 -0.0123358965 -0.011114271
-0.0016040278 0.0052856915 0.005141785 -0.0006432382 -0.012026189 -0.008839715 -9.2974915e-05 0.009156056
0.0046507576 0.0011372811 -0.011057607 -0.0081571955 0.0012284527 0.010733623 0.0039572134 0.0015027638
-0.012087455 -0.0073186015 -0.0005222021 0.006240866 0.0020445033 -0.0006915664 -0.011112212 -0.0071960026
0.0017164459 0.008724738 -0.0019932345 -0.0016353033 -0.011573218 -0.0069208294 0.00016840875 0.010592852
-0.0064034425 0.0011823056 -0.0092870295 -0.012964233 0.0033798981 0.0047360547 -0.0043045375 -0.005333969
-0.0069282674 -0.012831089 0.0054956865 0.001852975 -0.002901449 -0.0028857861 -0.0075778044 -0.011782548
0.005371993 0.0047245817 -0.0029048694 -0.0021011622 -0.006972461 -0.012424013 0.0057373494 0.0020602685
-0.0027098937 -0.00048424667 -0.0076171113 -0.012203541 0.005059605 -0.004235146 -0.0046649463 0.0012171306
-0.008737339 -0.013307539 0.004028308 -0.0044385353 -0.0071939505 0.00391051 -0.00976339 -0.015047112
0.004620695 -0.007625904 -0.0052456735 0.004993916 -0.011224362 -0.014829073 0.006361747 -0.0037750762
-0.003007601 0.005982102 -0.012122959 -0.015555094 0.0052995137 -0.0009896744 -0.00072947814 0.009534382
-0.01126112 -0.018297004 0.007948169 0.0001432505 0.002425167 0.0037935693 -0.010858097 -0.018096514
0.003706922 0.000110491754 -0.00047633908 0.0008028978 -0.009249433 -0.019357033 0.0039056696 0.0035452833

fc1.bias f4 [126]
00000000: 0b51 4fba 6d6a 33bd 82df fc39 7a04 993c
00000010: 63a0 373a 7ba8 ee3a 1060 8139 3144 0cbd
00000020: e2a3 053b 8bcf 4d3c 2ec8 a1bb 37c0 d73a
00000030: 5c03 923d c928 233b d514 6a3b 0ae7 c03a
00000040: bf1d 2d3b 407e 91bd 9eb4 8d3a 7c6a 103c
00000050: 3e96 c83b 36f3 7cbd 6fa4 36bd be1f a5bd
00000060: 25ce 7c3a fc4e 2c3a 2a92 3e3a 5ef5 663b
00000070: 2c35 383b 8c27 7f3a a3fe 3a3c b12e c23b
00000080: 0668 713d 2e05 873c 7f5b 993c 2c0c 693b
00000090: 6d9d 96bd ce59 8ebc ab40 7dbd bf29 91b8
000000a0: 9e5c e33a 7aa5 9fbd 6630 253c 5c97 a03a
000000b0: a309 03bc fc54 07bb 8b90 d1bc 8951 b5bd
000000c0: c73f 1cbd c933 1d3c cd74 333d 180a e9bd
000000d0: 3787 1e3b ce89 9dbd 8cb6 28bc fc1a cd3d
000000e0: 111a af3b f1a4 4339 0679 a2bd 9ef5 babd
000000f0: 8aef 5a3d 1397 e63a 45cd 303c ab6f 553b
00000100: 10b3 bd3c 6c43 5638 e802 0f3a 37e1 22bb
00000110: 2981 363d aef0 4fbd b5d0 863a 61b4 963b
00000120: 054d 8e3d c86b 87bd 8102 30bd 6d62 19bd
00000130: bc1a 4c3d cf69 a03a c47c 70b9 b4e8 06bd
00000140: 9323 483c 7965 43ba a18c c8bd ceba 323d
00000150: df20 713c dd72 61bd 5ef4 a2bd 7ef1 ecbd
00000160: 8633 0b3b 50b3 d83b 740b 0cbd 9917 ba39
00000170: 20c1 a03c c9f3 f7bb ae85 26bd a170 1b3c
00000180: 7b68 e43b 244c 8dbc 8f74 0dbe 30fb 73b8
00000190: efc0 8cbd c19c 05bc dd28 45bd 624f eeba
000001a0: ac8d babb 18ac a8bd d87a 673d 6955 4937
000001b0: 0601 fbbc bfc1 63bc 435a bebc ac8b 9bbd
000001c0: d5b8 04bd f846 8aba 5351 8aba deeb 143d
000001d0: 609f 5839 2fad 0cba 7d4a 4a3d 6d5c 5f39
000001e0: 3bbe 14bc 92e6 96bd 59e8 70bc 5014 ac3c
000001f0: b1e7 55bd 24b4 72bd
-0.00079084997 -0.043802667 0.00048231712 0.018678892 0.00070047955 0.001820817 0.0002467637 -0.03424472
0.0020391871 0.012561689 -0.0049371934 0.0016460483 0.07129547 0.0024896136 0.0035717983 0.0014717293
0.0026415435 -0.071041584 0.0010811274 0.00881445 0.006121426 -0.06175538 -0.04459041 -0.08062695
0.0009643755 0.0006573049 0.0007269705 0.0035241465 0.0028107865 0.0009733371 0.011413249 0.005925976
0.058937095 0.016481962 0.018720387 0.0035560234 -0.07354245 -0.017376807 -0.06182925 -6.9219146e-05
0.0017346328 -0.07795234 0.01008234 0.001225214 -0.007997903 -0.002065002 -0.025581619 -0.08853442
-0.03814676 0.009594866 0.04381256 -0.11378878 0.002418948 -0.076923 -0.010297429 0.100149125
0.0053436835 0.00018658095 -0.0793324 -0.09128879 0.0534511 0.0017592631 0.010791128 0.003256778
0.023156673 5.1084367e-05 0.000545545 -0.0024853477 0.04455677 -0.05076664 0.0010285588 0.0045991396
0.06948284 -0.066123545 -0.042971138 -0.03744738 0.049830183 0.0012238565 -0.00022934662 -0.032936767
0.012215513 -0.000745378 -0.09792448 0.043635182 0.01471731 -0.055041183 -0.079567656 -0.115694985
0.0021240427 0.0066131726 -0.03419061 0.00035494266 0.01962334 -0.0075669033 -0.04065483 0.009487302
0.006970463 -0.01724822 -0.13813995 -5.816965e-05 -0.06872737 -0.008155049 -0.048134673 -0.0018181617
-0.005693158 -0.08235949 0.056513637 1.200042e-05 -0.030640136 -0.013901173 -0.0232364 -0.07595
-0.032402832 -0.0010549715 -0.0010552801 0.036357753 0.00020658737 -0.00053663825 0.049387444 0.00021301369
-0.009078558 -0.073681965 -0.0147038335 0.02100578 -0.05222291 -0.059253827

fc2.weight f4 [75, 126]
00000000: 050c a73b 4ce9 ab3c 6b7c 113a 5732 9bbc
00000010: cf42 4cbb aca2 1ebd 925e 253c e170 1fbc
00000020: 5e66 01bc 945b 5c3d 188d 4dbb f8c1 c2ba
00000030: 3cc9 473c 8db2 ad3b 0960 ef39 1497 bf39
00000040: cd0d 523a 3dd5 893c ab27 9fba 420e 89bc
00000050: 6c30 5c3a a414 953c 2298 de3d 45d0 3b3c
00000060: a4ea ebba 49f3 163a 7bcc 8e3a 584b 16bd
00000070: e308 ab3a 7fc0 2e3a f741 483d 70d2 c8bb
00000080: 0b57 443d 5999 a2bc 79b6 bebc 1ff1 20bd
00000090: a405 fb3c 2c40 27bc 6d71 393c 0f4d 1cbb
000000a0: 39e2 603a 2810 1b3d a0f8 a2ba 2f26 433a
000000b0: bb4c e6bb 9c8e 0cbd 77ea da3d f80f 993c
000000c0: 85e4 d83d ed0b 4c3d 3d17 f6bc bbdc d73d
000000d0: e22a d0bb 231f ac3c 1db3 e5bb d3f0 ce3c
000000e0: b0d7 36bd 6705 7639 5195 9c3c 6c80 913c
000000f0: de2b 143a 6465 6dbc f695 91ba f380 043b
00000100: e65c 4e3d 5545 a339 1e34 ca39 8358 07bc
00000110: 57c8 1f3c 38c4 51ba 1d17 683b 1571 41bd
00000120: 6a4a 8fbc 26a7 df3d aabd 3fbb 8268 143c
00000130: 2999 31bb 710c f139 6724 cbbb cc34 e43c
00000140: c1aa 593d 1ab2 f73a e6e8 cb3d 4526 f8bb
00000150: dec6 ee3c 39fb f43b fadb 993c c670 503c
00000160: 8443 9439 b8da c43a 9f84 8cbc 0510 4d3d
00000170: 1742 8b3d e8f8 483c 25e0 ad3d 72ae 3abc
00000180: 883f 8239 14d1 843d 10c1 fc3d 0e0d fa38
00000190: aa4e 2e3b 9c9d c63b 5058 7b3d 2ce3 0b3b
000001a0: 633c 783d df43 943c 5660 70bb d6e3 3039
000001b0: e14d e13c 414c 943d 5268 b0bc b9a6 153d
000001c0: c494 07bc c330 7b3b a565 ea3b f75a 293d
000001d0: 9c12 7939 416b bbbb e508 87bb 254c 7539
000001e0: 999d 373c da11 b23d 14fe 7ebc ba44 0cbd
000001f0: dee4 2b3d 51ee 883d 7e90 893c 43d2 363d
00000200: 5575 c93b e84b 463d 1595 c43b 6bfa 543d
00000210: 99d5 223d b71d 313d 83e7 613c 7631 c63c
00000220: 71c4 423d 2c15 603b 9d76 d53c 897e 3e3c
00000230: 465a 493b be56 f33a 03bc bd3b 5f40 233c
00000240: cd90 313b 2fa4 323d 83b3 703b 5802 613b
00000250: 2dbb 6fbd f78a 353c 9ac6 7f3b 1b74 7b3b
00000260: 00a4 273b 6495 3a3d f875 163b e002 c13a
00000270: 02dc a73c 3640 3c3c 9dd3 01bb 7087 0d3d
00000280: 0e00 563d 6efe 4d3d 1209 223d fff2 e53c
00000290: f7e1 0e3c e946 dd3b 576c 093b 0c9b 84bc
000002a0: a64a 653d 31d0 b63a b901 483d 4ce4 273d
000002b0: 09c6 59bd 1242 f33b 72d2 75bd 6003 7cbd
000002c0: 1c3a 8f3d 0d25 83bd 0c1b 283c a9f5 073c
000002d0: ec08 673d 14f7 0e3d 1cfa 5e3d c000 5b3a
000002e0: 3457 163c 98c7 123c 2ce3 583d 926b d13c
000002f0: 7762 db3c 8606 9d3b f19b 6dbd 5422 773a
00000300: f695 693a 727a 2f3d f3a6 153d 1a76 d73c
00000310: 68b1 903b 2099 7c3d aaab 8a3d a8c7 8abd
00000320: 8944 e43c 08a0 493c 2f33 663c 726c 833a
00000330: f9c4 2c3c 69b1 92bd 85c6 6fbd 2ff8 b23b
00000340: fdfc 67bd ee32 3a3d fcbe 063c 90ff 263d
00000350: 3af0 fcbb 65ca 083c 6e08 3e3b 02d5 663d
00000360: 14b1 3d3d 5991 413c bec3 58bd cf52 9e3c
00000370: b700 4dbd 4f08 f03c 8490 8a3c 527e 8fbd
00000380: aed0 89bd b442 763a b915 893c 880e aab9
00000390: ab66 63bd 1019 293c 3ae6 80bd 2c48 b83b
000003a0: d1db 0d3d 8a38 903a 8492 9abd 1533 e0ba
000003b0: 2cec 313d ad69 cfbc 6390 363d e42e 973b
000003c0: 711b 143c bba2 8c3c 72b3 043a 6945 4a3c
000003d0: a45b 543d a27c e739 f59d a63c 39fb 29bd
000003e0: 73d7 743d 9d86 473d 58a7 81bd 4b1c 0bbd
000003f0: 440a 883c 1338 603c fcfd 863b 0cd7 9bbc
0.0050978684 0.020985268 0.0005549851 -0.018944902 -0.003116775 -0.038729355 0.010093348 -0.009731502
-0.007897941 0.053798273 -0.0031364616 -0.0014858833 0.012193974 0.005300826 0.00045657184 0.0003654292
0.0008012921 0.016825313 -0.0012142559 -0.016730431 0.00083995494 0.018198319 0.10868861 0.01146323
-0.0017999006 0.0005758298 0.001089468 -0.036692947 0.0013048913 0.00066662574 0.048891034 -0.0061286017
0.047934573 -0.019848512 -0.02328037 -0.03929245 0.030642338 -0.010208171 0.011318547 -0.0023849641
0.00085786317 0.037857205 -0.0012433715 0.00074443495 -0.00702819 -0.03431569 0.10689252 0.018684372
0.10590462 0.04981606 -0.030040378 0.10540148 -0.0063527683 0.02101094 -0.0070098774 0.025261318
-0.04463929 0.000234624 0.019114168 0.017761432 0.00056522887 -0.014489505 -0.0011107314 0.0020218461
0.050381564 0.0003114144 0.00038567273 -0.008260849 0.009752355 -0.0008001956 0.0035414167 -0.047226984
-0.017491538 0.10920553 -0.0029257336 0.00905812 -0.0027099347 0.00045976372 -0.006199408 0.027857207
0.05314136 0.0018897683 0.09956531 -0.0075729215 0.029147562 0.007476237 0.01878165 0.0127222
0.00028279063 0.0015018797 -0.017153082 0.050064106 0.06799715 0.012266375 0.08490018 -0.01139413
0.00024842867 0.06485191 0.12341511 0.000119233606 0.002659718 0.006061269 0.06136352 0.0021345122
0.060604464 0.01809877 -0.0036678514 0.00016869543 0.027502956 0.07241107 -0.021534119 0.036535952
-0.008275215 0.0038328625 0.0071532303 0.041346516 0.00023753423 -0.005719573 -0.0041209334 0.00023393387
0.011207008 0.08694811 -0.015563507 -0.03424523 0.04196631 0.0668608 0.016792532 0.044634115
0.0061480203 0.048412234 0.0059992173 0.05199663 0.039754484 0.04324123 0.013788107 0.024193507
0.047550622 0.0034192307 0.026057536 0.011626848 0.0030723973 0.001856528 0.005790235 0.009964078
0.0027094365 0.04361361 0.003672809 0.0034333672 -0.058528114 0.011080495 0.0039028288 0.0038368765
0.002557993 0.045552626 0.0022958498 0.0014725588 0.02049065 0.011489918 -0.001980997 0.03455299
0.052246146 0.05029147 0.03955943 0.028069971 0.008720866 0.006752838 0.0020969117 -0.016187213
0.055979393 0.0013947544 0.048829768 0.040989205 -0.053167377 0.0074236477 -0.06001515 -0.061526656
0.06993505 -0.06403551 0.010260355 0.008298316 0.056404993 0.0349036 0.05443774 0.0008354299
0.009176064 0.00895872 0.052951023 0.025563989 0.02678035 0.0047920374 -0.058010045 0.00094274175
0.00089105905 0.042841382 0.03653617 0.026301432 0.0044156797 0.06166947 0.067710236 -0.06776363
0.027864711 0.012306221 0.014050289 0.0010026826 0.010545009 -0.071627446 -0.058538932 0.0054617147
-0.056637753 0.045458727 0.008224245 0.040771067 -0.007719067 0.008349036 0.0028996724 0.056355484
0.046311453 0.011814439 -0.05292105 0.019326596 -0.05004951 0.029300837 0.016914614 -0.070065156
-0.067292556 0.0009394095 0.016733991 -0.00032435753 -0.055517834 0.010320917 -0.06293912 0.005623838
0.03463346 0.0011003178 -0.07547477 -0.0017105067 0.04343812 -0.025318945 0.04457129 0.004613744
0.009039746 0.01716744 0.000506214 0.01234565 0.051845208 0.00044152612 0.020338992 -0.04149935
0.05977578 0.04871236 -0.063307464 -0.03396253 0.016606458 0.013685244 0.0041196328 -0.01902344

fc2.bias f4 [75]
00000000: d23e 333b 0789 853d d1b2 9bbd 5c14 833d
00000010: 9a83 863d ddaf 1bbd 46d9 16bd 1e61 a2aa
00000020: 41a2 833c 6af1 643d 3dbb 9a98 e01c 44bb
00000030: ca54 b93d 3126 b63d 056d 723d 1a8a c13d
00000040: 4076 bc3d 322c 943d c073 9ab0 65dd 603c
00000050: 1dab 9dbd ea47 2abd e8d9 283d f92c 9dbd
00000060: cc79 8b3d 6903 a304 264a cc3d cc52 0295
00000070: 7246 6d3d d44b 713d 7a9d 85a3 a154 8a97
00000080: d1b4 b63d a684 1b3e 4084 de83 3da6 233e
00000090: f797 f7bc a43b ac3d 9088 0100 6f48 883d
000000a0: b24e 4b38 6c99 0180 47e5 cbb5 b790 c63d
000000b0: f892 7a3d 250e 213e d423 03bc 6e2f 1abc
000000c0: 5419 4cbc 9d53 42bc e8a8 8ebd 2469 7d3d
000000d0: 00c2 b5bb e830 713c 74ff abbd 3d96 743d
000000e0: cacd 723d d247 813d 16b2 0000 2e56 a6bd
000000f0: 3501 1f3c 8090 8d3d c9c4 843d 6ca6 7e3d
00000100: 2e65 a1bd f227 bf3d a0b1 6e3c 8393 0980
00000110: 184f 6d0c 0206 2286 4ad1 6f3d c37c be3d
00000120: f44d 0000 c877 9cbd 1c4f c593
0.0027350676 0.065202765 -0.07602466 0.064003676 0.0656807 -0.038009513 -0.0368283 -2.884437e-13
0.01606858 0.055894293 -3.999713e-24 -0.0029924437 0.09049375 0.08894003 0.059186 0.09450169
0.09202242 0.07234992 -1.1237873e-09 0.01372466 -0.07698653 -0.04157249 0.041223437 -0.076745935
0.0681034 3.8324248e-36 0.0997508 -2.6318606e-26 0.05792851 0.058910206 -1.4486583e-17 -8.939404e-25
0.08921207 0.1518732 -1.307835e-36 0.15981384 -0.03022383 0.08409813 1.40825e-40 0.066544406
4.8472262e-05 -1.46873e-40 -1.5191407e-06 0.09695571 0.061175317 0.15728052 -0.008004148 -0.009410722
-0.012457211 -0.011860755 -0.0696581 0.061867848 -0.0055468082 0.014721133 -0.08398333 0.05971359
0.059278287 0.06312527 6.3885e-41 -0.08121906 0.009704878 0.06912327 0.06482846 0.06217043
-0.078806266 0.09333791 0.014568716 -8.79437e-40 1.8281617e-31 -3.0473227e-35 0.058549203 0.0930114
2.7964e-41 -0.07640034 -4.98078e-27

fc3.weight f4 [4, 75]
00000000: bec7 363e 3ba8 22be b93e 5f3e 23bb 94bd
00000010: 639b 2cbe aa75 243e 8993 0b3e b1e3 173d
00000020: 90b3 393e fdb0 f4bd 4a5a 81ba 2a58 6d3c
00000030: 6494 2dbe 6e88 b93d 4bba 22be 621d 9bbd
00000040: e7f6 30be fd10 1cbe a4a5 4638 34a1 353e
00000050: 760b 673e 22a3 223e 6d4d 5cbd b0f3 603e
00000060: 72ba 86bc 81b1 3038 35af 84be 79c7 1a38
00000070: 5a60 1bbe 33e9 2dbe 9bf2 6cb8 4c36 97b6
00000080: ce59 37be 03ea c1be 32cb 0037 53be c9be
00000090: 23dc 113e 2b9b 113d f4ea 32b6 ef78 33be
000000a0: f245 e6b8 c60a 85ba ddf6 323c cda2 f23d
000000b0: a324 20be 0369 c8be 2950 0a3e 17ec 073e
000000c0: 6e8e 063e 570f 163e 13c7 533e d967 27be
000000d0: 33c0 f83d 1ab5 403e 496b 793e 26e2 25be
000000e0: 14c1 23be 668a 27be 95ed 63bb 60d6 713e
000000f0: dea4 443e 94d4 9abd 2e5c d3ba 4426 88bd
00000100: 845c 6e3e 3d4f 4abe b05e 293e 6118 92bb
00000110: 24aa b637 97e7 78b1 f5a0 8dbd 7eef 69be
00000120: 22e9 3731 4a21 6e3e 0738 9ab8 fd09 1c3e
00000130: 7eb3 7dbe b601 39be c746 84bd 7ad1 82be
00000140: 9163 80be c95b 19be 010f 9938 869e 1e3e
00000150: 9e78 5dbe ba38 6abc c136 26bc e68a 833e
00000160: 561e 173e 618a 7dbe 4ad5 413e 425e 823e
00000170: ce29 643e 1644 41ba b55b 163e 7c70 45be
00000180: 231e 73be 6297 87bd 35bf 34be 1d83 0e3e
00000190: a96b d6b5 4822 633e 1f47 b1b6 a217 76be
000001a0: 3e6a 86be fa87 1bb9 ed45 e7b5 1c9b 933e
000001b0: 2f99 e83d 9106 b831 66fa c83d e507 71be
000001c0: 8757 233e 4904 1932 5758 7fbe 406c 0bba
000001d0: 3fd1 bc37 191e 95bb a2ae 1c3e 92be 85be
000001e0: 6412 d63d 730a cb3d 7f7c ca3d dd80 b33d
000001f0: 1280 c93d b4c0 1abe c249 83be 0aec b63d
00000200: 4e2b 243e d4cd 3ebe 0539 79be b0c9 80be
00000210: 9c61 81be a851 8f38 ada9 3bbe 6e46 1f3e
00000220: cf87 8dbd 9e48 0f3e 89ba 88bd 4f5a 40be
00000230: 459b 963e 01fd 123e cc94 3833 e6e1 a137
00000240: 5189 8ab7 51cb 8ebd 49f8 7c3e 2b32 8b34
00000250: c8fd 28be a25e feb1 0a8e a0be 506e 2e3e
00000260: f61a 81bd bfa5 d2be 8f69 1a3e 5dea e23d
00000270: 87dd 57be a307 24ba 2f18 66be 1909 2d3e
00000280: 9624 233c fef3 5fbb 84db 33be 485d 593e
00000290: 79df 153e 2e2e 993e 1b63 46be d281 55bd
000002a0: 54a2 833a a36a 6abe 23ee 86bd 9a39 cf3d
000002b0: 95ee c6be 0a4f 9fbd f3f5 843e 25da a83b
000002c0: 3dab 61bc ff98 d137 36cd 0c3e 300d 0e3e
000002d0: 5483 3eb9 31b4 053a f681 febd e993 d63d
000002e0: 7c9b a635 09b5 fc3d 1717 d53d 8a32 8f3e
000002f0: a868 76b8 9d36 303e f309 4fba 3f6b 403a
00000300: c1c6 1eb9 7c0f 4a3e e8be 173e 067b de3d
00000310: 3495 d6be 9ee0 d1be 49fb d6be 2c91 cfbe
00000320: 5837 a5bd 9d7c 203e 39a8 d2be fdc9 55be
00000330: 3c6d 8ebd d4a1 1e3e 42e5 1b3e 1f7c 1f3e
00000340: 12c6 6d3b 68d0 a2bd 3d3f 5cbe e82c bdbe
00000350: 784e 8a3e 996d c7be 7c51 8bbd 00d7 21bd
00000360: b8f6 5dbe 50ea aa38 d9f7 be36 c84f 9a37
00000370: e453 c4be 4863 0bbc db90 9eb8 5b1a 89bd
00000380: ea2e 37b7 bfa2 c2bc 86b9 4b3e ec97 ab3a
00000390: c267 fc3e 78f3 323e 3cab 01bc c36e 693e
000003a0: 4db4 a3bc 46f3 37be 7e22 423e 4c91 c83b
000003b0: 32b9 f3b9 9866 b43d b13b 0bbf eb4f 1b3e
000003c0: 284c b8be 3856 ce3d a6bd 783c 43a2 103a
000003d0: 5957 2ebe 4d84 1c3c 40b8 00bd 9c27 f93e
000003e0: 47a7 ee3c 05a9 c1be cf2a 2d3c b020 443d
000003f0: c239 e6b9 34cf 103e 1290 253e 0b82 5d3a
0.17849633 -0.15884487 0.2180127 -0.07262256 -0.1685615 0.1606051 0.13630499 0.037082378
0.18134904 -0.1194782 -0.0009868827 0.014486352 -0.16951138 0.09059225 -0.15891378 -0.07573964
-0.17281686 -0.15240856 4.7361144e-05 0.17737275 0.22562966 0.15882543 -0.053784776 0.2196796
-0.016446326 4.2126983e-05 -0.25914922 3.6902235e-05 -0.15173474 -0.1698349 -5.649273e-05 -4.5064717e-06
-0.17905352 -0.3787385 7.676705e-06 -0.39403018 0.14244132 0.03554837 -2.6660828e-06 -0.17526601
-0.00010980283 -0.0010150305 0.010923115 0.11847458 -0.15638976 -0.39142618 0.13507141 0.13273655
0.1314027 0.14654289 0.2068141 -0.16348208 0.12146034 0.18819085 0.24357332 -0.1619955
-0.15991622 -0.16361389 -0.003477906 0.23616934 0.19203517 -0.07560077 -0.0016125494 -0.066479236
0.2327748 -0.1975679 0.16540027 -0.0044584726 2.1775319e-05 -3.6220393e-09 -0.06915466 -0.22845265
2.6762526e-09 0.23254886 -7.353728e-05 0.15238185 -0.24775502 -0.18067059 -0.06458812 -0.25550443
-0.25075963 -0.1497642 7.298403e-05 0.1549016 -0.21628043 -0.014295751 -0.01014489 0.2569191
0.14757666 -0.24759819 0.1892902 0.25462538 0.22281572 -0.00073725113 0.14683421 -0.1928119
-0.23741965 -0.06620671 -0.17651065 0.13917203 -1.5975576e-06 0.22181046 -5.2832906e-06 -0.24032453
-0.2625293 -0.00014832607 -1.7231192e-06 0.28829277 0.113573425 5.3558513e-09 0.09813385 -0.23538168
0.15951358 8.9067465e-09 -0.24936043 -0.00053185597 2.2508784e-05 -0.004550707 0.15300992 -0.26121956
0.104527265 0.099141024 0.09887027 0.08764813 0.098388806 -0.15112573 -0.2564221 0.0893174
0.16032144 -0.18633205 -0.24338157 -0.25153875 -0.25269783 6.833981e-05 -0.18326445 0.1555421
-0.06910669 0.13992545 -0.06676204 -0.1878445 0.29415336 0.14354326 4.297617e-08 1.9297888e-05
-1.6514825e-05 -0.06972373 0.24704088 2.592727e-07 -0.1650306 -7.4031314e-09 -0.31358367 0.17034268
-0.063039705 -0.4114208 0.1507933 0.110798575 -0.210806 -0.00062572415 -0.22470163 0.16898002
0.009957453 -0.003417253 -0.17564207 0.2122699 0.1463603 0.29918045 -0.19373743 -0.05212576
0.0010042884 -0.22892241 -0.0658839 0.101184085 -0.388539 -0.077787474 0.25968894 0.005152958
-0.013773737 2.4985986e-05 0.13750157 0.13872218 -0.00018168736 0.0005100398 -0.12427132 0.104774304
1.2413216e-06 0.12339217 0.10404795 0.27968246 -5.874844e-05 0.17208333 -0.0007897906 0.00073401997
-0.00015142096 0.1973247 0.14818919 0.108633086 -0.41910708 -0.40991682 -0.4198859 -0.40540445
-0.080671966 0.15672536 -0.4114397 -0.20877834 -0.069544286 0.1549142 0.15224174 0.15574692
0.003628139 -0.079499066 -0.21508498 -0.36948323 0.27012992 -0.38950804 -0.06802651 -0.03951168
-0.21676147 8.149876e-05 5.6912945e-06 1.8395382e-05 -0.38345253 -0.008507557 -7.5610085e-05 -0.0669448
-1.0918573e-05 -0.023759244 0.1989499 0.0013091541 0.4929791 0.17475688 -0.007914361 0.22796158
-0.019983435 -0.17963895 0.1895847 0.0061208364 -0.00046486553 0.08808631 -0.54387957 0.15167205
-0.35995603 0.10075039 0.015181934 0.0005517343 -0.17025508 0.009553027 -0.031425714 0.48663032
0.029132498 -0.37824264 0.010569288 0.047882736 -0.00043912051 0.14141542 0.1616824 0.0008449859

fc3.bias f4 [4]
00000000: f4b0 bfbe 9c98 523e f6e6 db3e df5f 76be
-0.37439692 0.20566028 0.42949647 -0.2406001
